logs/sscl_01171234/best_w.pth (torch, 51736 bytes, 30 tensors)

temporal_filtering.conv.weight f4 [8, 1, 1, 128]
00000000: 2d6f e4bd e3fa 6bbd 4193 ddbc f2ec 94bd
00000010: 1e7a 49bd 9193 76bd 4460 97bd 51da 92bd
00000020: a85d 3bbd 0eb3 0dbe e826 82bd a3cb 1d3c
00000030: 8d10 2e3d e3e2 fd3b 7c92 0c3e edfc 2e3e
00000040: 9427 283e 2230 4e3d 843c bd3d 877d 8c3d
00000050: d672 073d dedf 36bd 93dc 3ebd ccb5 0abb
00000060: 4599 91bc 5cf1 d43c 8646 4abc c496 eb3c
00000070: 3224 b6bd 99d1 8ebd 86a9 7cbd 82c8 16bd
00000080: 5c48 763c 0551 963d 1138 0d3e ae14 8d3d
00000090: 5b6a 2b3e 9f9a 083e 0116 6d3c db8b 703d
000000a0: c6f1 283d f130 e0bc e817 2dbd acb3 bbbc
000000b0: 943b 413c 18f1 863d ebc4 17bd e9dd e8bb
000000c0: a23e d4bb c636 393d 2884 fcbc aac2 4cbc
000000d0: d66b adbd f2e8 b3bd e809 d13b 3023 f3bc
000000e0: 8477 ef3c 2f0e 7f3c a28d aa3d 7615 a73d
000000f0: 5a75 a83d caf6 45bd c93d bc3b b877 dabd
00000100: 7cc4 acbd 4a8b e9bd 7721 94bd 451d 8a3b
00000110: 065f 16bb 508c f1bc f325 b5bc 26d7 62bc
00000120: 594b e438 de7a 61bd edb2 043d 82a7 093a
00000130: 63a1 4a3d ac84 593d fec6 c63d ee3c ac3d
00000140: 3b13 4fbc 1a4c b63d 7e2d 8d3d a5e3 be3c
00000150: 0ceb 54bd d90f 70bd 8de6 f4bd 3943 44bd
00000160: c90f 893d 5f55 04bd 2a86 c03c 2056 08bd
00000170: 4b33 1cbd 5251 bbbc bced c6b9 d1e4 553b
00000180: 320d b7bd 32b2 1b3d 233a 9b3c 8cdb 0bbd
00000190: bd00 623c dd4e ca3d 8c1b 853d 33bf 613d
000001a0: 5334 1d3d 0a7d b0bb 8124 a13d 679c ad3c
000001b0: 033b aebb 179e a73d bd1f e33b c4b8 ed3d
000001c0: 5525 4f3d fdcb 0a3d a13c 513d 3137 333d
000001d0: 5db9 2dbb 0c7e 1bbd 2212 b7bd 4f19 8bbd
000001e0: 0ae6 11bd 03c0 e9bb 620e f33c 4e71 a0bd
000001f0: 9993 70bd 421b a7bd 1c25 dbbd ed7b cebc
00000200: ccd2 3ebb ab20 c0bc 81f7 eabc 513e c63b
00000210: ab4a 8b3d ce74 243d e569 83bc b936 5abd
00000220: 1933 16bd 769b 9bbd 8c72 91bc e9cb 273d
00000230: f21f 32bd 3d32 873d 7c12 9bbc 6b81 2b3d
00000240: f391 493d 9f35 223c a753 d8bd b84e b53b
00000250: e3a1 e7bc 90f7 f63c d0cf 80bd cc17 f3bb
00000260: 23d8 82bc 3f07 b13d 8562 b33d 43c3 ee3c
00000270: 2bd2 92bd cfae 0d3d b28c 85bd 1368 33bd
00000280: 83a3 f33c 91b9 813d 37aa a13d 1096 75bc
00000290: e94a 563d 48cf 613c 0a89 c2bc a816 edbc
000002a0: a002 61bd e5b0 133d b0de c93d df6c 8fbb
000002b0: 03f2 6dbd d43a a6bd 7390 f4bd 418d dabc
000002c0: 9dc2 94bd ace5 b73c f217 8c3b 8d31 703d
000002d0: 70c7 273d 8532 9e3d b7cb 013e 1ee4 9b3d
000002e0: 9def a53b 6571 963d 0432 823c a962 8cbd
000002f0: e960 38bd 64d2 f0bc ab6f 2d3c a7a6 d5bd
00000300: c32f a5bd 3858 3bbd 628c 40bb fdce 99bd
00000310: ff8c 8abd e89e bdbd ccb4 2abd 5fc7 613d
00000320: 6aa2 033e 2e3b 4c3d 863c ce3d 5f47 1d3d
00000330: d33c b83d 1f5b 7e3c aa13 9cbc de53 eb3c
00000340: de49 1ebc 04ab 58bd 0ebd 00bd 202e 91bd
00000350: 6ac1 0dbe e46c c3bd 386f 00be 6f10 fabd
00000360: 5bf1 02be 1236 83bd 401f d33d 6843 e93d
00000370: e18f 163e 985c 033e f28b d43c 373d 4bbc
00000380: 4302 70b9 2023 483d 7056 833d 382a 9f3d
00000390: ba8c 1b3d b840 2e3d d726 15bb 2143 66bd
000003a0: ccd7 e1bd 8dd9 5dbd 1b26 21bd 3f1b f0bc
000003b0: 84b4 9d3c 902f 23bd 8a10 70bd 5b5d 043d
000003c0: bf3b 853d 717e a53d ca2f 44bd ffba 5b3d
000003d0: b89a 463c ef89 b2bc f066 db3c de34 8a3c
000003e0: 4ad6 a63c 389a 543c e140 2bbc 1900 cf3b
000003f0: 535a 14bd 3911 a1bd 6544 9dbb 183b 0bbd
-0.111540176 -0.05761231 -0.027047755 -0.07271756 -0.049188726 -0.060199324 -0.07391408 -0.07170547
-0.045743614 -0.13837835 -0.06355077 0.00963107 0.042496253 0.0077479943 0.13727754 0.17088671
0.16421348 0.05033887 0.09240058 0.0685988 0.0330685 -0.04464709 -0.046597075 -0.0021165488
-0.01777328 0.025993995 -0.012345916 0.028758414 -0.088936225 -0.06973571 -0.061685108 -0.036812313
0.0150319 0.07339672 0.13790919 0.0688871 0.1673979 0.13340233 0.014470578 0.058727127
0.041246198 -0.027367087 -0.042259127 -0.022912823 0.01179399 0.06588954 -0.03705303 -0.007106532
-0.006477193 0.04521825 -0.030824736 -0.012497583 -0.08467834 -0.08784665 0.0063793547 -0.029679865
0.029231794 0.0155673465 0.083277956 0.0815839 0.08225508 -0.04833106 0.00574467 -0.10667366
-0.08435914 -0.114035204 -0.072329454 0.004214915 -0.0022944822 -0.029485852 -0.022112822 -0.013845241
0.00010885922 -0.055048816 0.0323972 0.0005251096 0.049470317 0.05310504 0.097059235 0.08410059
-0.012638862 0.08901234 0.068934426 0.023301909 -0.05198197 -0.058608864 -0.119580366 -0.04791567
0.06692464 -0.03230798 0.023501474 -0.03328526 -0.038134854 -0.022865925 -0.0003794263 0.0032637606
-0.08938064 0.038011737 0.01894862 -0.034144923 0.013794121 0.09878323 0.06499395 0.055113982
0.03837998 -0.0053859996 0.07868291 0.021192743 -0.0053170933 0.0818445 0.0069312737 0.11607507
0.050572712 0.033885945 0.05108321 0.043753807 -0.002650819 -0.037962005 -0.089390054 -0.067919366
-0.035619773 -0.0071334853 0.029669944 -0.07834111 -0.05873451 -0.08159496 -0.107004374 -0.025205577
-0.0029117344 -0.023453077 -0.028682472 0.006049909 0.06801351 0.040150456 -0.016041705 -0.053274844
-0.036669824 -0.07598011 -0.017754816 0.04096595 -0.043487497 0.06601379 -0.018929712 0.04187147
0.049211454 0.00990048 -0.105628304 0.0055330656 -0.028275436 0.030147344 -0.06289637 -0.0074186083
-0.015972203 0.0864396 0.087590255 0.029145842 -0.071689926 0.03459054 -0.06520976 -0.043800425
0.029741054 0.06334222 0.07893794 -0.014989391 0.052317534 0.01378233 -0.023746986 -0.028941467
-0.054934144 0.03605737 0.098569274 -0.004376992 -0.05809213 -0.08116689 -0.11941614 -0.026678683
-0.07263682 0.022448383 0.0042753154 0.058641005 0.040961683 0.077244796 0.12675367 0.07611869
0.0050639645 0.07345847 0.01589299 -0.068547554 -0.045014296 -0.029397197 0.010585706 -0.10432177
-0.080657504 -0.04573843 -0.002938055 -0.07510183 -0.06765174 -0.092588246 -0.041676328 0.055121776
0.12854925 0.049861126 0.10070138 0.038398143 0.08995976 0.015524655 -0.019052345 0.028726514
-0.009661166 -0.05289747 -0.031430297 -0.07088876 -0.13843313 -0.095422536 -0.12542427 -0.12210166
-0.12787382 -0.064067975 0.10308695 0.1138981 0.14703323 0.1282829 0.025945637 -0.0124047315
-0.00022889026 0.048861623 0.06412971 0.077717245 0.037976004 0.04254219 -0.0022758746 -0.056216363
-0.11027488 -0.05416255 -0.03934298 -0.029309867 0.019251116 -0.03984028 -0.058609523 0.032315593
0.06505536 0.080807574 -0.047897138 0.05364513 0.012121849 -0.021794287 0.026782483 0.016870912
0.020365853 0.012976222 -0.01045248 0.0063171503 -0.036218952 -0.07864613 -0.004799413 -0.033991903

temporal_filtering.conv.bias f4 [8]
00000000: ed2b 1d37 9694 3f37 d27c 26b7 e540 4534
00000010: fd30 6b35 7b72 7a38 a6b4 3c37 9945 e536
9.3681565e-06 1.14190825e-05 -9.923433e-06 1.8370663e-07 8.761561e-07 5.9711263e-05 1.1247734e-05 6.832834e-06

temporal_filtering.senet.fc.0.weight f4 [4, 8]
00000000: 2d27 aea2 aa6f 3326 fe4f 67a3 331d 0e24
00000010: 675e 9923 baa5 c0a4 445c b422 0702 4e24
00000020: 32aa 8d02 1a1d 2d81 b77d 4002 2e12 cb81
00000030: b46c ee81 0315 6a03 015e e482 5106 d182
00000040: 7518 0080 6602 0080 0703 0000 9710 0080
00000050: 33e2 0000 d06e 0180 1062 0000 0223 0000
00000060: 4fbb 7e82 53d6 c781 db51 4f82 9cb5 d581
00000070: c090 b802 20d0 f881 8612 af01 be0d 6900
-4.7204273e-18 6.2254433e-16 -1.2539474e-17 3.0816074e-17 1.6628274e-17 -8.354748e-17 4.8886788e-18 4.4670847e-17
2.0815775e-37 -3.179596e-38 1.4142011e-37 -7.459651e-38 -8.7583374e-38 6.879054e-37 -3.3555545e-37 -3.0713415e-37
-8.774e-42 -8.6e-43 1.086e-42 -5.951e-42 8.1145e-41 -1.31588e-40 3.5178e-41 1.2558e-41
-1.8714728e-37 -7.3408595e-38 -1.523145e-37 -7.850444e-38 2.7119452e-37 -9.1399457e-38 6.4311427e-38 9.647657e-39

temporal_filtering.senet.fc.2.weight f4 [8, 4]
00000000: 7473 c09e 86e3 6580 ec0c 0000 ad1c 1580
00000010: c967 ba2a 6337 5f00 210e 0000 64dd 3680
00000020: f05f 9f1d 8829 8100 5a0e 0000 5431 0200
00000030: 91ec 9a23 ed67 9304 7472 0000 93f5 2c00
00000040: 60aa 4423 9b5e 2480 a203 0000 3151 ac80
00000050: 62d8 ba1f 3cd2 1782 7460 0200 d23b 2f00
00000060: 855f 3c1f 3aae 0600 690a 0080 8115 0083
00000070: 19a9 9aa3 d9ca 9081 4d2e 0000 b78d 9a80
-2.0376541e-20 -9.357005e-39 4.635e-42 -1.938832e-39 3.3112253e-13 8.744241e-39 5.068e-42 -5.038537e-39
4.2186147e-21 1.1861678e-38 5.148e-42 2.01367e-40 1.6796903e-17 3.4654975e-36 4.1058e-41 4.128857e-39
1.066126e-17 -3.340016e-39 1.303e-42 -1.5824831e-38 7.913204e-20 -1.1154062e-37 2.18272e-40 4.337728e-39
3.988956e-20 6.13514e-40 -3.734e-42 -3.7640505e-37 -1.6768329e-17 -5.318832e-38 1.661e-41 -1.4193504e-38

temporal_filtering.bn.weight f4 [8]
00000000: 433d 883f ae69 683f 4ee2 703f ae63 883f
00000010: d554 613f db53 723f 999a 6b3f f60c 7f3f
1.0643696 0.90786254 0.94095314 1.065542 0.8802007 0.94659203 0.9203277 0.9962915

temporal_filtering.bn.bias f4 [8]
00000000: ebb6 a2be d3b5 8abe cd4e f9be 2502 a4be
00000010: 145d e1be f671 18be b54d 48be bf31 0fbe
-0.3178018 -0.27091846 -0.48692933 -0.32032886 -0.44016325 -0.14887223 -0.19560893 -0.1398382

temporal_filtering.bn.running_mean f4 [8]
00000000: a6e1 02b6 ea71 fe35 5da9 23b5 02aa 6835
00000010: b781 1336 48eb 5237 de13 dc36 c741 8a35
-1.9502854e-06 1.8957628e-06 -6.096869e-07 8.667413e-07 2.198021e-06 1.2571756e-05 6.5588238e-06 1.0300945e-06

temporal_filtering.bn.running_var f4 [8]
00000000: 0ba6 0d3f c8c2 e83e 726a 333f b8e3 4c3e
00000010: 201e f53e 4d28 4f3e 3ad6 b73e a9c0 953e
0.55331486 0.45461106 0.700843 0.20008743 0.47874546 0.20230217 0.3590563 0.2924855

spatial_filtering.conv.weight f4 [16, 8, 3, 1]
00000000: 21d0 60bd 5b9f 06bd 2323 b93d 41e6 3fbe
00000010: f2b6 55bd 9fcc d13d acc7 1ebd e189 63be
00000020: fd01 bebb 24fe 0abd 709b 92bc f34c 073e
00000030: 1a0c 81bd c65c 63bd 5ae6 a13d 6e32 0abe
00000040: 5cf2 f8bc 8123 713e 0989 c43d 84f2 38bd
00000050: 5aba 53bd 78d8 ec3d 7119 3a3e b71c 18bd
00000060: 9815 723d 49b3 50bd d3ac c63c 538e 853d
00000070: 5ae7 31be a840 083d 6bb5 843d e4ab 6d3c
00000080: 601a d139 2018 9bbd c1d5 a03d 3b35 a23d
00000090: 4649 af3d f849 bf3c c6fe 9b3d 786b 633d
000000a0: 29ff 1bbe 36eb 48be ccfd 1bbb ff41 8fbd
000000b0: 47e7 6bbd fc80 503c 0cf6 efbc 8944 37bd
000000c0: 86a5 29bd ad64 9dbd f9a8 873d ec97 06be
000000d0: d239 0dbe c3b3 8a3d 79aa 1ebe 9e04 9bbc
000000e0: 4eb1 3b3e 905c 4cbe 286e f13b 15a6 8bbe
000000f0: 0e90 3ebe 64ff 33bd 0696 0c3e b5cf 633c
00000100: bdfb 733d 408c 2c3c c879 e4bd 82c2 47bd
00000110: b2f4 9f3d 04b3 3b3e 334b 393e 4ba6 043e
00000120: 7ddb 023b e9e3 88bd 51e3 a83d efab 4cbd
00000130: 9254 ccbd 3686 633e c506 bbbd bc07 5cbd
00000140: 7b11 debc 3deb 493d b5e7 8e3b 548f 78bd
00000150: c78b ccbd da47 903d 20d7 c8bd abd9 33bd
00000160: 5b68 233e b25a 103c 43c1 32be 819a 8b3d
00000170: a9d4 7bbd 63cc 4fbd 5a3e f9bc 3fb7 d83d
00000180: 3c1a a43d 5811 013e 20ac 8c3c 67fb d0bd
00000190: 9eee 753d 07cb fcbd 6760 823b f900 c53d
000001a0: f5de 0a3c 8073 693d 0444 f3bb 255e 94bd
000001b0: 5a01 2ebc a35f 63bb 7489 94bd a23a 84be
000001c0: 7880 b0bd bd43 c03b bc31 4abe 32f2 82bd
000001d0: 0411 1cbe 9b05 05bd 520f 07be 7c6e 47bd
000001e0: d2de e3bd aa19 0fbc 6010 80bd f6fa bcbd
000001f0: 1e9d 3fbe 2390 693d 5929 61be 35fe 11bd
00000200: 9495 abba 5f13 ca3d d2d7 8f3d ef58 023d
00000210: b76a 13be 3862 19be 3b63 0e3e d57f ea3d
00000220: 42be 1b3e 2985 d6bd 40ea 943b 35dd 853d
00000230: 688e 043e 961f 7c3d 0573 623d 7874 123e
00000240: 9ac4 06be 4aa7 d43c c6f0 f9bd 54c0 c3bd
00000250: 2370 d73d f4a3 953d 6180 103d 676c f6bd
00000260: 79ec 10be 20f1 113e 739b 133d f08d 4dbd
00000270: 8e25 81bd 9bda 203e 05d4 71bd b165 85be
00000280: 5198 c7bd e246 cbbc d4ec cab9 b46d f23c
00000290: 4e0d 4e3d 8361 31bd 1d9f 273d e854 d0bd
000002a0: cab5 63bd d73e 4abd 57e7 b1bd f862 7d3d
000002b0: 0497 c23b 4e2a 343e 65a6 1f3d 500a 85bd
000002c0: 159b 38bc f259 72bc a58c 1cbe 4b48 8dbe
000002d0: 1b6b ea3c 0d5a 1cbe 8d10 03be a8b3 0e3e
000002e0: 51c2 a13d 7a4d e637 e772 8bbd 21be 8b3c
000002f0: cfcc 083e bb12 143e 0040 5f3d 1611 1fbe
00000300: 9c83 53bd 0f72 e5bd b8a5 e73d b3c4 66bd
00000310: 6db0 34bc 0213 30bd d6a6 8b3c 36b0 ba3d
00000320: 0aa3 b3bd 76b7 223d 4e38 fe3c ccfc aa3d
00000330: 3f9d fbbc ba0c 593e c3b4 fbbd e23c 0f3d
00000340: 40ce 67bb 38d3 15be 9733 e53c 726c 953c
00000350: f5d9 13be 2f44 7abd 8caa 84bc 1169 c7bd
00000360: a4bd 50be 64d1 f8bd f49d 2dbe e852 9b3d
00000370: 06c9 563d d3b3 633d d34f 52be bdee 493d
00000380: b964 6bbe f264 0fbd 509a 5c3c 8705 cbbd
00000390: f2d1 3e3d 1531 b63d ffd2 a0bd 9361 423e
000003a0: e558 c93d 475f 1a3e 36ce e9bc aa48 373e
000003b0: 1d1f 123d 877e 1d3e e85c 89bd 9432 69bd
000003c0: d7b9 9a3d 88c7 d33b 5a08 57bd 6d8e e4bd
000003d0: 4f1d 553d cf62 bbbd 22ae 25bb f1b7 c0bd
000003e0: 3dad f03d 48ae 8cbe a01e 87be 924a d3bd
000003f0: 9b00 67be c069 3ebc fc0c f43d 32d9 fa3d
-0.054885987 -0.032866817 0.09039905 -0.18740179 -0.052176423 0.102441065 -0.03876464 -0.22220565
-0.005798577 -0.033933774 -0.017896384 0.13212948 -0.06301136 -0.055508398 0.07905264 -0.134958
-0.030389003 0.235487 0.0959645 -0.045153156 -0.05169139 0.11564726 0.18173768 -0.03713676
0.059102625 -0.05095223 0.02425233 0.06521287 -0.1737341 0.033264786 0.06479915 0.014506314
0.00039883237 -0.07572961 0.0785327 0.07920309 0.08558898 0.0233507 0.076169536 0.055522412
-0.15234055 -0.19620976 -0.0023802398 -0.0699501 -0.05759361 0.012726065 -0.029292129 -0.044743095
-0.04141762 -0.07685218 0.06624026 -0.13143891 -0.13791588 0.06772568 -0.15494718 -0.0189231
0.18329355 -0.19957185 0.007367868 -0.27275148 -0.1860964 -0.04394473 0.13729104 0.013904502
0.05956625 0.010531485 -0.111560404 -0.04876948 0.07810344 0.18330008 0.18095092 0.1295406
0.001996725 -0.066840954 0.08246482 -0.049968656 -0.09977068 0.22219166 -0.091321506 -0.053718314
-0.027107945 0.049296606 0.0043611177 -0.060683563 -0.09987598 0.070449546 -0.09806657 -0.043908756
0.15957777 0.008810686 -0.17456536 0.06816579 -0.061482105 -0.050732028 -0.03042524 0.105818264
0.08012816 0.12604272 0.01717192 -0.10204201 0.060042016 -0.12343412 0.003978777 0.09619326
0.008476009 0.056994915 -0.0074238796 -0.07244519 -0.010620439 -0.0034694455 -0.072527796 -0.25825983
-0.086182535 0.00586745 -0.19745535 -0.06393851 -0.15240866 -0.03247605 -0.13189438 -0.04868935
-0.11126484 -0.008734146 -0.06253123 -0.092275545 -0.18712279 0.057022225 -0.21988429 -0.03564282
-0.0013090842 0.09866976 0.07023586 0.031823095 -0.14396177 -0.14978874 0.13905041 0.11450163
0.15209296 -0.10474617 0.0045445263 0.065363325 0.12944949 0.06155356 0.055285472 0.14302242
-0.13160935 0.025958676 -0.12204127 -0.09558168 0.10519435 0.07306662 0.03527868 -0.12032395
-0.14152707 0.14252138 0.03603692 -0.05018419 -0.06305991 0.15708391 -0.05904009 -0.26054147
-0.09745849 -0.024814073 -0.00038704893 0.029593326 0.050305657 -0.043305885 0.040923227 -0.101724446
-0.05559329 -0.049376335 -0.08686703 0.061861962 0.0059384126 0.17594263 0.038977046 -0.064961076
-0.011267443 -0.014791952 -0.15288027 -0.27594218 0.028615525 -0.15268727 -0.12799282 0.13935721
0.07898391 2.7454214e-05 -0.06809025 0.017058434 0.13359378 0.1446027 0.054504395 -0.15533862
-0.051639184 -0.112033956 0.11310905 -0.05633993 -0.011028391 -0.042986877 0.017047327 0.09115641
-0.087713316 0.039725743 0.031032708 0.083489984 -0.03071463 0.21196261 -0.12290337 0.03497017
-0.0035370737 -0.14631355 0.027978702 0.018240187 -0.14438613 -0.06110018 -0.016194604 -0.09736837
-0.20384842 -0.12149313 -0.16954786 0.075841725 0.052437805 0.055591416 -0.20538263 0.049299944
-0.22987641 -0.03500838 0.013464525 -0.09913164 0.04658694 0.088960804 -0.07852744 0.18982534
0.098314084 0.15075408 -0.028540712 0.17898813 0.035674203 0.15380298 -0.067071736 -0.056933
0.075549774 0.006462995 -0.0524982 -0.11159978 0.052029904 -0.091497056 -0.0025280793 -0.09410084
0.117517926 -0.27476716 -0.26390553 -0.103169575 -0.22558825 -0.011621892 0.11916539 0.12248458

spatial_filtering.conv.bias f4 [16]
00000000: 4885 03b9 0bcc fc36 443e 9eba 584e 87b7
00000010: df5d 5db8 74c1 5c3b 1bff 05b9 e619 b23c
00000020: 2deb ecb7 6fc8 463c 5ac9 17ba aef8 0a38
00000030: 5487 b135 a3f9 a3b8 a2de 203c d5b6 3f37
-0.00012542785 7.533939e-06 -0.0012073 -1.6129736e-05 -5.277793e-05 0.0033684643 -0.00012778903 0.021740865
-2.8242905e-05 0.012132748 -0.00057901966 3.3133365e-05 1.3226913e-06 -7.818944e-05 0.009818705 1.1427056e-05

spatial_filtering.senet.fc.0.weight f4 [8, 16]
00000000: ba93 24b2 2697 bcb2 d9f6 a832 a460 b532
00000010: 1bfa 6233 2bc4 f531 6355 9b33 b5ae f232
00000020: 11f3 0e33 e9f0 ee33 706d e232 9f6b 58b2
00000030: c4c8 4732 e645 6833 f3d1 8432 cd7d 2932
00000040: 46d6 8e3a 5ba9 87b8 b53f 0bba e1bd b2b9
00000050: 0712 58bb 8fbe 2f3a 5a6d 54bb 8b08 223a
00000060: 2303 e2ba 6106 00bb d2dc 0bba c147 3f3a
00000070: 40dc a038 bb0c 8fbb aac8 90b6 d3b4 8438
00000080: 85f9 73b6 bbb5 fdb6 3c6d f737 6ba8 8e37
00000090: 0f44 1e36 a8df 0038 f021 8f37 f07c c837
000000a0: aebd 8336 3667 7639 1a1f 8b36 fdda c0b6
000000b0: 5b73 4837 1384 b137 abfa 17b7 d849 0437
000000c0: a376 dc1f 7d6b ae20 2428 a0a0 ece0 f79f
000000d0: 80a0 5ba0 4376 c620 4ab9 c41e 4360 179e
000000e0: d8ff a81f 5738 7c9e 6d4a 0c20 73da c51f
000000f0: eee8 bd9f e1cd bc1f d993 b99d 463e 851e
00000100: a140 71b5 7afb 6fb7 3612 f337 26e8 6b37
00000110: de06 1937 0e13 c737 80c1 d737 5c3b b337
00000120: 8cb9 0537 ca04 b638 8872 0a37 d1a4 11b6
00000130: 3ef7 1a36 767e ef37 e785 00b7 a0c7 1237
00000140: b969 938e 9a58 fc0d b7b7 6e0c 9c38 368c
00000150: 806c ea0e 9d99 888d 1347 4a0e 35ef 238e
00000160: 2ca6 858d af59 ca0d 7c35 890d 8969 988e
00000170: af77 860c 007e 9e8e 195b 598e f1f6 170d
00000180: 8318 c938 20b6 8338 bcf8 feb8 9a83 e9b8
00000190: 364b bbb9 f0bb 5cb8 230c d8b9 f7e0 3038
000001a0: e473 71b9 927b 15ba f3ea f0b8 0318 e037
000001b0: e730 35b8 9650 1eba f46e 0cb8 ebf9 22b8
000001c0: 8cbe 048b a1c7 cc8a f349 6c0a 9f3b 5a0a
000001d0: 04a5 030a f9e4 df0a 66fa c50a 57a8 b00a
000001e0: 76b4 000a abdb 6f0b 9424 6d87 2a61 e589
000001f0: ea74 fc09 2f17 5a0a a60d 028b e2af 510a
-9.5796455e-09 -2.1954815e-08 1.9670027e-08 2.111512e-08 5.2847195e-08 7.15274e-09 7.233282e-08 2.8251955e-08
3.328302e-08 1.112656e-07 2.635963e-08 -1.2597325e-08 1.1628973e-08 5.408028e-08 1.5462296e-08 9.8656985e-09
0.0010897599 -6.4688465e-05 -0.0005311922 -0.00034092276 -0.003296973 0.00067041157 -0.0032413811 0.00061810826
-0.0017243366 -0.0019535052 -0.0005335334 0.0007296764 7.670419e-05 -0.0043655313 -4.314895e-06 6.3279316e-05
-3.6355061e-06 -7.561144e-06 2.949556e-05 1.7006145e-05 2.358345e-06 3.0725874e-05 1.7062732e-05 2.3900036e-05
3.926186e-06 0.00023498837 4.1461435e-06 -5.7475395e-06 1.1947787e-05 2.1161546e-05 -9.058665e-06 7.885006e-06
9.336989e-20 2.9547876e-19 -2.7131617e-19 -1.0498067e-19 -1.8603127e-19 3.3620764e-19 2.0828941e-20 -8.01378e-21
7.1574026e-20 -1.335242e-20 1.1883087e-19 8.379414e-20 -8.0429963e-20 7.9961695e-20 -4.9121963e-21 1.4107678e-20
-8.9873544e-07 -1.4304062e-05 2.8976337e-05 1.4061143e-05 9.1211095e-06 2.3731522e-05 2.5720103e-05 2.1366104e-05
7.970619e-06 8.679328e-05 8.252107e-06 -2.170262e-06 2.3091702e-06 2.8549908e-05 -7.660571e-06 8.748757e-06
-3.6340105e-30 1.5552029e-30 1.8390138e-31 -1.4037805e-31 5.7789935e-30 -8.418628e-31 2.4932643e-30 -2.0206475e-30
-8.236762e-31 1.2470802e-30 8.456153e-31 -3.757252e-30 2.0718e-31 -3.907134e-30 -2.6791177e-30 4.6827712e-31
9.5889925e-05 6.28049e-05 -0.00012157994 -0.000111348185 -0.00035723456 -5.2627118e-05 -0.00041207773 4.2171185e-05
-0.00023026724 -0.00057023123 -0.000114878545 2.6714062e-05 -4.3199307e-05 -0.000603923 -3.3481934e-05 -3.8856564e-05
-2.5565627e-32 -1.9719577e-32 1.1376895e-32 1.0507532e-32 6.3384566e-33 2.1560249e-32 1.90646e-32 1.7011506e-32
6.196917e-33 4.6194985e-32 -1.7840648e-34 -5.5221117e-33 6.077674e-33 1.05006785e-32 -2.5047357e-32 1.0096064e-32

spatial_filtering.senet.fc.2.weight f4 [16, 8]
00000000: 5f85 ce32 b31d b7ba 06ff 1938 d8b7 1520
00000010: 50fa d037 fc4b 010e 1cc8 2eb9 8cfd 290b
00000020: 33d5 4bb3 8f8c 0a3a dbfe 97b7 a94f 369e
00000030: 3c68 d9b6 d5e8 440d 4b0c d438 a193 b90b
00000040: ec0e f5b3 ba09 17bb 9ea4 7136 5cf9 0920
00000050: f781 76b6 701d ee8b 1e5c 0fba 1552 2c0b
00000060: af0d bb2f 9696 8eb9 4da6 cd36 812c 2b1e
00000070: 01cd 4236 f529 a30d 5247 36b8 3c8a 1709
00000080: 20a9 67b2 1f28 7f3a 9c9b 03b8 4a9c aa9e
00000090: fcc9 97b7 4ea7 2e0d 57f4 a838 9fcf bf8a
000000a0: 6977 c134 0e36 38bb 50f5 4538 6cdd 12a0
000000b0: e5f0 ac38 f290 c90d 4ca2 16ba 9d72 760a
000000c0: 1676 87ae 8e9a f538 f90f afb6 e683 b69e
000000d0: 6c92 a1b4 8dce 6a8d a9cb 8137 40a2 c509
000000e0: 6faf ab33 ff86 0bbc 8b04 7a38 d47a c41e
000000f0: 30fe a238 fb33 a40d f40d 45ba 004f d589
00000100: eeee da32 c4cf d2b9 8af7 3937 ac54 b81e
00000110: 58fd e936 3d71 f78d 26d9 b3b7 0bc8 240a
00000120: 5929 07b3 bfde a33a 7594 23b8 76bb 219f
00000130: 0a1a 8ab6 1bf0 2a0d f2da b7b9 c31b 650a
00000140: 6b4d ca32 ca88 3abb 851e 4f38 c6b6 df9f
00000150: c36c 0638 5a5f fb0c 6794 b4b9 6053 8d0a
00000160: 3be5 5f32 0a63 bdba 33a8 0338 6ff6 e49f
00000170: ca7e cb37 8de8 3f8d ec88 46b9 6e75 cb09
00000180: dbc3 53b2 a14f 693a e6e9 d8b7 22fb 809f
00000190: 009c 70b7 4b85 548d 8c77 ef38 87a6 028a
000001a0: 3b9b 2e33 081c ad3a 5d90 a9b6 376e 949f
000001b0: 0051 30b5 6510 4b8e f648 8039 e990 0d8b
000001c0: c43b e133 6637 91bb 021c a738 f6fe 3c9f
000001d0: 5403 9438 8134 bc0b 15b0 38ba 2271 400a
000001e0: b395 35b3 f015 1739 6925 0eb8 15ca a720
000001f0: b77e 7eb7 8a3e f50d eeeb 27b6 d238 8a8a
2.4042206e-08 -0.0013970643 3.671555e-05 1.268162e-19 2.4912093e-05 1.5937063e-30 -0.0001666848 3.2738964e-32
-4.7458524e-08 0.0005285227 -1.8119279e-05 -9.651473e-21 -6.4792384e-06 6.0677424e-31 0.000101112375 7.1481535e-32
-1.1411416e-07 -0.002304657 3.6007618e-06 1.1686857e-19 -3.6732506e-06 -9.171856e-32 -0.00054687436 3.3187747e-32
3.4024825e-10 -0.00027196546 6.128836e-06 9.061868e-21 2.902758e-06 1.0055751e-30 -4.3458604e-05 1.8240961e-33
-1.3484424e-08 0.00097334565 -3.1377756e-05 -1.806409e-20 -1.8094659e-05 5.3819275e-31 8.056376e-05 -1.847073e-32
3.6035934e-07 -0.002810839 4.7196925e-05 -1.2439943e-19 8.246469e-05 1.2422476e-30 -0.000574623 1.18660255e-32
-6.1600655e-11 0.000117112984 -5.217266e-06 -1.9324551e-20 -3.0095123e-07 -7.2355444e-31 1.5472835e-05 4.7578604e-33
7.994719e-08 -0.008516072 5.9608876e-05 2.0803108e-20 7.772108e-05 1.0119794e-30 -0.0007517033 -5.1352176e-33
2.5487193e-08 -0.0004020912 1.1084494e-05 1.9516777e-20 6.973434e-06 -1.5249811e-30 -2.143958e-05 7.933937e-33
-3.1469742e-08 0.0012502297 -3.900049e-05 -3.424814e-20 -4.115752e-06 5.267431e-31 -0.00035067607 1.103117e-32
2.35511e-08 -0.002846288 4.938107e-05 -9.474655e-20 3.2049382e-05 3.873006e-31 -0.00034442844 1.3609168e-32
1.3032429e-08 -0.0014449072 3.138948e-05 -9.6969446e-20 2.4258527e-05 -5.913634e-31 -0.00018933759 4.8980903e-33
-1.2326349e-08 0.000890011 -2.5858124e-05 -5.462557e-20 -1.4341436e-05 -6.548799e-31 0.000114186754 -6.2905926e-33
4.0653713e-08 0.0013207207 -5.0533986e-06 -6.2862773e-20 -6.568298e-07 -2.5029576e-30 0.00024468423 -2.726463e-32
1.048825e-07 -0.004431653 7.9683974e-05 -4.0021447e-20 7.05781e-05 7.2493965e-32 -0.0007045281 9.265742e-33
-4.2278497e-08 0.00014408655 -3.389028e-05 2.8424627e-19 -1.5169083e-05 1.51143465e-30 -2.5022268e-06 -1.331029e-32

spatial_filtering.bn.weight f4 [16]
00000000: 12b8 563f 6586 203f c6fb 393f fe45 1a3f
00000010: 77da 463f ff75 2b3f cb84 3b3f a968 833f
00000020: 8bc3 3f3f 977e 633f 32fd 5e3f 37e6 5b3f
00000030: c4ac 293f d73d 683f 498c 763f 547e be3e
0.8387462 0.6270507 0.726498 0.6026305 0.776771 0.6697692 0.732495 1.0266315
0.7490775 0.88865036 0.87105095 0.85898155 0.66279244 0.9071936 0.9630781 0.37205756

spatial_filtering.bn.bias f4 [16]
00000000: 2b86 9fbd 4337 afbd b5d9 8bbd 53b2 0ebe
00000010: b1d6 4abe 6141 16be b763 94be d9e9 7abe
00000020: a2e2 2dbe 39ad 83be c99f 67be 9130 06be
00000030: e69e 07be 83f6 86be 27b1 9cbe de45 5fbd
-0.077892624 -0.08555462 -0.06828634 -0.13935213 -0.19808461 -0.14673378 -0.28982326 -0.24503268
-0.16980985 -0.25718096 -0.22619547 -0.13104464 -0.13244209 -0.2635995 -0.30603907 -0.05450999

spatial_filtering.bn.running_mean f4 [16]
00000000: 4bd1 3e3d 1ac7 cebc 949f 373d c714 f23c
00000010: 5f76 8abc 0cfd 743d 60bc fe3b 474f 793d
00000020: a4f5 91bc 6a12 5d3d 46fb 1b3d d187 043d
00000030: 2fd2 a43c 2c40 1e3c 4b44 1c3c 1539 b63c
0.046586316 -0.025241423 0.04482992 0.029550923 -0.016902147 0.059811637 0.007773921 0.06086662
-0.017817326 0.05397264 0.03808143 0.032356087 0.020119755 0.009658854 0.009537767 0.022244016

spatial_filtering.bn.running_var f4 [16]
00000000: 3b0d 0c3d 3269 783c 49de ac3c 5538 133d
00000010: 934a 6f3c f833 973c 7fa6 cc3c 7c2f 8f3c
00000020: c39e 1e3c 9f60 763c 26ea 5e3c 650f a03c
00000030: 37f7 353c df0a 513d 0aa2 a63c eb6b 9c3b
0.034192305 0.015161799 0.021102088 0.035942394 0.014605182 0.018457398 0.024981735 0.017478697
0.009681406 0.015037685 0.01360563 0.01953859 0.011106304 0.051035758 0.020340938 0.004773607

feature_compression.depthwise_conv.weight f4 [16, 1, 1, 32]
00000000: 17da 503d 08e0 fc3c 5514 833d 7984 1f3e
00000010: 949c 62bc 1b1a 07bd 64be d439 a9de a93c
00000020: f6b6 933e 6318 363e 9a18 a5bc a163 c8bd
00000030: c26a 47be be24 f3bc 9a0e 1cbd 2907 70bd
00000040: 9a51 b63d 6467 4b3e 6ca6 053d 515b 903c
00000050: e5e9 913c 5faf bebd 7aaa 433d 9ca8 49bb
00000060: 4131 d4bd 62e6 25be 35c3 e93d 525b a2bc
00000070: 1bd9 a4bc a125 873c 5783 e43d 6c66 f23d
00000080: aa72 aebd 7d0d e9bd deea b1bd 9d83 7cbd
00000090: cf8b 253d 78e5 59bd f1c6 863d 989c 9bbc
000000a0: 2faf 4fbd 4e1c 13be d59a c3bd ed65 0b3c
000000b0: a0ac c43d 24b2 dc3d 6bc7 6d3d d8ae 3a3c
000000c0: 17fc 89bd 5828 91bc e38c 48bb a4b4 ae3b
000000d0: 77fb 91bd f99e 2fbd 968f f8bd ca8b 4ebc
000000e0: 6c76 c73c 7eac 0abd 766c 003d 3f2a 333d
000000f0: 8fcf 11bd b6de 4d3d 36fa aabd 1afe 6bbc
00000100: d8c9 dc3d cbc5 873d 9986 313d 724f 0bbc
00000110: 1ee9 d53d 0ed5 683d 7989 3cbd 0376 1fbc
00000120: 0b49 1abd d5e5 1c3d 15c9 c53d f4e4 e23d
00000130: 58bd 4a3d d1c8 f43c 9ed4 1abc 4f2b 93bd
00000140: 7811 cfbd cf7a bd3d 954d 223e 3931 983d
00000150: 9f92 2b3d 231d 1d3e 73e1 7e3d 7e92 723d
00000160: 2fe0 1abd dc02 13bc 97b2 303d 504d c93c
00000170: c28a f13c 665d 243d fe80 97bd 3b82 ce3d
00000180: 504a 553c ce50 10bd d395 b9bd c969 a1bc
00000190: fc6f 1e3d 22e4 edbc 577d a9bb 2996 9abd
000001a0: a5b9 dfbd abf7 a63d 0f65 3a3d 1b20 223d
000001b0: 4341 2a3d 3c3b 44bd ca04 78bd bb85 423d
000001c0: 3001 433d 2759 f83c a6bf 0f3d 8ca0 9b3b
000001d0: dcaf bdbd 8672 c33d 5eb5 65bd 3495 4e3d
000001e0: 5cf3 b8bc e879 30be 8cbd dcbd 0ceb 0bbe
000001f0: bcb5 8dbd 9f53 f9bc a181 eabb 7fda 81bc
00000200: 1be8 03bd 24ff 563d f2b0 8abd 71bb 92bc
00000210: 1d66 fd3c e629 833c 4683 073c 395f e6bd
00000220: 52d7 26bd 284b adbd 4345 cebd 3aad f83d
00000230: b6fa 213e d13b 293e d251 093e df3f a23d
00000240: 17eb 9a3d 5083 1dbd 1474 583d 3fe5 1e3c
00000250: 4065 1fbd 06a4 be3c 8f0e a13c f547 623d
00000260: 18e1 6d3d c731 56bd 3cfd 86bd 562d 51be
00000270: 3cfd 08be 3981 26bd 2da6 22be 9df3 94bc
00000280: f870 86bd 5284 433d 930c dabd 9116 4dbd
00000290: cc8d ccbd b3ff 0e3e 64eb e1bc 6586 083d
000002a0: 44f1 243c 7f69 b8bc ca27 6cbc fac7 91bc
000002b0: dff1 9cbd 2a7c a03c 60b0 c8bd 4193 3bbe
000002c0: 0c18 18bd 51c0 3fbc bead b23d 48d1 a9bc
000002d0: 71ec 8bbd ddf7 293d 442d 493d 952d babd
000002e0: 26a0 bc3d 8275 013d ab03 1b3d 4645 38bd
000002f0: 6bc8 89bd 07fe 4e3d f3b1 b4bd 66d6 8fbd
00000300: ebfc 90bc 88c7 a5bc 23a4 92bd 40ea efbd
00000310: d518 8d3d 6c76 e73c cb9f 6c3d 90b8 c13d
00000320: a8d4 b2bd 787b 89bc 831f 023c 4c04 a33d
00000330: a8b1 d33d 4666 123d af20 c53c 12fd 40bd
00000340: b7ee 9cbc d88c 173d dd85 04be b999 733c
00000350: a8a2 f03c d992 313d 547b 2fbb 9f92 f73b
00000360: d939 8cbc 2e6f 69bb aabb df3c 6c63 4dbd
00000370: f67b 9b3b 91a7 e73d 3dc2 ff3d cd3c 153e
00000380: 9f03 8bbd a6ad e9bc 6399 ac3d 3489 153c
00000390: 62e1 0cbe 7367 09bd 3def 6fbd 0ba9 533c
000003a0: 3606 4b3e de55 933d 480a a63d adab 413d
000003b0: 1b5a 8c3e 31f5 0e3e 1aab d4bd e87f 09be
000003c0: 5884 68bb 2364 79bc 539e 243b 8570 c43d
000003d0: b213 683e ebfe cf3c 6dfe 96bd 13d0 ac3c
000003e0: adde a5bd 2a53 2b3d 92c7 4dbc 9418 a3bc
000003f0: 45bf 2bbe 50a2 3dbe 32bd 443d f323 a03d
0.050989237 0.030868545 0.064003624 0.15577878 -0.013831276 -0.03298388 0.00040577643 0.020736055
0.28850526 0.1778274 -0.020153333 -0.09784628 -0.19474319 -0.029680606 -0.038099863 -0.05860058
0.08902283 0.19863659 0.032629415 0.017621668 0.017811725 -0.09310793 0.04777 -0.0030770665
-0.10360957 -0.16201165 0.11414186 -0.019818936 -0.020123055 0.016497435 0.111578636 0.11835942
-0.08517964 -0.11379526 -0.086873755 -0.061648954 0.040416535 -0.053197354 0.06580914 -0.018995568
-0.050704177 -0.14366266 -0.09551016 0.008508188 0.09603238 0.10776165 0.058051508 0.011394225
-0.067375354 -0.017719433 -0.0030601553 0.0053315926 -0.07128041 -0.042876218 -0.12136762 -0.0126065705
0.02434846 -0.033855908 0.031353436 0.04374146 -0.035598334 0.05026122 -0.08348505 -0.014403844
0.10780686 0.06629523 0.043341253 -0.008502828 0.10444854 0.05684381 -0.04602954 -0.009732726
-0.037667315 0.038305122 0.09657494 0.110788256 0.04949698 0.029880913 -0.009450106 -0.07185995
-0.10110754 0.092519395 0.15849908 0.074312635 0.041887876 0.15343146 0.062226724 0.059221737
-0.037811454 -0.00897285 0.043139067 0.024572998 0.02948511 0.040128134 -0.0739765 0.10083433
0.013018206 -0.03523331 -0.0906178 -0.019703763 0.038681015 -0.029039446 -0.0051724124 -0.07548172
-0.10924081 0.08152708 0.045506533 0.0395814 0.041566145 -0.047908053 -0.060551442 0.047490817
0.047608554 0.030315949 0.03509488 0.0047493633 -0.09262058 0.09543328 -0.05608117 0.05043526
-0.02257698 -0.17234004 -0.10778341 -0.13663882 -0.06919429 -0.030435381 -0.0071565663 -0.015851257
-0.032203775 0.052489415 -0.06772031 -0.017911645 0.03093248 0.01601119 0.008271044 -0.11248631
-0.04073269 -0.084616005 -0.100718044 0.12142415 0.15818295 0.16526724 0.13410118 0.07922339
0.07564371 -0.038455307 0.052845076 0.009698211 -0.03891492 0.023271572 0.019660262 0.055244405
0.058075994 -0.052293565 -0.065912694 -0.2042745 -0.13377851 -0.04065058 -0.15883704 -0.01818257
-0.06564516 0.047733612 -0.106469296 -0.05007035 -0.09987983 0.13964729 -0.027578063 0.033331294
0.010067288 -0.022511242 -0.014413783 -0.017795552 -0.07663321 0.019590456 -0.09799266 -0.18317892
-0.037132308 -0.011703567 0.08724545 -0.020729676 -0.06832207 0.041496146 0.049115434 -0.09090725
0.092102334 0.031606205 0.037845295 -0.04498794 -0.0672768 0.050535228 -0.088230036 -0.07023315
-0.017698726 -0.020236745 -0.07160213 -0.117146015 0.06889502 0.02825471 0.057769578 0.09459031
-0.08731967 -0.016782507 0.007942083 0.07959804 0.103366196 0.035742067 0.024063436 -0.047116347
-0.019156797 0.036999553 -0.1294169 0.014868193 0.029374436 0.043352935 -0.002677639 0.0075553204
-0.017117428 -0.0035619247 0.027311165 -0.050143644 0.004745002 0.11311258 0.1248822 0.14573975
-0.067878 -0.028525185 0.08427694 0.00912695 -0.13757852 -0.033545922 -0.058577765 0.012918721
0.19826588 0.07194112 0.0810743 0.047282863 0.27412495 0.1396072 -0.103841975 -0.13427699
-0.0035479274 -0.015221628 0.0025118783 0.09591774 0.22663763 0.025390109 -0.073727466 0.021095311
-0.08099113 0.04182736 -0.012559788 -0.01990918 -0.16772182 -0.18518949 0.048031993 0.07819357

feature_compression.depthwise_conv.bias f4 [16]
00000000: 0f79 66b4 ba96 b334 aa08 ae35 fbaf 19b5
00000010: 16b2 0735 f16f 6838 3657 2f35 437e e235
00000020: 043e 57b4 c424 bf34 ad51 3334 0f83 1935
00000030: 1b0f 8bb4 40e3 e5b6 bd06 5a34 fa84 41b4
-2.146446e-07 3.3451016e-07 1.2966532e-06 -5.7253027e-07 5.055057e-07 5.5417364e-05 6.531949e-07 1.6875059e-06
-2.0045997e-07 3.5603273e-07 1.6700388e-07 5.7187657e-07 -2.5901758e-07 -6.851187e-06 2.0305283e-07 -1.8022902e-07

feature_compression.pointwise_conv.weight f4 [16, 16, 1, 1]
00000000: 540e 02be c6b3 593d 4b00 a53c ed3e 433b
00000010: 39b2 983c ad41 23bd bfc5 a13d 6e8a 823d
00000020: 0d5e e93d a01a 5e3e 7f69 633d 15ec 973d
00000030: 006f 003e feb0 82bd 8f11 b53d 7c46 51be
00000040: 3b22 af3d 6e63 7ebd 3122 b8bd 8a6c 323e
00000050: 8331 86bd bf0a f13d 474c 243e e83c 47be
00000060: 0cdc 1c3e 9932 823d 7adb e63d 5015 e3bd
00000070: 0cf7 4c3e f269 00be 76e6 1c3d 3bb2 8abd
00000080: 83c8 64be 59e6 08be ff83 843d a889 2cbe
00000090: f7bd 133d b07d c3bd 1c91 0f3e df84 153e
000000a0: c334 bdbd fecf bb3b 44ad 063e 7119 dc3d
000000b0: 5f39 0ebe d94a 503c b320 a6bd 16b4 6b3d
000000c0: 4424 8c3d 44a1 643d 41b4 e93d c4b8 1f3e
000000d0: 54cf 43be 61a3 053d 4439 e03d b78b c13b
000000e0: 9ed9 993d 5204 383e 0719 f43d 4901 acbd
000000f0: 4128 4b3e aa6d 793d b210 d6bd 16b9 bfbd
00000100: c34b a13b 69bb da3d 4d57 093e f31a 343c
00000110: fe18 e0bd b9c4 8fbc 9213 b2bd d3e3 c53d
00000120: bead 1fbe a47d 203c 13c1 ec3c e0a1 64be
00000130: 643a fb3d 4943 e23d fd1a 493d bc4f 3bbd
00000140: 4ae0 87be e2ab 823d 1fe1 c2bc 488d ebbd
00000150: 24b0 90bb 5a35 173d c6db 60bd 130e 233e
00000160: 8ce8 f0bd c4e6 2b3e 4de0 503d ae13 1b3e
00000170: d7d0 58bb d92e 87bd 2f61 243e b419 70bd
00000180: a339 20be 7fa2 e2bd 877c 6ebd eea3 98bd
00000190: fe1d 0c3e 8478 2abd 1b1d 253e 8a5a ee3c
000001a0: 26eb 963d d2bf f7bd 950a 8e3d 0bb1 603d
000001b0: a402 5ebe 5ae7 c3bd b0ee 25be b986 783d
000001c0: 32fe 6bbe 713d f9bd 9a0f 15be d6d1 d4bc
000001d0: cfd5 6dbb 080f 8b3d 7c20 c93d 52ff 4d3e
000001e0: 892d 06be 3031 3b3d 7d26 3c3e d413 0e3e
000001f0: 87c7 78bd 75ce c9bd 2108 1f3c bf0f 25bd
00000200: 52fd 283e 24a2 0e3c af92 82bd b2cf 9e3d
00000210: 46d2 4cbe e78e f13c be00 593c cfc8 e1bd
00000220: 380e 4e3d 5c58 273e 2e67 e83d bf1c 0cbe
00000230: 3ffb 093e f485 55bc a569 ac3c d198 b8bd
00000240: e692 97bd 4bb2 ffbc 2eaf ed3c c0d1 d1bd
00000250: f964 fe3d f47d dfbd 05d9 cabd 6550 dbbd
00000260: 7192 7cbc 8641 1fbe 57f0 16be 55ff 38be
00000270: 24e3 e53d a74d 563e 448c 763e 0ecb 12be
00000280: 7797 283d 542a bbbb 8f74 80bd 05b5 303d
00000290: be6c d63c cc57 88bd c179 a83d 9a04 57be
000002a0: 48de 533e e2a5 81bd 4491 d5bd 6aab 1bbe
000002b0: d9c8 153e 2253 90bc 6b10 d03d 9785 ebbd
000002c0: 3931 5e3c 5bbc 2d3d 9a3c 88bd b883 833c
000002d0: ed95 1b3e c67e f8bd a72f a1bd e9bc 74be
000002e0: 40e4 423e b48b 2cbe d8c7 2bbe 731f 343d
000002f0: 7c6e ee3b f3e6 8bbd 76af ec3d 3e7b 943d
00000300: 5f47 da3d 016f 113c 5274 4f3c 434b 63bd
00000310: 3d9a 4ebe d425 b73d d3ce 663c 6af8 0cbe
00000320: e17e ba3d 7952 333e 42e0 9d3d 2a21 8ebd
00000330: fbcb 373e 91bd 79bd 339a 57bd 4869 dfbc
00000340: 1036 753c 81f5 50bb bace 37bd ba2d a23d
00000350: 4918 d23d 26d0 cdbd 35c1 e93b f30b 6cbe
00000360: 2ec9 ad3d abfb 20be 4d73 62be 70eb a9bd
00000370: a6f5 9f3d 50fb adbd a9b7 163e fd9b b9bd
00000380: 4394 873d a601 833d dc9a 08bc 8ea0 e5bb
00000390: 09c3 a5bd 54b7 04be 72c6 cdbd 1fce 423c
000003a0: 562a 5abe 7369 02be a443 8b3c 911f b9bd
000003b0: 0478 52bd 386c 2f3e 8dba 5b3e 1902 d0bd
000003c0: 6b2e 77bd 0ba0 1bbe b543 98be bcb8 ab3d
000003d0: 3bd3 bc3d 389d 0a3e ce62 c93c 1c4a 5a3d
000003e0: 3428 e3bc 0036 c5bd 666b 7f3b 5c87 ffbc
000003f0: 1d2e 11be 513a 58bd bfb8 02bd 22a9 14bd
-0.12700778 0.05314996 0.020141741 0.0029792145 0.01863967 -0.039857555 0.07899045 0.063740596
0.11394892 0.21689844 0.05552053 0.07418076 0.12542343 -0.06381415 0.0884124 -0.20437044
0.08551451 -0.062106542 -0.089908965 0.17424217 -0.06552412 0.11769628 0.16044722 -0.19456828
0.15318316 0.06357307 0.112723306 -0.110880494 0.20016116 -0.12540415 0.038305722 -0.06772276
-0.22342114 -0.1336912 0.06470489 -0.16849387 0.036069836 -0.09545457 0.14020199 0.14601468
-0.09238579 0.0057315817 0.13152033 0.1074704 -0.13889073 0.012713158 -0.08111706 0.05754479
0.068428546 0.055817857 0.11411334 0.15597826 -0.19122058 0.032626513 0.109484226 0.005906548
0.0751221 0.17970398 0.11918836 -0.083986826 0.19839574 0.0608956 -0.10452403 -0.09361474
0.0049223616 0.10680277 0.13412209 0.010992753 -0.10942267 -0.01754986 -0.08695139 0.09662595
-0.15593621 0.00979558 0.028900659 -0.22327375 0.122669965 0.1104799 0.049098004 -0.045730338
-0.26538306 0.0638044 -0.023788987 -0.11501557 -0.004415529 0.036916114 -0.054897092 0.15923338
-0.11763105 0.16787249 0.05099516 0.15144226 -0.0033083463 -0.06600732 0.16052698 -0.058618262
-0.15646987 -0.1106615 -0.058224227 -0.07453142 0.13683316 -0.04161884 0.16124384 0.029095907
0.0736907 -0.12097134 0.06935612 0.05485634 -0.21680695 -0.09565611 -0.16204333 0.060675357
-0.23046187 -0.12169922 -0.14556733 -0.025978964 -0.003629077 0.06789976 0.09820649 0.20116928
-0.13103308 0.045701206 0.18374057 0.13874751 -0.06073716 -0.09853832 0.009706528 -0.04029822
0.16502884 0.0087056495 -0.06375634 0.077544585 -0.20002088 0.029487086 0.013244806 -0.11024629
0.05030653 0.163423 0.11347805 -0.13682841 0.13474749 -0.013032425 0.021046469 -0.090135224
-0.074010655 -0.031212946 0.029014196 -0.10245085 0.12421603 -0.109126955 -0.099046744 -0.107086934
-0.015415774 -0.15552339 -0.1474012 -0.18066151 0.11224964 0.2092806 0.24076945 -0.14335272
0.041160073 -0.005711833 -0.06272232 0.043141384 0.0261749 -0.06657371 0.08226348 -0.20997849
0.20690262 -0.06330468 -0.10428098 -0.15202108 0.14627399 -0.017617766 0.101593815 -0.115000896
0.01356154 0.042415958 -0.06652184 0.01605402 0.15193911 -0.12133555 -0.07870417 -0.23900189
0.19032383 -0.16850168 -0.16775453 0.043975305 0.0072763544 -0.068311594 0.11556904 0.07250069
0.10658144 0.008876563 0.01266201 -0.055491697 -0.20176025 0.08942762 0.014087397 -0.13766637
0.091062315 0.1751193 0.077087894 -0.06939919 0.17948906 -0.0609718 -0.05263729 -0.027271882
0.014966503 -0.0031884613 -0.044874884 0.07918878 0.10258538 -0.10049467 0.007133628 -0.23051433
0.084856376 -0.15721004 -0.22114296 -0.08296859 0.078105256 -0.084952 0.14718498 -0.090629555
0.066200756 0.06396799 -0.008337703 -0.007007665 -0.08093841 -0.12960559 -0.10047616 0.011889963
-0.21305212 -0.12735538 0.017000027 -0.09039224 -0.051383987 0.17131126 0.21457882 -0.1015665
-0.060347002 -0.1519777 -0.29739156 0.08384845 0.092199765 0.13536537 0.024583247 0.053293332
-0.027729131 -0.0962944 0.0038973927 -0.031192474 -0.14177747 -0.05278999 -0.03191447 -0.03629411

feature_compression.pointwise_conv.bias f4 [16]
00000000: b22f f935 a9f3 1435 27f4 6134 fd4d ac35
00000010: 1c7f 7438 7aab 5c36 debe 8637 b6d9 70b5
00000020: 866d 52b5 d03e 83bb 68d3 fc34 f2a4 9bb3
00000030: 859c 05b6 2ad6 85b6 a08c 8534 8b38 5f37
1.8565827e-06 5.548887e-07 2.104358e-07 1.2837696e-06 5.8292513e-05 3.2882367e-06 1.6062924e-05 -8.972378e-07
-7.8390474e-07 -0.0040052906 4.7092476e-07 -7.247753e-08 -1.990965e-06 -3.988641e-06 2.48755e-07 1.3305001e-05

feature_compression.senet.fc.0.weight f4 [8, 16]
00000000: 7139 90b5 bb42 0e35 fead 3bb6 5416 7cb4
00000010: fc09 41b5 fd87 e0b5 719d e7b4 6676 c2b5
00000020: c7f0 c334 a810 94b3 df1e 4834 c8e0 3d35
00000030: eeef a433 bccd 1834 66a4 1633 ecf7 9235
00000040: 1dc3 758e b293 880d c905 518e c664 990e
00000050: 86ea f38e 576b 578e 803c 5b0e 3dfb 520e
00000060: 4b62 e80d a214 968d d9dd 3511 b7a9 228c
00000070: a585 990e 96d3 fa0d abce cd0b 417d 2a0e
00000080: 4d26 43b3 7b1f 2933 7a50 2bb4 235f 1db3
00000090: c179 40b3 c804 3ab3 b186 6233 c83a 3233
000000a0: 359d abb1 1ead 03b3 67d1 2931 78dc ea32
000000b0: 1eff d0b2 e32c b231 c650 71b2 e581 0034
000000c0: 0967 34b1 80e3 bd31 768f 86b1 bb25 7ab1
000000d0: db2c 61b0 6608 79b0 5426 0c31 10de 1d31
000000e0: 42de a8af 5220 75b1 4b51 0cb0 aebe 48af
000000f0: 7446 1ab0 7051 61b0 9b27 23b0 6151 6732
00000100: 7d20 e824 6d48 c827 73d3 9926 476d b424
00000110: 397b 4ba2 9ec7 a024 ca82 4923 cbda 4623
00000120: c649 17a4 e6bf 54a5 171e fca4 d39d 93a4
00000130: 3223 0624 7b12 aaa4 6572 02a5 599e 84a4
00000140: e340 ab18 2860 1798 83ca 1118 cfa3 8f17
00000150: c929 2c18 96d6 4717 9a30 9f97 4283 fe97
00000160: b0f3 2e17 4142 bf17 f555 211b 5331 c797
00000170: f2a2 5517 7c17 c896 dd1b c717 c45d 0198
00000180: 9245 2cb5 4afc cc32 1aa0 40b6 d5c8 6934
00000190: 3f91 28b2 03f3 87b5 6e92 09b5 7c17 bab5
000001a0: 8a7b 4834 871b 0934 c563 5234 e440 b634
000001b0: cf52 1434 08fa 7134 5b0c 8634 1436 85b4
000001c0: 4b85 feac 4b19 7e2d 29c4 eeac 5807 26ad
000001d0: b76c 53ac 2894 0bad a64a a52c b61b df2f
000001e0: 1630 b4aa 3aa6 b3ae a52d 46ac 939a 19ac
000001f0: 6ee7 f22b c5ee 8bac 1e8b 3bac ecb8 2e2e
-1.0745554e-06 5.299623e-07 -2.7966448e-06 -2.3477452e-07 -7.191263e-07 -1.6728878e-06 -4.3141657e-07 -1.4488585e-06
3.649677e-07 -6.894817e-08 1.8637682e-07 7.0735086e-07 7.680488e-08 1.4230949e-07 3.5074116e-08 1.0950002e-06
-3.0292525e-30 8.4172035e-31 -2.5764024e-30 3.7814453e-30 -6.0129963e-30 -2.6552478e-30 2.7022964e-30 2.6005465e-30
1.4321767e-30 -9.249431e-31 1.4346744e-28 -1.2531098e-31 3.7846107e-30 1.5458377e-30 7.927409e-32 2.1014425e-30
-4.543681e-08 3.937701e-08 -1.5954893e-07 -3.6640937e-08 -4.4814218e-08 -4.331085e-08 5.2742227e-08 4.1497316e-08
-4.9946274e-09 -3.0658263e-08 2.4711768e-09 2.7341443e-08 -2.43304e-08 5.185585e-09 -1.4046412e-08 1.1968184e-07
-2.6252016e-09 5.5264877e-09 -3.916223e-09 -3.6401235e-09 -8.1918267e-10 -9.0597607e-10 2.0394468e-09 2.2972735e-09
-3.0716946e-10 -3.5670564e-09 -5.104723e-10 -1.8257637e-10 -5.6124994e-10 -8.1970253e-10 -5.935534e-10 1.3464473e-08
1.00669e-16 5.5589675e-15 1.0673821e-15 7.824768e-17 -2.7576864e-18 6.9727104e-17 1.09239275e-17 1.0779933e-17
-3.2805394e-17 -1.8453087e-16 -1.0933855e-16 -6.401845e-17 2.908643e-17 -7.3757055e-17 -1.1314461e-16 -5.7514126e-17
4.4267983e-24 -1.956484e-24 1.8843053e-24 9.28251e-25 2.2251575e-24 6.4571213e-25 -1.0287403e-24 -1.6447499e-24
5.653001e-25 1.2359811e-24 1.3345382e-22 -1.2872525e-24 6.902968e-25 -3.2326563e-25 1.2867107e-24 -1.6720199e-24
-6.417623e-07 2.3863453e-08 -2.870342e-06 2.1772878e-07 -9.811912e-09 -1.012901e-06 -5.124956e-07 -1.3864915e-06
1.8671395e-07 1.2769134e-07 1.959407e-07 3.3947356e-07 1.38137e-07 2.2535835e-07 2.4968435e-07 -2.4812527e-07
-7.2339127e-12 1.44438446e-11 -6.786145e-12 -9.437638e-12 -3.0045252e-12 -7.9341325e-12 4.6978697e-12 4.0583154e-10
-3.200779e-13 -8.1695053e-11 -2.816283e-12 -2.1828414e-12 1.7259369e-12 -3.9771264e-12 -2.6651524e-12 3.9727263e-11

feature_compression.senet.fc.2.weight f4 [16, 8]
00000000: 098a 2333 8cc7 9f8e 1a76 dfb0 4008 b5ae
00000010: 8926 2a23 bfde 0d18 8b13 8032 b08e 8cac
00000020: 5d16 79b3 8853 3f0f 1ea8 3630 882a c92f
00000030: 6884 3323 f769 3418 10c3 8c32 6832 1b2d
00000040: 5934 6fb4 609d 498d b1b6 a6b1 adb5 94af
00000050: b73b 1ba4 3f57 c517 62b1 15b4 7009 6ead
00000060: b133 41b1 bc59 ae8f 8e9d 15b1 adc8 55ae
00000070: 134f 1423 5246 0e18 5784 1731 185b bbac
00000080: 1026 3db8 be58 c58e da9e fab3 4aca 35b2
00000090: 5e8f 5da3 59a4 6615 9b0a 3cb8 2c40 0aad
000000a0: 4c85 a9b4 d52c 9d8e 69d3 f5b1 bb7d 34b0
000000b0: 890a fea4 f828 e098 665b c7b4 bf2c 43ad
000000c0: 539c f231 8e0d f40e de42 882d 93ab ab2e
000000d0: c68a 2224 a532 d297 ec80 1633 1637 7f2c
000000e0: 85d4 c8b4 f022 270f a41a 1132 d1bd 9633
000000f0: 9732 0324 5372 6498 b541 91b3 1549 2030
00000100: 9458 0934 de24 750f 0127 fbb0 0714 402d
00000110: 7b00 2ea3 acb9 2017 fdfa ea33 2467 38ab
00000120: 7750 3cb8 f771 770f 5811 06b6 2e14 6c30
00000130: fe26 74a5 4d92 d995 1041 0db7 f72f bcae
00000140: c8cd 04b4 960e c38f 4ab5 f0b0 46ba 9faf
00000150: befd db27 1f07 4498 f63b 84b3 499e e7ab
00000160: 3cdc aab4 1d4c 788e 5e7d afb1 be2f 43b0
00000170: bf62 f2a3 cdea 2398 60bc 98b4 86e4 4cab
00000180: b2aa 8834 6065 8a8f e589 47b1 c3ac deaf
00000190: 4493 d7a1 cd76 e017 5b11 4934 1bcf 0fac
000001a0: 79bd efb3 b86c ee8f 6a9f 0ab2 73ce 0bb0
000001b0: 950b 3fa4 e8fa 4698 5987 57b3 a9a0 ffab
000001c0: a506 8bb4 19a1 1510 2c2a a2b1 a6a6 8eaf
000001d0: 484b 0323 7b2f a718 0a88 76b3 c155 c4aa
000001e0: 9a04 e5b2 491c 0b0f 492e e731 5037 e230
000001f0: 454d 71a4 5fbe 8d19 5c71 77b2 0f25 ce2d
3.8076937e-08 -3.9388683e-30 -1.6258952e-09 -8.2323925e-11 9.223879e-18 1.833628e-24 1.4910048e-08 -3.994881e-12
-5.799517e-08 9.4331146e-30 6.6450123e-10 3.6591907e-10 9.7316476e-18 2.3317953e-24 1.638685e-08 8.821922e-12
-2.2277653e-07 -6.212734e-31 -4.8520055e-09 -2.7050132e-10 -3.3660848e-17 1.2752851e-24 -1.3941238e-07 -1.3530829e-11
-2.811458e-09 -1.7192289e-29 -2.1771913e-09 -4.860883e-11 8.039841e-18 1.8388573e-24 2.2048618e-09 -5.324973e-12
-4.509656e-05 -4.8649705e-30 -1.1670427e-07 -1.0581582e-08 -1.2010793e-17 4.6577778e-26 -4.483257e-05 -7.858641e-12
-3.157569e-07 -3.874666e-30 -7.154473e-09 -6.566229e-10 -1.1017279e-16 -5.794401e-24 -3.713314e-07 -1.1094402e-11
7.060899e-09 6.0163697e-30 1.5491105e-11 7.8066574e-11 3.5245696e-17 -1.3583716e-24 3.504185e-08 3.6268258e-12
-3.740753e-07 8.2404644e-30 8.446168e-09 7.019447e-08 2.8448948e-17 -2.9526028e-24 -6.764041e-08 5.8311517e-10
1.2791344e-07 1.2086533e-29 -1.8273739e-09 1.0918383e-11 -9.432661e-18 5.193314e-25 1.09421286e-07 -6.551307e-13
-4.489763e-05 1.2199989e-29 -1.9977651e-06 8.5884977e-10 -2.1176837e-16 -8.7876424e-26 -8.4194035e-06 -8.5577705e-11
-1.2368321e-07 -1.9234103e-29 -1.7513824e-09 -2.9054287e-10 6.105982e-15 -2.5336001e-24 -6.157636e-08 -1.645747e-12
-3.182521e-07 -3.0605007e-30 -5.107423e-09 -7.100843e-10 -2.6279513e-17 -2.11858e-24 -2.8449267e-07 -7.27925e-13
2.545617e-07 -1.3646899e-29 -2.9036695e-09 -4.050432e-10 -1.4607948e-18 1.450565e-24 1.8725898e-07 -2.0436489e-12
-1.11637696e-07 -2.3510489e-29 -8.068904e-09 -5.086129e-10 -4.1426333e-17 -2.5717575e-24 -5.0181686e-08 -1.8163432e-12
-2.5895602e-07 2.9509174e-29 -4.719615e-09 -2.594806e-10 7.117466e-18 4.321643e-24 -5.7400065e-08 -3.4876098e-13
-2.6661201e-08 6.858677e-30 6.728247e-09 1.6459385e-09 -5.2323995e-17 1.4655949e-23 -1.4403067e-08 2.3435946e-11

feature_compression.bn.weight f4 [16]
00000000: c76a 3c3f 6471 573f 4707 643f 5d38 4e3f
00000010: 68ac 383f 93e6 5f3f f440 4c3f eeb5 523f
00000020: 18ee 413f b827 583f 0287 5b3f 5616 5e3f
00000030: 073d 4a3f e60f 5f3f 8c4b 4c3f 6d88 573f
0.7360043 0.84157395 0.89073604 0.80554754 0.7213807 0.87461203 0.7978661 0.8230885
0.7575393 0.84435606 0.8575288 0.8675283 0.7899937 0.87133634 0.79802775 0.84192544

feature_compression.bn.bias f4 [16]
00000000: 02f2 93bd 8ac5 e1bd 2a24 02be 8a29 dabd
00000010: 9cd6 5cbd fc31 28be e388 dbbd 077b 05be
00000020: 7648 37bd 7b67 8dbd 80e9 86bd 070f b7bd
00000030: de24 07be bb42 d1bd a2bf debc 0d7c 07be
-0.07223894 -0.11024006 -0.12709108 -0.10652454 -0.053915605 -0.16425318 -0.107194684 -0.13035212
-0.04474684 -0.06904503 -0.06587505 -0.08938413 -0.13197657 -0.10217806 -0.027190987 -0.13230915

feature_compression.bn.running_mean f4 [16]
00000000: c351 2abc 7036 2cbb 4075 cebb 0078 ff3b
00000010: ad8f e13b 50da 71bc 664c 94bb 5820 43bc
00000020: c561 ca3a c943 1bbb 2ba3 89bb 9f3d 65bb
00000030: f2e4 be3a a641 e1bb 1d4a 5e3a a2bc 8fbb
-0.01039547 -0.0026277564 -0.0063005984 0.0077962875 0.0068835826 -0.014761522 -0.004525709 -0.011909567
0.0015440515 -0.0023691526 -0.0042003593 -0.0034979356 0.0014564081 -0.006874281 0.00084796717 -0.0043865005

feature_compression.bn.running_var f4 [16]
00000000: a951 113b 40f2 4e3b b414 a13b 64ac 3a3b
00000010: 4803 1a3b 7561 9f3b 9c11 703b 83b4 c03b
00000020: d005 5d3b be07 7d3b 5063 5b3b 5483 473b
00000030: 5e26 323b 79eb 503b 2caf 383b d7a9 173b
0.0022173917 0.0031577498 0.004915798 0.00284841 0.002350049 0.0048639127 0.003663159 0.0058808937
0.0033725388 0.003860935 0.0033475943 0.0030443268 0.0027183513 0.0031878634 0.0028180582 0.0023142004
