logs/sscl_01171234/latest_w.pth (torch, 51736 bytes, 30 tensors)

temporal_filtering.conv.weight f4 [8, 1, 1, 128]
00000000: 1408 c0bd 7267 2fbd dcfc cbbc 3384 98bd
00000010: b5f5 8abd 8aec b3bd 983b dbbd 61fc e3bd
00000020: 2058 c6bd 549a 2bbe abec b3bd ed6f b63b
00000030: 2aba 913d fd45 8e3d 695c 333e c6c1 3b3e
00000040: b27b 193e 8b21 1e3d edbb 813d f861 263d
00000050: 41ec 1c3c 279b 5dbd 2ba1 4dbd 7d82 a73a
00000060: f0ea 633c 178e 903d 0974 403d bc1f 8d3d
00000070: ba23 58bd eb2e 8cbd 0af5 a7bd 3f39 85bd
00000080: 1321 05bc a6cc 843d 66a3 103e 1fc6 c63d
00000090: 5aad 2e3e 2ef1 013e d147 7c3c 6a2e 393d
000000a0: 2676 113d 2fb1 7ebc d569 0bbd 21d2 0dbd
000000b0: b0a8 b3bc 76d8 913c d555 67bd 051e 42bc
000000c0: d686 2b3c dbd5 8b3d d8f6 393c 82a8 ce3c
000000d0: d451 22bd f33b 61bd 8c37 efb8 c707 50bd
000000e0: 5b92 93bc a666 dcbc cdb5 473d d726 a73d
000000f0: ba4e f03d 895a ec3c 127d 833d 584d 69bd
00000100: e87e 94bd 371f ebbd 6e6d 9fbd 17ad 2aba
00000110: 9488 b43b ced0 8cbc 36c6 a4bc 4040 b3bc
00000120: 3862 40bc 1511 62bd 391f 7b3c 4bad 4cbc
00000130: ca53 fb3c a10a 383d 7e16 ca3d 744a dc3d
00000140: a591 2d3d 5ef6 ff3d 4f6f cc3d a0d6 363d
00000150: d36c 22bd 094d 89bd 30b5 06be 6830 94bd
00000160: 0c0c 153d 97d4 b8bc 2465 043d 0651 a3bc
00000170: a38a 40bd c34b 88bd e242 94bd 6700 97bd
00000180: 6314 0bbe 8bc6 71bc 9827 8bbc d359 4fbd
00000190: 11a4 29bb e0a3 9d3d c19e 823d 0f5b 7b3d
000001a0: 4b1d 2c3d f8b6 9ebb 1bad 753d 4458 de3c
000001b0: 66d0 013d 8d88 003e 53fa 8d3d 86cd 0e3e
000001c0: a5de 6c3d d132 9d3c 8550 963c 7ac8 b43b
000001d0: c3be 0abd 5ad2 6abd 59d9 b1bd fcd2 6abd
000001e0: 550d c2bc 8d0d ce3a 7e5c f43c 0f3e 85bd
000001f0: f94b 81bd e1b3 ccbd 89b7 0cbe 211e a7bd
00000200: b2b4 733d 7dbe 073d 22a7 8e3c 4685 103d
00000210: 0cc2 963d f217 1e3d 7ca1 ccbc 4159 96bd
00000220: 6af1 8fbd ffb8 cfbd b494 23bd 34c3 e63c
00000230: 5ab7 c8bc ec42 853d f6b8 77bc 2311 8c3c
00000240: 6f83 373c 2175 b6bc b2a4 dcbd fb0f 0abc
00000250: 0431 e3bc ce36 bf3c 9085 57bd 9564 18bc
00000260: b6e2 62bc db3f 953d 8ca2 9b3d f8c8 ee3c
00000270: 47fe 55bd 3529 153d 58f5 10bd 433a 9cbb
00000280: 6982 933d 1b9d da3d d652 e13d a9fc 003c
00000290: 8069 cd3c e62e 32bd a0ca c9bd 5c6c dfbd
000002a0: a81c f2bd 567a a8bc 019f 6a3d 89af ceb9
000002b0: 2ad5 cebc a534 0fbd 79df 82bd cf7b 1b3c
000002c0: 505a 05bd dc25 283d d8bc d93c 2011 a03d
000002d0: 0709 a43d 84bb 003e 6561 2d3e 04f9 e83d
000002e0: 88b6 f53c 1eee 6e3d 1f39 0abc 2b0b b5bd
000002f0: 3449 91bd 0e47 51bd 7c59 7ebb 3bb5 9cbd
00000300: b6fa 2dbd 2430 2bbc 1bd6 583c 85d5 89bd
00000310: 5663 b1bd fb7b f4bd 768d 8ebd 92f0 153d
00000320: 2425 073e b6b0 c63d ef63 183e 2af8 ae3d
00000330: 6f59 c73d c6a2 8e3b cde0 47bd 8a15 b0bc
00000340: 4803 42bd b902 8ebd 5e22 2dbd 42b4 98bd
00000350: 3d3a 10be c30d fcbd 039a 21be 6dff 1cbe
00000360: db5c 0ebe ab1f 6dbd 69cd d93d 484f 0a3e
00000370: df47 2e3e 0260 193e dc30 553d 1e82 473b
00000380: 729a 77ba 8a05 0c3d 994d 463d 60c9 7a3d
00000390: c5b5 e13c c7b2 f93c a47f 92bb 829a 38bd
000003a0: bd60 aebd 97ec 0dbd 7852 65bc 504e 063c
000003b0: 5d5a 823d a25f e33c e980 5f3c 2747 983d
000003c0: f295 a13d 1ceb 8a3d 8860 5bbd d104 bd3c
000003d0: 122c e6bb 4884 d9bc baa1 b13c 3ec0 a83c
000003e0: 4aa3 d73c 4af9 663c afe9 8bbc 1227 4abc
000003f0: 0667 44bd 210c 99bd 3a12 beba 335f 51bc
-0.09376541 -0.042823263 -0.024900846 -0.0744709 -0.06785146 -0.087853506 -0.10704726 -0.11132122
-0.09684777 -0.1675809 -0.08785375 0.005567542 0.07115586 0.06946943 0.1751572 0.18335637
0.14988592 0.038606208 0.06334672 0.040620774 0.009577812 -0.054103043 -0.05020253 0.0012779977
0.013910994 0.070583515 0.04698566 0.068908185 -0.052768447 -0.068448864 -0.08201034 -0.065050595
-0.008125561 0.06484346 0.14124832 0.09705757 0.17058316 0.12689659 0.015397982 0.04521028
0.035513066 -0.015545174 -0.034036476 -0.034624223 -0.021931022 0.017803412 -0.05647834 -0.0118479775
0.010469159 0.06827899 0.011350356 0.025226835 -0.03962882 -0.054988813 -0.000114067545 -0.050788667
-0.018014124 -0.026904415 0.048757363 0.08161705 0.11733766 0.028851764 0.0642034 -0.056958526
-0.07250768 -0.11480563 -0.07784544 -0.0006510778 0.0055094454 -0.01718941 -0.020114046 -0.021881223
-0.011742167 -0.055192072 0.015327268 -0.012492488 0.030679602 0.04493201 0.09867571 0.10756388
0.042375226 0.12498163 0.09982168 0.044638276 -0.039654564 -0.067041464 -0.13155055 -0.07235795
0.036388442 -0.022562308 0.032323018 -0.019936096 -0.047007214 -0.066550754 -0.072393194 -0.073731236
-0.13581996 -0.014756809 -0.016986653 -0.050622772 -0.0025885145 0.07697272 0.06377936 0.061366137
0.042020123 -0.004843589 0.05997954 0.027141698 0.031692885 0.1255209 0.06932511 0.13945588
0.057829518 0.01918927 0.018348942 0.0055170627 -0.03387333 -0.057329513 -0.08684034 -0.057330117
-0.023687998 0.0015720591 0.02982926 -0.06505977 -0.06313319 -0.09995247 -0.13741888 -0.081600435
0.059498496 0.03314065 0.01741368 0.03528335 0.0736123 0.038597055 -0.024979346 -0.073412426
-0.07028468 -0.10142707 -0.039936736 0.028169252 -0.024501491 0.06506905 -0.015119782 0.017098015
0.01120077 -0.022272648 -0.10773601 -0.008426662 -0.027733333 0.023341563 -0.05261761 -0.009301324
-0.013847997 0.0728757 0.07599363 0.029148564 -0.05224445 0.03641625 -0.035390228 -0.0047676875
0.07202608 0.10674497 0.11002128 0.007872739 0.02507472 -0.043501757 -0.09853101 -0.1090934
-0.11821872 -0.020566147 0.057280544 -0.00039422166 -0.025248129 -0.034962315 -0.0639028 0.0094899675
-0.03255683 0.04105173 0.026579306 0.07815766 0.08009534 0.12571532 0.16931684 0.11375621
0.029994264 0.058332555 -0.00843647 -0.08840021 -0.070940405 -0.051093154 -0.003881066 -0.076517545
-0.042475425 -0.010448489 0.0132346405 -0.06730179 -0.08661525 -0.1193771 -0.06960575 0.03660638
0.13197762 0.09701674 0.14881872 0.08543427 0.09733855 0.0043529 -0.04879837 -0.021494646
-0.04736641 -0.06934113 -0.042269103 -0.074562564 -0.14084716 -0.12307312 -0.15781407 -0.15331812
-0.13902609 -0.05789153 0.10634882 0.13506806 0.17019604 0.1497803 0.05204855 0.0030442546
-0.00094453164 0.03418497 0.048413847 0.061227202 0.027552495 0.030480755 -0.0044707824 -0.045069225
-0.08514545 -0.034649458 -0.013996713 0.008197382 0.06364892 0.027755562 0.013641574 0.07435446
0.07889928 0.06783125 -0.053558856 0.023073586 -0.0070242966 -0.026552334 0.021683563 0.02059948
0.02632298 0.014097521 -0.017079202 -0.012338417 -0.047949813 -0.074730165 -0.0014501282 -0.012779045

temporal_filtering.conv.bias f4 [8]
00000000: b4d6 93b7 cdbd ffb6 5bff 5f36 372c 8a34
00000010: 36c3 6536 4000 4938 8d92 9c38 c902 4a37
-1.7623744e-05 -7.621688e-06 3.3378226e-06 2.5736674e-07 3.4237287e-06 4.7922367e-05 7.465957e-05 1.2040787e-05

temporal_filtering.senet.fc.0.weight f4 [4, 8]
00000000: 3ae5 2f34 dd6f ca37 96f4 5335 ec09 3bb4
00000010: 6333 9b33 cc23 9fb2 fa0e 0c34 336b 49b5
00000020: f26b 3625 cab3 6e25 41fe 34a5 b3d6 04a4
00000030: 64f4 1625 08f9 5a25 c4e3 00a6 48f9 7b25
00000040: 165f f634 7eef 0db6 8251 2034 8955 ecb3
00000050: 8fba edb5 f1c5 1538 a6ee c536 38df ce35
00000060: 380b 2fb0 a48d 36b0 12ac 58b0 5347 802f
00000070: 1c29 4a31 2f91 8bb4 65e7 0eae 8563 422f
1.6381537e-07 2.4132367e-05 7.8959545e-07 -1.7419342e-07 7.227097e-08 -1.8526315e-08 1.3043964e-07 -7.503433e-07
1.5822557e-16 2.0704124e-16 -1.5698656e-16 -2.8804795e-17 1.3093229e-16 1.8992861e-16 -4.47176e-16 2.185524e-16
4.5890255e-07 -2.115004e-06 1.4930814e-07 -1.1005165e-07 -1.7712172e-06 3.5708716e-05 5.89884e-06 1.5413161e-06
-6.368057e-10 -6.64125e-10 -7.882487e-10 2.3333743e-10 2.9418237e-09 -2.5996403e-07 -3.249258e-11 1.7679554e-10

temporal_filtering.senet.fc.2.weight f4 [8, 4]
00000000: 3217 a432 57a2 a7a3 e55e 7cb7 3920 132f
00000010: 84b1 5337 9c6d 78a3 4b03 02b5 9870 bb2e
00000020: b33b 5232 8680 ee23 1def 6db3 23d9 6eaf
00000030: ac20 2736 11ee f7a2 c7ba 9bb5 386b 5630
00000040: dc07 a8b7 9c5e 9922 c920 5032 ad4c 8530
00000050: f8cc 58b3 080d 1b27 ff33 ad33 cd74 cfb3
00000060: 851c 17b3 416a c4a0 1cda fc33 d68a e1ad
00000070: ca31 0a37 c8b0 93a3 4557 8736 eb1d 3cb0
1.910266e-08 -1.817493e-17 -1.5042465e-05 1.338102e-10 1.2617911e-05 -1.3467318e-17 -4.8433566e-07 8.523776e-11
1.2237183e-08 2.5858443e-17 -5.5398335e-08 -2.1723116e-10 2.4903957e-06 -6.7201547e-18 -1.1602759e-06 7.8005113e-10
-2.003082e-05 4.1570905e-18 1.2114648e-08 9.698816e-10 -5.0477837e-08 2.1517635e-15 8.065398e-08 -9.6604346e-08
-3.5183366e-08 -3.3274004e-19 1.1774338e-07 -2.5641194e-11 8.237033e-06 -1.6012642e-17 4.033473e-06 -6.843652e-10

temporal_filtering.bn.weight f4 [8]
00000000: beeb 803f e8fc 643f 9fbe 713f 1d46 843f
00000010: 41cd 613f 50db 673f d517 6e3f 32e2 763f
1.0071943 0.89448404 0.9443149 1.0333897 0.8820382 0.9056902 0.93005115 0.96438897

temporal_filtering.bn.bias f4 [8]
00000000: db31 a7be e6eb c4be 8ddb 04bf 0005 b4be
00000010: ef8c 0bbf 4c0d 80be d306 9fbe 6831 21be
-0.32655224 -0.38461226 -0.5189751 -0.35160065 -0.5451192 -0.25010145 -0.31059894 -0.15741503

temporal_filtering.bn.running_mean f4 [8]
00000000: 3300 6735 34bf edb5 bf2b 4836 8a59 7b36
00000010: 1800 8f35 86d1 b8b6 9e5a a6b6 400e 2436
8.6054496e-07 -1.7713523e-06 2.9827786e-06 3.7454033e-06 1.0654358e-06 -5.508019e-06 -4.9577347e-06 2.44462e-06

temporal_filtering.bn.running_var f4 [8]
00000000: c635 403f 67df 313f f21d 773f 0d01 8b3e
00000010: 25cf 1c3f 0842 643e 64b1 e83e c25d ce3e
0.7508205 0.6948151 0.9653007 0.2714924 0.6125358 0.22290814 0.45447838 0.40305907

spatial_filtering.conv.weight f4 [16, 8, 3, 1]
00000000: f36e 9abd b5a3 163d 2259 c43d 7b7e 54be
00000010: 5232 5f3c ff45 e8ba 447a fdbd e910 56be
00000020: cdbe 653c be28 ddbd faa3 a93c 19ce b53d
00000030: ee82 a03b d164 a6bc 2655 013e 07a3 b5bd
00000040: 2180 93bc 310d 4f3e 1804 7d3d 7db8 d5bd
00000050: b151 0fbc ea96 fa3d 3916 293e 6527 9a3c
00000060: d1f9 043d 7b0f f3bc 0704 61bb e048 d13d
00000070: ab2b 07be a297 3abc def3 653d 693a 263d
00000080: 1258 bbbb 0f6a 05bc 11a5 113e b9f5 833d
00000090: 72b3 cc3d 7628 a8bd 8c71 ea3c 1567 46bd
000000a0: 1e0c 4ebe 5579 2cbe b819 5fbc 729b dcbd
000000b0: 0f7f c8bd eccb 69bc 69c4 d1bd 77fe 6ebd
000000c0: 14cf f2bc d4aa 00bd 9253 933d 8c50 1abe
000000d0: 198e 53be af2c 2f3d 019b 0cbe 4041 593c
000000e0: adbd 3e3e c9a1 52be 9e6c 29bd f41b 8fbe
000000f0: a0c5 2dbe c970 9dbd 2055 313e ddc3 163d
00000100: b820 9d3d 1f8c 623d 4374 adbd 745b 3fbd
00000110: 85b5 423d ccbc 393e e003 303e 488b 1e3e
00000120: 2f67 8abd 177b b3bd 661b 2c3d a229 adbc
00000130: 7c7a ccbd 8f09 5c3e b3c7 b6bd a304 263d
00000140: 49a4 eebc 787a a4bd 18d1 6ebd ec7e 1ebe
00000150: a4cb a7bd 5f06 1e3d 4c89 bdbd 3367 5b3d
00000160: 9d7a 2b3e 93cf 2e3d 82f2 23be 183e dd3c
00000170: c8f2 6c3c 9015 133c c2fd 183d 2251 663d
00000180: 1e39 213d 0bf8 3d3e 5d25 f63d 9a2b e0bd
00000190: 0035 1c3d c661 0dbd f6f8 873a 2937 7f3d
000001a0: 2100 89bd 7d80 b33d 8b9a 13bc c4b9 8fbd
000001b0: f9e5 413d 4b7d 7bbd 2691 9bbd 4a57 00be
000001c0: d366 e1bc c4bb 6c3d 3e36 4dbe 93a6 07be
000001d0: b27a 58be f8a9 73bc 8cb1 16be 56c7 1dbd
000001e0: a7e5 99bd 33f2 5a3d 29df 47bc 5c9f ffbd
000001f0: d648 ffbd 0e48 e8bc 50c4 53be 8aab 1dbd
00000200: 0c9c 17bd fa08 dc3d d9b9 1d3d 992f 94bc
00000210: 68c5 d8bd a00a 0bbe 8798 2e3e 4e69 153e
00000220: 94b9 5c3d a7e5 24be 851a 09bd 74c0 cd3d
00000230: 88ed d53d 894f 003e da34 cc3d 4ddb d53d
00000240: 59ae 11be 0c2f 813d 288d d6bd 2b3a 84bd
00000250: 8e3e c03d 32ae 953d b333 cd3c 73f1 b1bd
00000260: 23a6 05be 4436 433e 0f28 17bd 22e1 3fbd
00000270: 73e8 7e3c 59dc c83d ab00 96bd 59e4 5dbe
00000280: 1074 97bd 911c 6fbd 6706 473d 3487 15bd
00000290: 21c6 663b 3a54 00be 7a44 08bd d238 08be
000002a0: e9eb adbd fc0d 68bd 4996 96bd a7d6 303d
000002b0: a2e3 1f38 c81c 2c3e e83b 983d 14c1 383c
000002c0: 350c 08bd 7cdd 89bc 377d 22be ea9e 9bbe
000002d0: 2bfa 863c fea8 03be a2b7 2ebe 5da8 2e3e
000002e0: 6ba7 f63d df13 c73c b933 6bbd ea64 363c
000002f0: 54fb 083e 1299 b53d b9aa 77ba cb75 46be
00000300: 00e7 39bd 20f9 fcbd 943d a13d 1e70 523c
00000310: 2a21 11bd 83ac 4ebb 8005 73bd 3875 ba3d
00000320: 6c18 e0bd 904a 223d d48e e23c 7894 2b3c
00000330: 5416 903d 3d76 653e 2d7e bebd 1f2b 0c3d
00000340: 56c3 c0bc 3ab6 66be bc9f 00bb 8942 263d
00000350: 6d97 3cbe 1a27 0ebc 74c3 22bc 3726 13be
00000360: 394c 4dbe 363e 46be 93d4 ffbd b151 9c3d
00000370: 8c08 cc3c 3796 d03d 8f3d 4fbe 734f 8ebc
00000380: 4bcc 67be 6257 93bd e255 b5bc 4c2c c2bd
00000390: 96be a13d 39f5 883d e9a2 15be 83ff 1d3e
000003a0: d8df bf3d e789 f43d 2d03 5e3d d801 663e
000003b0: 8955 a23d c5da ae3d 7691 1dbd f2a2 b9bd
000003c0: 81c5 f43d 557b 7b3d 6779 eabc e3f5 1dbe
000003d0: 501d 87bc 8ba4 1ebe 508a 5d3c 616d 9cbd
000003e0: 6a0a d43d d5f3 53be 7966 88be 0128 89bd
000003f0: 9328 6bbe ac94 97bd af49 f83d 39a6 243e
-0.07540693 0.036777217 0.09587313 -0.20751373 0.013622837 -0.0017721056 -0.12376836 -0.20904888
0.014022541 -0.107987866 0.020708073 0.08877201 0.0048984205 -0.020311745 0.12630138 -0.088689856
-0.018005433 0.20219876 0.061771482 -0.10435579 -0.008747504 0.12235816 0.16512384 0.018817613
0.032464806 -0.029670468 -0.0034334676 0.10218978 -0.13200252 -0.011388691 0.056140773 0.040583048
-0.005717286 -0.008142962 0.14223124 0.06443352 0.09995164 -0.08210842 0.028618596 -0.04843815
-0.2012181 -0.1684316 -0.013616972 -0.10771836 -0.097898595 -0.01426981 -0.102425404 -0.058348145
-0.029639758 -0.031412914 0.07193674 -0.15069789 -0.20659675 0.042767223 -0.13731004 0.013260186
0.18627043 -0.20569529 -0.04136335 -0.27951014 -0.16969919 -0.07687528 0.17317629 0.036807884
0.07672256 0.05530941 -0.08469441 -0.046718076 0.04753639 0.18138427 0.17188978 0.15482819
-0.06757962 -0.08763712 0.042018317 -0.021138016 -0.099842995 0.21488021 -0.08924808 0.040531766
-0.029131072 -0.080311716 -0.058304876 -0.15478104 -0.08193138 0.038580295 -0.09254703 0.053565215
0.16745992 0.042678427 -0.16010478 0.027007148 0.01446218 0.008977309 0.037351377 0.056229718
0.03936111 0.18551652 0.12018845 -0.10945816 0.038136482 -0.034517072 0.0010373879 0.062308464
-0.06689478 0.087647416 -0.009009014 -0.07017854 0.04733846 -0.061398786 -0.07596044 -0.12533298
-0.02751485 0.057796255 -0.20040223 -0.13247137 -0.21140555 -0.014872067 -0.14716166 -0.03852018
-0.07514506 0.053453635 -0.012199202 -0.12481567 -0.12465064 -0.02835467 -0.20680356 -0.03849367
-0.037014052 0.107439 0.038507316 -0.018089103 -0.10584527 -0.13578272 0.17050372 0.14590952
0.05388792 -0.1610323 -0.033472557 0.10046473 0.10445696 0.1253034 0.09971018 0.10442219
-0.14226665 0.063078016 -0.10476142 -0.06456407 0.09386931 0.07308616 0.025049066 -0.08688631
-0.13051657 0.1906367 -0.036903437 -0.046845563 0.01555835 0.09807653 -0.07324346 -0.21669139
-0.07395184 -0.058376852 0.04859009 -0.036505893 0.003521331 -0.1253213 -0.03326843 -0.13302925
-0.08492262 -0.05665396 -0.07352883 0.04317346 3.8120554e-05 0.16807854 0.07433301 0.011276502
-0.033214767 -0.016829245 -0.15868078 -0.3039468 0.016476711 -0.12857434 -0.17062238 0.17056413
0.12043651 0.024301467 -0.057422373 0.011132458 0.13377124 0.088670865 -0.0009447742 -0.19380872
-0.045386314 -0.12352204 0.07873073 0.012844114 -0.03543202 -0.003153593 -0.059331417 0.09104389
-0.10942158 0.03962189 0.027655996 0.010472409 0.07035509 0.22408386 -0.0930141 0.03422081
-0.023530643 -0.22530451 -0.001962646 0.040590797 -0.1841714 -0.008676315 -0.009934295 -0.14370047
-0.20048608 -0.19359669 -0.12491717 0.07632769 0.02490642 0.10184901 -0.20238326 -0.017371869
-0.22636525 -0.07194401 -0.022135679 -0.09481105 0.078976795 0.066873975 -0.14612927 0.15429501
0.09368867 0.11940365 0.054202247 0.22461641 0.07926471 0.08537821 -0.0384688 -0.090642825
0.119517334 0.061396915 -0.028622342 -0.1542583 -0.01649347 -0.15492456 0.013521746 -0.0763805
0.10353549 -0.20698483 -0.2664068 -0.06697083 -0.22964697 -0.07401404 0.12123429 0.16079034

spatial_filtering.conv.bias f4 [16]
00000000: 9652 13b6 52a4 4436 bb10 d5b4 27e2 1bb6
00000010: b927 97b6 fc64 3c36 db7e 7b35 75ed 8fb6
00000020: 3962 9335 6064 3636 4b0e 23b6 9b3f 9fb3
00000030: eefb 14b6 7843 3036 6447 8838 1e13 9636
-2.1952778e-06 2.9301923e-06 -3.9686515e-07 -2.3228438e-06 -4.504775e-06 2.8072964e-06 9.3689385e-07 -4.2893757e-06
1.098094e-06 2.717854e-06 -2.4297212e-06 -7.415584e-08 -2.220036e-06 2.6265316e-06 6.498283e-05 4.472574e-06

spatial_filtering.senet.fc.0.weight f4 [8, 16]
00000000: f74d eb09 f2f6 2f09 fdd0 b109 1099 1c0a
00000010: 899e fd09 d040 0d0a 811b 150a 98b8 b809
00000020: 96e2 6309 cc2b 8c09 5e17 2c0a 3627 cd09
00000030: 148c bb08 f1a1 ae09 5f83 a409 201a 9d08
00000040: 31a5 aa1b 3395 939a 6ab7 181b 499d bc1b
00000050: 47cd 7f9b 1e63 119c 5e8e 709c 833e 469c
00000060: 004b c49b 481f be9c 25d7 491a 5723 281c
00000070: 8eef b29b 8672 149c 8ff7 371b 6e7e 709a
00000080: ceef d688 8af8 8208 7932 9f88 7ce4 6e89
00000090: ccbf a789 fb1d d888 72a8 8389 8f83 1e89
000000a0: a8a0 5889 9873 5189 ea89 8689 0938 e087
000000b0: 307d 9c88 8265 9889 a3ee 7607 fe55 c986
000000c0: 8ccc c32e cbda 452e 613a 992e e0b3 8e2e
000000d0: f2c1 822e 820a 062f d99c cc2d f8b9 802e
000000e0: 0faf f02b eace 462e eb29 932e 5626 aa2e
000000f0: f52a a32d 81ee 6baa 96a0 ae2d 21c8 192d
00000100: f797 2e82 351f 9b82 05a4 0284 6e55 2203
00000110: f8b3 6a83 68d2 1f82 85e9 8183 5e2e 0084
00000120: f53d 3481 8fb5 b483 4fda 1781 6612 b882
00000130: 3295 5102 6c30 1683 4c71 3482 176a c682
00000140: 7405 f1b6 db95 c3b6 0a26 06b7 24fe 24b7
00000150: 9388 c4b7 5c5e 42b6 a07d b6b7 c8c2 b1b7
00000160: a3f6 72b7 4329 98b7 5d23 97b7 5228 89b6
00000170: ec4f a2b6 170c bfb7 828a 3db7 4432 21b6
00000180: 6e07 f593 bea4 9913 193d be93 fc80 9193
00000190: e2ad c693 e5f1 2a94 af86 6293 05fb cf93
000001a0: ad49 b992 2b63 0a94 9ec5 0c94 aab4 1193
000001b0: 9077 fb92 b0da 5b93 d1fa ee13 8bb8 1893
000001c0: 4ba9 8120 387f 5ba0 effa 2320 654c 1e20
000001d0: 423a a61f 9372 a120 5d94 099f 148f e01e
000001e0: f8fc f21f 1da5 a220 eb5c 1b9e 4290 641f
000001f0: 55df 7c20 a761 0c9f 718a 96a0 ab33 ad1e
5.664751e-33 2.1180972e-33 4.280773e-33 7.539915e-33 6.105662e-33 6.801093e-33 7.179262e-33 4.446998e-33
2.7430671e-33 3.374496e-33 8.285894e-33 4.938883e-33 1.1287585e-33 4.2041265e-33 3.9605105e-33 9.455236e-34
2.8230893e-22 -6.103882e-23 1.263241e-22 3.1203634e-22 -2.1159434e-22 -4.810458e-22 -7.9593344e-22 -6.55935e-22
-3.2473948e-22 -1.2581231e-21 4.1739618e-23 5.5632213e-22 -2.9602438e-22 -4.911711e-22 1.5217396e-22 -4.9732966e-23
-1.2936034e-33 7.882522e-34 -9.5813305e-34 -2.875564e-33 -4.0384153e-33 -1.30070755e-33 -3.1695508e-33 -1.9080417e-33
-2.6075594e-33 -2.5211812e-33 -3.238902e-33 -3.3736709e-34 -9.41834e-34 -3.6688126e-33 1.8577112e-34 -7.573415e-35
8.903908e-11 4.498694e-11 6.9680046e-11 6.4893646e-11 5.946167e-11 1.2190962e-10 2.326177e-11 5.853801e-11
1.7101614e-12 4.5203764e-11 6.692232e-11 7.737515e-11 1.8550031e-11 -2.095494e-13 1.9852824e-11 8.741481e-12
-1.2827113e-37 -2.2793115e-37 -1.535674e-36 4.770559e-37 -6.8973014e-37 -1.1741859e-37 -7.635552e-37 -1.5067618e-36
-3.310523e-38 -1.0621133e-36 -2.7890949e-38 -2.704693e-37 1.5397712e-37 -4.4136624e-37 -1.3256826e-37 -2.9154378e-37
-7.1829945e-06 -5.8288983e-06 -7.995879e-06 -9.8343335e-06 -2.3428618e-05 -2.8963177e-06 -2.175459e-05 -2.1190746e-05
-1.4481749e-05 -1.8139026e-05 -1.801707e-05 -4.087612e-06 -4.8372804e-06 -2.2774604e-05 -1.1297527e-05 -2.4020128e-06
-6.185402e-27 3.878508e-27 -4.802299e-27 -3.6730334e-27 -5.015369e-27 -8.630512e-27 -2.8591614e-27 -5.250167e-27
-1.1693304e-27 -6.986777e-27 -7.107167e-27 -1.8390647e-27 -1.5869801e-27 -2.7749507e-27 6.032697e-27 -1.9276084e-27
2.196548e-19 -1.8592115e-19 1.3889664e-19 1.3408397e-19 7.0400114e-20 2.735028e-19 -2.9133602e-20 2.3776098e-20
1.0290949e-19 2.755313e-19 -8.224847e-21 4.8400205e-20 2.1419125e-19 -2.972693e-20 -2.55026e-19 1.8338457e-20

spatial_filtering.senet.fc.2.weight f4 [16, 8]
00000000: 170d 1509 89e3 6d9b f89a 1189 11a7 9fad
00000010: 27e5 c380 5bdc 2fb7 b889 b591 0786 7320
00000020: c70e f808 830a 8b1a 6947 0689 b858 4eae
00000030: ac36 9583 49d1 3937 5be2 7492 28a5 b69f
00000040: d0f8 1d0a e353 279d 1965 3f89 ac10 552e
00000050: 3e57 b803 d347 4e37 5797 cb13 fd9b e220
00000060: cff1 4e08 d76f 1d1c 8496 e888 cadd b4ac
00000070: 2a6b f982 5738 13b6 5cd3 1193 a3d7 a620
00000080: 3b35 018a e2a7 3e1c 40a4 8488 19be 97ae
00000090: e8d5 e901 a53c eb34 3190 be92 6b62 7a1d
000000a0: 8476 5a08 8ca1 f49c d067 5488 344e 58ae
000000b0: c770 a480 6daf 5eb7 0ff0 a791 2ffa c11f
000000c0: 4cb8 a307 3343 229c 49db b008 41dc b42d
000000d0: 50d2 7381 bba8 5d37 91d9 1f93 8aff 8a1e
000000e0: 4a77 7388 a19b 869e 2e18 8f07 5fd2 a1ad
000000f0: 7c0f 1b82 3bdf 2336 8b61 ac12 acbe e89f
00000100: aa3b 5009 8075 5a9c 6871 b807 dae1 e52c
00000110: 7a43 c480 f809 f1b6 f877 2a93 c9d6 a71e
00000120: 0e6e 8c88 0670 0c1d 0ad2 2688 2095 6aad
00000130: 842a b701 e6e6 f7b6 fcc1 8991 93cb 0120
00000140: e34a 5988 8734 0698 e7a5 5f89 6fbb a9ad
00000150: 2bcf 0d83 5671 9ab7 3164 7092 6e64 0a20
00000160: e577 df87 a57d 809b d75a 0287 81bc 64ae
00000170: fedb 8402 09ce 8b36 132a b992 7436 151f
00000180: 3974 e108 fa5c 189a 264f 1a88 8931 e02d
00000190: e063 b781 20f3 dbb5 3494 b892 2343 b51f
000001a0: 8dc5 9289 cc71 e11b 17d4 4a09 7147 cfab
000001b0: 7d70 6482 4406 8437 6917 0e92 a490 4fa0
000001c0: ae9c 4489 6449 c69a 9258 b187 90e1 a8ae
000001d0: 03b6 3782 b97b 27b6 b1c5 4093 1296 b81f
000001e0: 3059 b589 6206 0c1c 1404 2009 9b98 b2ac
000001f0: 7a54 cf82 fe2a cb36 5af4 1013 d7ff 279f
1.7941377e-33 -1.9677701e-22 -1.7526606e-33 -1.81504e-11 -1.7990126e-38 -1.0482118e-05 -2.864164e-28 2.0627247e-19
1.4929431e-33 5.7506035e-23 -1.616324e-33 -4.6917775e-11 -8.769985e-37 1.1075587e-05 -7.727183e-28 -7.7353226e-20
7.6060715e-33 -2.2145634e-21 -2.3038325e-33 4.84454e-11 1.0834578e-36 1.229528e-05 5.1393637e-27 3.8389114e-19
6.2275115e-34 5.209149e-22 -1.3998378e-33 -5.1405312e-12 -3.664877e-37 -2.19375e-06 -1.8405781e-27 2.826419e-19
-6.2211356e-33 6.308271e-22 -7.983076e-34 -6.900453e-11 8.5897623e-38 4.3816286e-07 -1.2026232e-27 3.3138105e-21
6.5741303e-34 -1.6188324e-21 -6.391846e-34 -4.9182172e-11 -1.5101478e-38 -1.3273076e-05 -2.6495902e-28 8.2152573e-20
2.4633834e-34 -5.3688157e-22 1.0644168e-33 2.0561443e-11 -4.4782943e-38 1.3211912e-05 -2.017589e-27 1.4717007e-20
-7.3265376e-34 -1.4252168e-20 2.153046e-34 -1.8397004e-11 -1.1392045e-37 2.441883e-06 1.0878772e-27 -9.857126e-20
2.5065143e-33 -7.2282015e-22 2.7751897e-34 6.533646e-12 -1.8023963e-38 -7.18352e-06 -2.1516166e-27 1.7770646e-20
-8.451817e-34 1.858676e-21 -5.0200708e-34 -1.3334472e-11 6.728459e-38 -7.3880537e-06 -2.173434e-28 1.0994082e-19
-6.538909e-34 -1.7345614e-24 -2.6920656e-33 -1.9296313e-11 -4.1673993e-37 -1.8411007e-05 -7.585414e-28 1.1722284e-19
-3.3623778e-34 -2.125702e-22 -9.806808e-35 -5.2008623e-11 1.9521926e-37 4.1665085e-06 -1.16855135e-27 3.159702e-20
1.3569019e-33 -3.150797e-23 -4.643573e-34 2.548785e-11 -6.7366897e-38 -1.638753e-06 -1.1648567e-27 7.676755e-20
-3.5333997e-33 3.7296667e-22 2.441459e-33 -1.4728064e-12 -1.6783077e-37 1.5738544e-05 -4.4836155e-28 -1.758144e-19
-2.3666312e-33 -8.200945e-23 -2.6684057e-34 -7.6798234e-11 -1.3496951e-37 -2.4956955e-06 -2.4331276e-27 7.81753e-20
-4.3658037e-33 4.6330364e-22 1.9261217e-33 -5.076007e-12 -3.0464403e-37 6.0548764e-06 1.829583e-27 -3.557525e-20

spatial_filtering.bn.weight f4 [16]
00000000: 1a42 473f 6d32 153f 0b22 2f3f 44fd 233f
00000010: 275c 313f 1eb8 1d3f b2e9 453f fdc3 883f
00000020: 6afd 423f 20d8 6b3f ebe4 6e3f a4af 4a3f
00000030: a1f9 1e3f 57dd 7d3f f3e5 883f f13a e73e
0.7783524 0.5828007 0.6841132 0.6405833 0.6928124 0.61609066 0.77309716 1.0684811
0.7616793 0.92126656 0.9331805 0.79174256 0.62099653 0.9916586 1.0695175 0.45162156

spatial_filtering.bn.bias f4 [16]
00000000: 8f9a d5bd 0aa6 bdbd 78b3 01be 0fe0 1dbe
00000010: 64a8 54be 93f0 c0bd 0320 a0be b7b6 91be
00000020: f592 10be d74d 8cbe b460 7fbe 5e95 1ebe
00000030: 9824 fbbd b15a adbe bf62 c4be c933 8abd
-0.1042987 -0.09260185 -0.12666118 -0.15417503 -0.20767361 -0.09420886 -0.31274423 -0.28459713
-0.1411856 -0.27403137 -0.24939233 -0.15486667 -0.12262839 -0.33858255 -0.38356587 -0.067481585

spatial_filtering.bn.running_mean f4 [16]
00000000: e828 203d 3eff 683b e5b4 673d 6733 103d
00000010: 40a9 e83c 4e47 573d 5b1b 8a3c e9b4 0f3d
00000020: 4b6c 11bc 2b99 143d 619d 593d b57f 133d
00000030: 0141 8eba d580 a83a 26a2 56bb 30fe 813c
0.03910151 0.0035552527 0.056569 0.03520527 0.028401017 0.052558236 0.016858747 0.03508464
-0.008875917 0.036278885 0.053128604 0.036010463 -0.0010853113 0.0012855778 -0.0032750457 0.015868276

spatial_filtering.bn.running_var f4 [16]
00000000: bb2f c73c 4b36 153c c3bf a33c 07d2 903c
00000010: 58e6 273c 9365 9e3c 94d0 7a3c 48b5 993c
00000020: 95e7 5e3c d46a 383c d4ef 3a3c 800e 3d3c
00000030: b19b f43b 5dba fe3c 156d 8a3c 4499 cc3b
0.024314752 0.009107183 0.0199889 0.017678274 0.010247789 0.019335544 0.015308518 0.0187632
0.013605018 0.011255939 0.011409719 0.011539102 0.007464849 0.031094724 0.016897717 0.0062438566

feature_compression.depthwise_conv.weight f4 [16, 1, 1, 32]
00000000: 5abc 043d 3a09 593d ef51 683c b7f1 463e
00000010: f2e6 103b 9290 a4bd 1f9c 6fbd 303a 9ebc
00000020: 4e3b 813e 10de 303e f057 44bd 33fa 77bd
00000030: ac54 65be f3b0 a53d a327 a9bc 3f70 2abd
00000040: ef8e 023d 5c35 ce3d b558 323d 1ebf 823d
00000050: 1a26 833d 5b39 1dbe 6b3a d03c 8a4b 8f3c
00000060: ccc1 bbbd 34a8 fcbd 873d f63d 01d5 893c
00000070: 2fba 92bb e988 bebd 3661 ce3d 6e89 4d3d
00000080: 44c7 63bd d7d0 abbc f647 c3bc 08bd e93c
00000090: de75 0f3e 096d d7bd 1088 2c3e 45d4 6bbd
000000a0: c134 49bd fb91 80bd d03e b5bd 7218 a3ba
000000b0: e499 f63d cdcb 253d 8ef5 be3c 1963 68bd
000000c0: 1270 35be ddb3 063d b096 d53d 2bf7 f53d
000000d0: d937 9ebd ef8b cebd c59f bbbd 202f e3bc
000000e0: cd9d f73d 00eb 39bd 0902 f8bc 2d4c 8b3a
000000f0: 3c85 bfbd 3a3e 8b3d 251f 31be b277 cd3d
00000100: 538c 273e 224a 483d 064d d03b 0109 9bbc
00000110: c9cc 3b3d 6e90 b53d 46ac 9a3d 08d2 eabd
00000120: 12cc e1bd 777c 8a3d 2f4a e13d e143 093e
00000130: fd3a a73c ef6e 8fbc 61ed f73b 7bbe 4dbe
00000140: 92a3 07be 0a53 403d 92a5 c03d 6f95 063e
00000150: 56a6 373d b8da 193e cccd 123d d4cd f53c
00000160: 8694 1abd 65ba 863b 68c2 75bc 819a 01bc
00000170: 521c 96bd 7ed0 273d a816 3dbd 33f0 c23d
00000180: 1dfb aa3d cbec 0bbd 8487 06be 11d7 aabc
00000190: 8b19 d53c 1522 13be 56cc 8a3d 35d5 0d3c
000001a0: d3e6 e5bd c839 063e 4712 c5bc 8000 debc
000001b0: 45a5 933d 7587 76bd 416c e7bc 5c5a c43c
000001c0: 0144 c63d 0da3 55bd 47d5 aabd d847 05bd
000001d0: 7723 46be 1858 4b3e c955 fb3c dcce 253e
000001e0: f603 b13c d717 32be cd41 503d e24a 29bd
000001f0: 0f7c c0bb d17e 843d 0bd4 09bd 55ff 52be
00000200: b6c2 5d3d 0cb8 f23d b8b3 3abd 0b5b b4bd
00000210: 9dde a2bc ee83 6f3b bf51 773c 9648 c6bc
00000220: 6d36 b73c 4e26 cabd 376a cfbd 3fc4 b33c
00000230: 0b28 b83d e585 a93d 9a2b d23d 00f0 d23d
00000240: ea74 9e3c 7bd4 97bd 06f7 3e3d 825b 8b3c
00000250: f557 713a 27c1 203d 325d 333d 71e5 b53d
00000260: e705 203d 5f71 8bbd f341 1dbe 17f9 d4bd
00000270: 0610 7cbd a171 68bd fb64 85be e919 ab3d
00000280: 8737 663b 37b0 1f3d 3908 a1bd 7220 87bd
00000290: 8eb6 07be 4faf fb3d 14c5 b7bd e5cb f4bd
000002a0: 4520 3abd f439 843d 25a7 9e3d 0550 2b3d
000002b0: 23ff c8bc d6ab a1bc 4908 debb 6090 32be
000002c0: 2ad1 cabd 161d 4a3d 317d 193e d9fa da3c
000002d0: 0273 9bbc 5954 96bc 54fd c03d 8df3 c3bc
000002e0: 2f81 203e 6ff5 c63d ac0b 3a3d 5921 b7bd
000002f0: 43d1 bcbd c11d 993d dfe8 42be 11b1 e6bd
00000300: 9f2d 6cbd 0cae a9bc de27 a2bd 31ea 31be
00000310: adcd 5e3d fcf7 e73c ef95 063e cafa 153e
00000320: 3170 b5bd c09a b8bd ad14 7f3c b78d 243e
00000330: 7f10 c83d 9d39 f9bc 13a2 d4bc 6348 d3bd
00000340: 170b 60bc f505 bb3b 8b70 a3bd c704 a03d
00000350: 7290 013e fda0 bdbb cdf0 44bd 9d55 423d
00000360: bc4a 6bbc 3af0 edbc 0bff 913c 41fc 8ebd
00000370: 6fb7 49bd 3b4e 353e b7c8 f53d 695a d33d
00000380: 078f f8bd 7ebb 76bd 252a 863d fbfd 1f3d
00000390: be22 2fbe d241 6b3d 1970 883a be39 3f3d
000003a0: eb03 1e3e 90a9 853d 3178 b93d 6e2f 90bd
000003b0: 509c 503e 2cbb 133e df2d b7bd 87d7 5abe
000003c0: 1d9f 74bc 19b8 1a3d 36fe 8dbc 649d d33b
000003d0: 87d9 4a3e 9e97 87bc e2d8 d5bd 47c6 943b
000003e0: 08b5 4bbd 5de7 8c3d 8dee 643b 9f08 dd3d
000003f0: 5d43 0cbe 1d45 6ebe d10c f73c bb24 b73d
0.03240619 0.052987315 0.014179691 0.19428144 0.002211031 -0.08035387 -0.058498498 -0.019314855
0.25240558 0.1727221 -0.047935426 -0.060541343 -0.22395581 0.08090391 -0.020648783 -0.041610952
0.031874593 0.10068771 0.04354163 0.06384109 0.06403752 -0.1535391 0.02541848 0.017492075
-0.09167823 -0.1233677 0.12023454 0.016825201 -0.004477761 -0.09303457 0.10077135 0.05017989
-0.055609956 -0.020973606 -0.023838025 0.02853252 0.14009807 -0.10518844 0.16848779 -0.057575483
-0.049122576 -0.062778436 -0.08849871 -0.0012443198 0.12041071 0.040477563 0.023310449 -0.056735132
-0.17718533 0.032886375 0.10429132 0.12010034 -0.07725496 -0.10085284 -0.09161333 -0.027732432
0.12090645 -0.04539013 -0.030274408 0.001062756 -0.09351584 0.06798978 -0.17297037 0.10032596
0.16362123 0.048898824 0.006356838 -0.018925192 0.045849595 0.088654384 0.0755239 -0.114658415
-0.110252514 0.06762021 0.110004775 0.134048 0.02041387 -0.017508952 0.0075661396 -0.20092194
-0.13245991 0.046954192 0.0940658 0.13142942 0.044836365 0.15024841 0.035840794 0.030005373
-0.0377393 0.0041115754 -0.014999963 -0.007910372 -0.073296204 0.040970318 -0.046164185 0.095184706
0.08348677 -0.03416137 -0.13137633 -0.020854505 0.026013156 -0.1436847 0.06777255 0.00865679
-0.11225667 0.1310798 -0.024056567 -0.027099848 0.07209257 -0.060187776 -0.028249862 0.023968868
0.096809395 -0.05215745 -0.08341461 -0.03253922 -0.19349466 0.19857824 0.030680554 0.16192192
0.021608334 -0.17391907 0.050844003 -0.04133118 -0.005874164 0.06469501 -0.033649486 -0.20605214
0.05414077 0.118515104 -0.04558155 -0.088064276 -0.01988154 0.0036547142 0.015095173 -0.024204534
0.02236482 -0.09870587 -0.10127681 0.021944163 0.089920126 0.082774915 0.102622226 0.102996826
0.019342858 -0.07413574 0.0466223 0.017011408 0.0009206527 0.039246704 0.04379005 0.08881653
0.03906813 -0.06808733 -0.15357189 -0.103990726 -0.06153872 -0.05674899 -0.26053604 0.08354551
0.0035128312 0.03898641 -0.078628965 -0.06597985 -0.13253233 0.12289297 -0.089731365 -0.11952952
-0.04544093 0.06456366 0.07746724 0.04182436 -0.024535721 -0.019735258 -0.00677589 -0.17437887
-0.09903176 0.049344145 0.14989163 0.026730942 -0.018975738 -0.018350767 0.094233185 -0.023919845
0.1567428 0.097147815 0.045421287 -0.089419074 -0.09219601 0.07476378 -0.19034146 -0.112642415
-0.057660695 -0.020712875 -0.0791776 -0.17374493 0.054395366 0.02831649 0.13143133 0.1464645
-0.088592894 -0.09013891 0.015568894 0.16069685 0.097687714 -0.03042298 -0.02595619 -0.10316541
-0.013674519 0.0057074972 -0.0798045 0.07813411 0.12652758 -0.0057870136 -0.048081208 0.04744493
-0.01436108 -0.029045213 0.01782181 -0.06981707 -0.0492472 0.17705624 0.12001174 0.10319979
-0.12136655 -0.0602374 0.06551007 0.039060574 -0.17103097 0.057435818 0.0010409384 0.046685927
0.15431182 0.06526482 0.09056128 -0.070402965 0.20372128 0.14426869 -0.08944296 -0.2137128
-0.014930514 0.037773225 -0.017333131 0.0064579714 0.19809543 -0.016551789 -0.10441758 0.004540238
-0.04973319 0.068800665 0.0034932226 0.1079266 -0.13697572 -0.23268552 0.030157479 0.08942553

feature_compression.depthwise_conv.bias f4 [16]
00000000: cf14 6136 6019 8db6 aa35 55b6 a8e2 66b5
00000010: 831c 85b6 6f54 0836 7528 ba36 514f ffb5
00000020: 95d8 7435 5466 98b5 dfe2 7f35 cda9 45b6
00000030: be69 79b5 aef0 10b6 197d 92b5 ca45 a736
3.3539725e-06 -4.2050815e-06 -3.177071e-06 -8.6011505e-07 -3.967028e-06 2.0314726e-06 5.547942e-06 -1.9022065e-06
9.121225e-07 -1.1354664e-06 9.5325044e-07 -2.9454125e-06 -9.2913604e-07 -2.1597766e-06 -1.0914256e-06 4.9851124e-06

feature_compression.pointwise_conv.weight f4 [16, 16, 1, 1]
00000000: 6aa0 30be 76e0 4bbd 4aec ac3c 3fd1 7d3d
00000010: 1c7b 933d 9a2f 033d f07f c7bb d24f 313d
00000020: 3fab 043d b4c0 113e 14ee 30bd 2f6f 433e
00000030: 259e a73d b4c3 84bd 6166 fe3c 3245 03be
00000040: 2208 f33d 2382 a8bd 5977 01be 836e 793d
00000050: 8aff 8bbd 32b5 1f3e c72c 323e 5d95 16be
00000060: c796 ab3d b2c1 f23b e6d7 bf3d d49f 14be
00000070: 56f6 1c3e 1d35 8cbd 7ab3 ff3c ce2a a0bd
00000080: 719a d4bd b516 41be ecfd 1a3d 0cc7 8abe
00000090: 32da 14bc 4fa1 e33b 9e05 023e 89f8 ef3d
000000a0: 1367 b1bc 7e1d 31bb 4bb7 233e b961 0d3d
000000b0: eb7f cdbd 5142 0cbd 0752 acbc f704 0f3e
000000c0: e853 5b3d 9457 e33c 06c5 533d 93fc c83d
000000d0: 9103 34be b9cb 1b3e f9e7 433e 3bb2 16bd
000000e0: 8a36 90bc c3a1 d13d edce ae3d 11b5 eabd
000000f0: c3d0 bb3d 921f 1f3c 8af0 5dbd 3502 18be
00000100: b052 253d 81eb 393c 916a ae3d 7736 5abd
00000110: f02d e9bc 6344 943b 9b90 a3bd 320d 953d
00000120: 40b6 30be bda2 98b9 240d 59bc d8eb f1bd
00000130: f786 573d 809e 0f3e b55a 223e 5ae5 e8bd
00000140: a163 29be 7b91 88bd 4bc4 83bc 77e6 65be
00000150: 3365 6dbd d174 dc3d 6c85 8bbd c441 f33d
00000160: cd9e 16bd 0aa7 213e 068c e83d 9657 e93d
00000170: 4ef9 57bd 0d1d e6bc f75c 963d a820 763d
00000180: b9ca babd 4f44 56be 3abd 21bd 6f10 61be
00000190: 7d87 853c 58aa 28bd a865 193e e007 823d
000001a0: 1668 223d 69a4 aebd 8c52 353d fa71 603d
000001b0: 0123 f8bd cd22 9ebd 1edb c9bd a45f ad3d
000001c0: 7264 17be 5e3e 36be 558c 0ebe 2add 1ebd
000001d0: c4b4 c5bb 38ee e93d 683a 113d a0dc d13d
000001e0: 1d22 65bd 4c9d d83c da03 823e 2631 6c3d
000001f0: 77c9 f2bb 150c 4abd a838 c93c d25f a03d
00000200: 70ff 0f3e e558 26bd 3aaa 6fbd 8cc3 053d
00000210: 4de0 07be 3423 0a3e 1a89 db3d efe8 07be
00000220: f78d 703d 6615 983d 44b0 a13d ee27 05be
00000230: ad82 c93d 01d4 21bd 30ab 383d b633 febd
00000240: ccac 06bd 3994 21bd 8a3f 073d 543f b9bc
00000250: 09dc 043e d5d2 f1bd 41e1 ecbd cfdc f0bd
00000260: 23ed ecbd 1b27 93bd a89b adbd f41c e7bd
00000270: 62ed d23d 0c42 ec3d 89a7 813e ece1 f5bd
00000280: 17f8 72bb b8ee 92bd 909a 57bd acad cf3c
00000290: 30cb 9a3d 4c5a 58bd cc1d ac3c 3d6f 14be
000002a0: de76 593e 663b bbbd 3274 f3bd 1483 37bd
000002b0: 1ca2 ff3d 892c 90bd 8c52 223e acb3 b5bd
000002c0: ede4 53bd 15de d1bd 0a01 b4bd 3abf af3d
000002d0: 431b e33d 49b8 efbd e5c8 5f3c 3816 29be
000002e0: ec75 403e fc17 11be 2abb f9bd ccb0 77bc
000002f0: 35e9 9e3d ab15 ecbd 6e0f 093e a871 c1bb
00000300: 6ed7 023e 3213 26bd be0b 1a3d c1d1 843d
00000310: c6e9 08be 97c5 253e bd5c c93d 6759 c7bd
00000320: 1d63 ea3d c59c ee3d 89ee 953c 6596 b4bd
00000330: 1394 1d3e 7f62 a639 0dbf a93c 818f b0bd
00000340: e51d 8abb 0a9b aebd 8a42 a3bd 3676 d23c
00000350: 3970 bb3d 9eb0 d1bd 32da f4bc b1d5 4bbe
00000360: 43f0 193e d48c 17be dda3 09be 3f70 1bbd
00000370: 3a62 bc3d 4017 d3bd ef6b 043e 9eb1 30bd
00000380: bb8a 1b3c b0fe 58bc 86ab 09bc c27d a2bd
00000390: bcb4 903b 002f 9abd 30cd 6cbd ffcc 42bd
000003a0: 44c7 5dbe f74e 49bd 1b76 37bd e6e8 79bd
000003b0: 8370 d83d 7172 063e 3bc8 5b3e 107e 03be
000003c0: ef09 7fbd 7fc9 08be 6867 a2be fcc2 573d
000003d0: 26a0 9b3d 307e e63d 2e00 5c3d cd50 9a3d
000003e0: 655f 7abc f264 c0bd 845f 473d c1ed 74bd
000003f0: 41ec ecbb 4f16 81bd 9e3a b23a d14c 333d
-0.17248693 -0.04977461 0.021108765 0.06196713 0.072012156 0.03202782 -0.0060882494 0.043289013
0.032389876 0.14233667 -0.0431958 0.19085382 0.081844606 -0.0648264 0.031054677 -0.12819365
0.118667856 -0.082279466 -0.12643184 0.060896408 -0.068358496 0.15596464 0.17399894 -0.14705415
0.08378368 0.007408344 0.09367351 -0.14514095 0.15328345 -0.06846068 0.03121351 -0.07820664
-0.1038102 -0.18856318 0.037839815 -0.27104986 -0.009085225 0.0069467197 0.12697455 0.11717326
-0.021655595 -0.0027025635 0.1598789 0.034517024 -0.10034164 -0.03424293 -0.021035207 0.13966738
0.053546816 0.027751721 0.051701568 0.098138 -0.17579485 0.15214433 0.1913146 -0.036791068
-0.017604131 0.10235932 0.08535562 -0.11460317 0.091706775 0.009712117 -0.054184474 -0.14844592
0.04036206 0.011347652 0.0851642 -0.053274598 -0.028464288 0.004524754 -0.07986566 0.072779074
-0.17257023 -0.0002911295 -0.013247762 -0.11812562 0.052618947 0.14025307 0.15854914 -0.1137187
-0.16541912 -0.06668373 -0.01608481 -0.22451197 -0.05795784 0.107644685 -0.068125576 0.11877778
-0.036772538 0.15786377 0.11354832 0.11393659 -0.05272799 -0.028090024 0.073419504 0.060089737
-0.091206975 -0.20924495 -0.0394871 -0.21978925 0.016299957 -0.041178077 0.14980185 0.06349158
0.039650045 -0.085274525 0.044268176 0.054796197 -0.121160515 -0.077214815 -0.098562464 0.084655076
-0.1478441 -0.17797229 -0.1392072 -0.038785137 -0.006033512 0.1142239 0.03545609 0.10247159
-0.055940736 0.026442192 0.25393564 0.05766406 -0.0074092704 -0.04932793 0.024563149 0.07830776
0.14062285 -0.04061212 -0.05851195 0.03265719 -0.13269158 0.13489991 0.107195094 -0.13272451
0.05872914 0.074259564 0.07894948 -0.13003513 0.098393776 -0.039508823 0.045085132 -0.12412207
-0.032879636 -0.039447997 0.03301958 -0.022613205 0.12974562 -0.11807791 -0.11566401 -0.11760866
-0.11568668 -0.07185193 -0.08476955 -0.11284819 0.102991834 0.11536035 0.25323132 -0.12005982
-0.0037074143 -0.07174438 -0.052637637 0.025351368 0.07558286 -0.05282049 0.021010302 -0.14495559
0.2123675 -0.09142189 -0.11887397 -0.04480274 0.12482092 -0.070397444 0.15851802 -0.0887216
-0.051731993 -0.10247437 -0.08789261 0.085813954 0.11089184 -0.117050715 0.013658737 -0.16512382
0.18794984 -0.14169306 -0.12193902 -0.015117835 0.077593245 -0.1152757 0.13384792 -0.0059034415
0.12777492 -0.04054565 0.037608854 0.0648532 -0.13370427 0.16188656 0.098321415 -0.09733849
0.114446856 0.11650995 0.018302219 -0.08817748 0.15388517 0.00031735373 0.020720983 -0.08621121
-0.0042149895 -0.08525665 -0.07971676 0.025691133 0.09152264 -0.10238765 -0.0298892 -0.19905736
0.15033059 -0.14799815 -0.13441415 -0.037948843 0.09198423 -0.10307169 0.12931798 -0.04313814
0.009493525 -0.013244316 -0.008402711 -0.07934143 0.0044160765 -0.07528496 -0.05781287 -0.04755878
-0.21658045 -0.049147572 -0.04479037 -0.061013125 0.10568335 0.13129593 0.214631 -0.12841058
-0.062265333 -0.13358115 -0.31719518 0.052676186 0.07598905 0.11254537 0.05371111 0.07534943
-0.015281533 -0.09394254 0.048675075 -0.059797052 -0.007230312 -0.06303083 0.0013597792 0.04377443

feature_compression.pointwise_conv.bias f4 [16]
00000000: 5846 7736 a5b2 dd36 0937 5937 b953 5734
00000010: d451 e1b6 8a39 d9b6 3b99 9fb6 5776 5ab6
00000020: 011a 6b37 fb0e 3eb6 b5a5 8a36 22d5 95b6
00000030: 2e26 5c37 dc3a b236 307b 08b5 2c67 0a37
3.6846814e-06 6.60711e-06 1.2947022e-05 2.0053893e-07 -6.7150486e-06 -6.4738024e-06 -4.7564076e-06 -3.2553414e-06
1.4013146e-05 -2.8320926e-06 4.1320113e-06 -4.465358e-06 1.3121911e-05 5.3116655e-06 -5.084321e-07 8.249463e-06

feature_compression.senet.fc.0.weight f4 [8, 16]
00000000: 9a0b 0000 7209 0000 730a 0080 8805 0080
00000010: 100a 0080 6e02 0000 9c06 0080 e109 0080
00000020: f407 0080 c806 0080 5704 0080 8503 0080
00000030: 2a0b 0000 6603 0000 a205 0080 5400 0080
00000040: 1d01 0080 0b0e 0000 1f0a 0000 8c0a 0000
00000050: 2b08 0080 190b 0000 e603 0000 3301 0000
00000060: 1106 0080 c508 0000 0503 0000 2e0e 0080
00000070: 780a 0000 f50d 0080 2803 0000 9b01 0000
00000080: cc0c 0000 1b0b 0000 2d0a 0000 5e0b 0080
00000090: 9609 0080 f309 0000 0506 0080 380d 0080
000000a0: 8a0a 0000 2507 0080 4c04 0080 490a 0000
000000b0: 7c0d 0080 2f0b 0080 fc00 0000 610c 0000
000000c0: 1e09 0080 ba0d 0000 e40d 0000 4d0a 0000
000000d0: 4b0b 0000 5201 0000 010e 0000 a209 0000
000000e0: 500e 0080 9206 0000 b006 0080 5d07 0000
000000f0: fd0b 0080 5106 0000 3a09 0080 060a 0000
00000100: cf0d 0000 e90d 0000 0b02 0080 db09 0000
00000110: f70d 0080 5c02 0000 0f0e 0000 6005 0000
00000120: da09 0000 8e03 0000 b30d 0000 2409 0080
00000130: e70a 0080 040d 0000 9506 0000 9d07 0080
00000140: fa0d 0000 5b0e 0000 6509 0000 1c0e 0000
00000150: 8909 0080 490e 0000 530e 0000 c40d 0080
00000160: b60d 0000 f501 0080 fb0a 0000 070b 0080
00000170: 0b04 0000 3c0b 0000 2d07 0000 3e0f 0080
00000180: 590b 0080 5d03 0080 a801 0000 6f0a 0080
00000190: 9d0a 0000 110c 0000 9805 0000 c001 0080
000001a0: ca01 0000 f605 0000 bc03 0000 4305 0080
000001b0: f509 0080 6308 0000 dc02 0080 cd05 0080
000001c0: 3609 0080 300a 0080 1b0a 0080 ee06 0000
000001d0: 9609 0080 9107 0080 5007 0080 1408 0080
000001e0: 1504 0080 7706 0080 c306 0080 3b06 0000
000001f0: ee0c 0000 0806 0000 b809 0080 d409 0080
4.162e-42 3.388e-42 -3.748e-42 -1.984e-42 -3.61e-42 8.72e-43 -2.371e-42 -3.544e-42
-2.853e-42 -2.433e-42 -1.557e-42 -1.263e-42 4.005e-42 1.219e-42 -2.02e-42 -1.18e-43
-4e-43 5.038e-42 3.631e-42 3.784e-42 -2.93e-42 3.981e-42 1.398e-42 4.3e-43
-2.176e-42 3.146e-42 1.083e-42 -5.087e-42 3.755e-42 -5.007e-42 1.132e-42 5.76e-43
4.59e-42 3.984e-42 3.65e-42 -4.078e-42 -3.439e-42 3.569e-42 -2.16e-42 -4.742e-42
3.781e-42 -2.563e-42 -1.541e-42 3.69e-42 -4.837e-42 -4.012e-42 3.53e-43 4.441e-42
-3.27e-42 4.924e-42 4.983e-42 3.695e-42 4.051e-42 4.74e-43 5.024e-42 3.456e-42
-5.134e-42 2.357e-42 -2.399e-42 2.641e-42 -4.3e-42 2.266e-42 -3.31e-42 3.596e-42
4.954e-42 4.99e-42 -7.33e-43 3.535e-42 -5.01e-42 8.46e-43 5.043e-42 1.928e-42
3.534e-42 1.275e-42 4.914e-42 -3.279e-42 -3.911e-42 4.669e-42 2.361e-42 -2.731e-42
5.014e-42 5.15e-42 3.37e-42 5.061e-42 -3.42e-42 5.125e-42 5.139e-42 -4.938e-42
4.919e-42 -7.02e-43 3.939e-42 -3.956e-42 1.45e-42 4.03e-42 2.574e-42 -5.468e-42
-4.071e-42 -1.207e-42 5.94e-43 -3.743e-42 3.807e-42 4.329e-42 2.007e-42 -6.28e-43
6.42e-43 2.138e-42 1.34e-42 -1.888e-42 -3.572e-42 3.009e-42 -1.026e-42 -2.081e-42
-3.304e-42 -3.655e-42 -3.625e-42 2.486e-42 -3.439e-42 -2.714e-42 -2.623e-42 -2.898e-42
-1.464e-42 -2.319e-42 -2.426e-42 2.235e-42 4.638e-42 2.164e-42 -3.486e-42 -3.526e-42

feature_compression.senet.fc.2.weight f4 [16, 8]
00000000: 2204 0000 320d 0000 8308 0080 e90d 0000
00000010: 8d0d 0000 070e 0000 d30d 0080 c806 0080
00000020: cf09 0000 f60f 0080 610b 0080 800c 0080
00000030: 590c 0080 650f 0000 e803 0080 9c01 0000
00000040: 030b 0080 070d 0080 b905 0000 af08 0080
00000050: 1f01 0000 2603 0080 f40b 0000 c304 0000
00000060: a90b 0080 9310 0000 1609 0000 ef0d 0000
00000070: cd09 0080 2a0f 0000 7000 0000 d505 0080
00000080: 0902 0000 1208 0080 f403 0000 4b03 0080
00000090: ca0c 0000 a50e 0080 5706 0000 b604 0080
000000a0: 7a0a 0000 3204 0080 c902 0000 cb09 0000
000000b0: f00c 0080 6b08 0080 cf0a 0000 4702 0080
000000c0: 5708 0000 7709 0080 9305 0080 2703 0000
000000d0: 310c 0000 ff0a 0000 ff0b 0080 1704 0000
000000e0: ab09 0080 a80e 0080 7700 0080 e108 0000
000000f0: 7e08 0080 d10e 0000 da09 0080 7804 0080
00000100: 120a 0000 a90e 0080 c30d 0080 0906 0080
00000110: c608 0080 3c05 0000 db0d 0080 b60a 0080
00000120: e20b 0080 8607 0000 d703 0080 ff07 0080
00000130: 770a 0080 3a0e 0080 7c07 0000 8305 0080
00000140: b80a 0080 5f02 0000 e10d 0000 a40d 0000
00000150: fb06 0080 4d03 0080 790b 0080 5607 0080
00000160: 6600 0000 ba04 0080 ac0d 0080 2f07 0080
00000170: 9809 0080 8908 0000 210d 0080 bf0c 0000
00000180: 720d 0080 eb0a 0080 af04 0080 100e 0080
00000190: 430e 0000 950e 0000 a509 0080 fb08 0000
000001a0: 2d0a 0000 e10f 0080 1b05 0000 4608 0000
000001b0: e604 0080 a806 0000 380a 0080 6908 0080
000001c0: 5d0a 0080 310e 0080 590b 0080 ee0d 0080
000001d0: 460e 0000 4c0c 0080 940d 0000 7807 0000
000001e0: 7f04 0000 000e 0080 ad00 0000 b101 0080
000001f0: 9e08 0000 960e 0080 e407 0080 fa02 0000
1.483e-42 4.734e-42 -3.053e-42 4.99e-42 4.861e-42 5.032e-42 -4.959e-42 -2.433e-42
3.519e-42 -5.726e-42 -4.082e-42 -4.484e-42 -4.43e-42 5.523e-42 -1.401e-42 5.77e-43
-3.95e-42 -4.673e-42 2.053e-42 -3.115e-42 4.02e-43 -1.13e-42 4.288e-42 1.708e-42
-4.183e-42 5.946e-42 3.26e-42 4.998e-42 -3.516e-42 5.44e-42 1.57e-43 -2.092e-42
7.3e-43 -2.895e-42 1.418e-42 -1.181e-42 4.588e-42 -5.253e-42 2.274e-42 -1.69e-42
3.758e-42 -1.505e-42 9.99e-43 3.513e-42 -4.641e-42 -3.02e-42 3.877e-42 -8.17e-43
2.992e-42 -3.395e-42 -2e-42 1.131e-42 4.373e-42 3.945e-42 -4.303e-42 1.467e-42
-3.468e-42 -5.258e-42 -1.67e-43 3.185e-42 -3.046e-42 5.315e-42 -3.534e-42 -1.603e-42
3.613e-42 -5.259e-42 -4.937e-42 -2.165e-42 -3.147e-42 1.878e-42 -4.97e-42 -3.842e-42
-4.263e-42 2.699e-42 -1.377e-42 -2.868e-42 -3.754e-42 -5.104e-42 2.685e-42 -1.977e-42
-3.845e-42 8.5e-43 4.979e-42 4.893e-42 -2.504e-42 -1.184e-42 -4.116e-42 -2.632e-42
1.43e-43 -1.696e-42 -4.905e-42 -2.577e-42 -3.442e-42 3.062e-42 -4.71e-42 4.572e-42
-4.823e-42 -3.917e-42 -1.68e-42 -5.045e-42 5.116e-42 5.231e-42 -3.46e-42 3.222e-42
3.65e-42 -5.696e-42 1.831e-42 2.968e-42 -1.757e-42 2.388e-42 -3.666e-42 -3.017e-42
-3.718e-42 -5.091e-42 -4.071e-42 -4.997e-42 5.12e-42 -4.411e-42 4.871e-42 2.679e-42
1.613e-42 -5.022e-42 2.42e-43 -6.07e-43 3.091e-42 -5.232e-42 -2.83e-42 1.068e-42

feature_compression.bn.weight f4 [16]
00000000: 12fd 3c3f e25c 703f c620 873f 35cd 553f
00000010: febe 313f 1fd5 6e3f 7c05 6a3f 8904 603f
00000020: 4550 593f 81c0 5c3f 5a70 713f 6eb0 683f
00000030: 63b1 663f 21a9 5e3f c3da 5e3f e10a 5b3f
0.73823655 0.9389173 1.0556877 0.83516246 0.69432056 0.93293947 0.9141462 0.8750692
0.84888107 0.8623124 0.9431206 0.9089421 0.9011442 0.8697682 0.87052554 0.85563475

feature_compression.bn.bias f4 [16]
00000000: a3e7 e9bd d085 02be b7ec 63be 1724 11be
00000010: 43ae 96bd ecca 34be 6f09 1ebe 4a62 14be
00000020: 8ff1 dbbd 3d7b 03be 2af7 21be 7b51 1abe
00000030: 0ae5 16be 9b59 1bbe 1262 05be ba3a e7bd
-0.11421134 -0.12746358 -0.22258268 -0.14173923 -0.073574565 -0.17655534 -0.15433286 -0.1449062
-0.10739433 -0.1283998 -0.15816942 -0.15070145 -0.14735809 -0.151709 -0.13025692 -0.11290498

feature_compression.bn.running_mean f4 [16]
00000000: 9166 56bb 67f8 79bb f679 8cbb 1d8b 38bb
00000010: ccdc fbba 3213 8bbb a67c 1fbb 9eb1 e0b9
00000020: c387 86bb 5006 48bb 5ecd babb 2d83 91bb
00000030: ac06 68bb 1074 6abb b94a 54bb 39e8 923a
-0.0032714943 -0.0038142444 -0.004287 -0.002815909 -0.0019215583 -0.0042442316 -0.002433577 -0.00042856944
-0.0041055395 -0.003052134 -0.005700751 -0.004440686 -0.0035404367 -0.0035774745 -0.003239317 0.0011208124

feature_compression.bn.running_var f4 [16]
00000000: 1ec5 df3a 1888 293b cc40 3c3b 7db4 f63a
00000010: e910 df3a 02c9 373b bf77 1f3b 4458 193b
00000020: 0730 0c3b 96f1 223b e1f6 153b 2080 233b
00000030: d905 0b3b 65c8 153b 3cbe 133b d1b6 ba3a
0.0017072295 0.0025868472 0.0028725145 0.00188221 0.001701859 0.0028043394 0.002433285 0.0023398558
0.0021390931 0.0024863235 0.0022882747 0.0024948195 0.0021213202 0.002285504 0.0022543808 0.0014245157
