logs/sscl_01171238/best_w.pth (torch, 51736 bytes, 30 tensors)

temporal_filtering.conv.weight f4 [8, 1, 1, 128]
00000000: 32e2 843d a26b 903d 8f53 9a3d 85b0 43bd
00000010: 9c29 373d 20cc 0fbd f405 1c3d b294 86bd
00000020: 6c61 afbd 0d8e 86bd fe2f a8bc 9b83 783d
00000030: df45 32bd a05a 80bd 9809 abbc 9293 833d
00000040: 2ed5 073d 2c36 28bb 9a52 ebbc 9c00 58bc
00000050: f937 8c3c 61d3 4a3d b56f a23d b24d 973d
00000060: 54df d9bb c033 65bb 16d1 fb3c ac18 0dbc
00000070: b17f 0fbd c55f adbd 854e d4bd b7f0 813d
00000080: 5230 a63c 42b7 f2bc 3d0b 15bc 4d3a cabc
00000090: 90da 92ba 17ad 70bb 7a1d 713d be05 fd3c
000000a0: a319 a1bd f752 9abd d410 4b3c 67a8 853d
000000b0: 65db 94bd e8f1 253d 6c1a 3d3d 696e 5cbd
000000c0: 38af 47bc 86d6 f5bb 546c 84ba 7347 70bd
000000d0: 8869 bbbb fa37 46bd 5063 5dbd 4905 09bd
000000e0: 7f6c 853d f44c 01bd 010b 9d3d 9595 4d3c
000000f0: c47b bebc f853 873c a913 27bd e904 3fbd
00000100: 261d afbb 49d9 a2bd bb6b a4bc fb0b c23d
00000110: 8af0 c23d ac24 d33c 4bb0 233d 0959 123d
00000120: 74a7 e93c f38d 803d 9f5e 78bd 565e 023d
00000130: 96ed 42bd d8b0 a83c 9796 61bc 94ae 9e3a
00000140: a888 a93c e455 a73b 85d2 493d 1be0 763c
00000150: d59d bfbd 5f73 633d c45e afbd eb8f b8bb
00000160: 7521 973d 8c89 52bd e17d 11bb 23f2 453d
00000170: b026 2e3a 47c9 a03d 9a6d b73d 7250 d6bb
00000180: 3cd5 39bd 5a9d 15bd 8cdb 003d 80b8 1c3c
00000190: 831f 92bd fbdf 643c 28c7 b3bd 1850 783d
000001a0: 3303 853b dcc9 60bc 3973 063d 053f 83bd
000001b0: ae6a 94bd 77db 4bbd 8e87 5e3d 2059 0fbd
000001c0: e62c ec3b b775 97ba 066b 973d 6129 b73d
000001d0: 62eb 8ebc 512d 4bbd 16a1 a63d 0a6e 2dbd
000001e0: c8cf 8dbd d45e 723c bc68 c6bc 85f1 19bd
000001f0: bc04 b2bc a675 87bd 6155 b63b cfd5 2c3d
00000200: 0a6c 343c 7329 4c3c 4484 debc fb1e e83c
00000210: 8d71 e5bd 6a88 5e3d ab3b 5fbc 4022 f0bb
00000220: fa76 3bb9 1249 7e3d c74c 103d 3701 c33c
00000230: 8bc3 d3bc 9fa1 45bd c760 ae3d 4e89 903d
00000240: 7ddf 78bd 6bab 623d 56ba 15bd 3df2 96bc
00000250: e1ed fdbb 3051 fabc ee8c 353c 8812 403b
00000260: 72e6 d7bd 42e1 bebc ef5a 613d ee5a 48bd
00000270: c47b deba a941 82bd 7079 983c 6c74 afbb
00000280: 11e7 ef3d 1c32 2d3c 4c2f 263d 62ff c43d
00000290: 8546 ae3d dc2b 3e3d 907d 09bd 67e3 3c3d
000002a0: 2de8 13bd 327a dcbc dc14 0ebd a942 89bd
000002b0: 76fe 04bd 994b febd d6ab dbbd b364 91bd
000002c0: 450f dfbc 6434 72bd 0cef ecbd 430e cabd
000002d0: 1673 e5bc 5bde 613d c5cf 343d 8455 003c
000002e0: 0066 c73d f6d7 04bd 2b54 e1bc fca7 113d
000002f0: 72ae 273b 6c8b 63bd 8698 ea3c 5a05 a6bc
00000300: b2b0 eabc 2b9e 7a3d 269f 3d3d 51e8 c0bd
00000310: 9088 50bd 25d8 a9bc 94f9 4b3c 3f71 f7bc
00000320: e58a d53c 7a68 263b 8365 58bd 42b8 34bd
00000330: 43ad 213d 3721 943d a222 933c d79f cebc
00000340: acdf 803d 58e5 113d 0389 13bd bb15 d53c
00000350: a7a8 5bbd 9f79 003c 6f61 a0bc 2d8f 153d
00000360: fc4b 863d 3ffb e6bc c1a6 713d 706d 603d
00000370: ae75 66bd db79 22bd bca4 afbd f6ec 4a3d
00000380: 7ac9 053d dc7a d7bb 1d05 f1bc e116 4d3c
00000390: 4712 873d fca1 f93c 04ec 26bd 3f26 97bd
000003a0: bfa0 1cbd f36c adba defb 8e3d e365 853d
000003b0: fc34 333d 960f 4dbd da70 623d b06c 20bd
000003c0: 7c84 7abd 7e05 e53b e435 81bd a3d8 9a3d
000003d0: 32af 3dbd a830 a9bd 366f 4f3d 7fd4 ad3c
000003e0: e5b2 d53b 69b5 4fbd e2d0 0dbd d1ce 1cbd
000003f0: b72e a13d 0463 9bbd 95d4 85bd 2495 9d3d
0.06488456 0.07051779 0.07535469 -0.047775764 0.044717416 -0.03510678 0.038091615 -0.0657133
-0.085635036 -0.06570063 -0.020530697 0.060672384 -0.043523666 -0.06267285 -0.020878598 0.06424631
0.03316229 -0.0025667055 -0.028725911 -0.013183739 0.017116534 0.049517993 0.07931463 0.07387866
-0.0066489372 -0.0034973472 0.030739348 -0.008611839 -0.035033885 -0.08465532 -0.10366539 0.06344741
0.020286713 -0.0296284 -0.009096918 -0.024686003 -0.0011204053 -0.0036724263 0.058866 0.030886527
-0.07866218 -0.075353555 0.012394149 0.06526261 -0.07268409 0.040513903 0.046167776 -0.053816233
-0.0121877715 -0.00750238 -0.0010103085 -0.05866189 -0.0057193674 -0.048393227 -0.05404979 -0.033452306
0.065148346 -0.03156753 0.076681145 0.01254787 -0.023252375 0.016519532 -0.040790234 -0.046635542
-0.005344051 -0.079516 -0.020070901 0.09474941 0.095185354 0.025774322 0.039963048 0.03572944
0.02852223 0.06277075 -0.060637113 0.031828247 -0.04758986 0.020592138 -0.013768814 0.0012106472
0.020695046 0.0051066745 0.049273033 0.015068079 -0.09356276 0.05552995 -0.08562997 -0.0056323907
0.07379428 -0.051400706 -0.0022200274 0.048326623 0.0006643338 0.078508906 0.08956452 -0.0065403515
-0.04536937 -0.036527015 0.031459376 0.009565473 -0.07134917 0.013969417 -0.087782204 0.06062326
0.0040592193 -0.013720002 0.03282473 -0.064085044 -0.0724691 -0.049769845 0.054328494 -0.034997106
0.0072075007 -0.0011555467 0.0739346 0.08943439 -0.017446224 -0.049603764 0.081361935 -0.04234127
-0.06924397 0.014793117 -0.024219863 -0.037583847 -0.021730773 -0.066142365 0.005564377 0.04219609
0.011012087 0.012461054 -0.027162679 0.028335085 -0.11203299 0.054329313 -0.013625066 -0.0073283017
-0.00017878032 0.062081404 0.03522947 0.02380429 -0.025850078 -0.048249837 0.085145526 0.07057439
-0.06076001 0.05533926 -0.036554657 -0.018426055 -0.0077493046 -0.030556291 0.011080964 0.002930792
-0.10542001 -0.02330077 0.05501836 -0.048914842 -0.0016974141 -0.0636018 0.018612593 -0.0053544547
0.11713994 0.010571029 0.04057245 0.09619023 0.08509544 0.046428546 -0.03356701 0.046115305
-0.036110092 -0.026913736 -0.03468786 -0.067021675 -0.032469235 -0.12416763 -0.107261345 -0.07099285
-0.02722896 -0.059131995 -0.11569032 -0.098660015 -0.028008979 0.055143695 0.044143457 0.0078328885
0.09736252 -0.03243252 -0.027505955 0.035560593 0.0025586155 -0.055552885 0.028637182 -0.020266224
-0.028648708 0.061185997 0.046294354 -0.09419311 -0.050911486 -0.020732949 0.012449641 -0.030205367
0.026067207 0.0025391863 -0.052831184 -0.044121034 0.039471876 0.07232898 0.01796085 -0.025222702
0.06292662 0.03561911 -0.036019336 0.026011338 -0.053627636 0.007841497 -0.01957771 0.036513496
0.065574616 -0.028195975 0.05899692 0.054791868 -0.05626457 -0.03966699 -0.085763425 0.04954239
0.032662846 -0.0065759253 -0.029421384 0.012517662 0.06595283 0.030472748 -0.040752426 -0.07380342
-0.038239237 -0.0013231322 0.069816336 0.06513574 0.0437517 -0.050063692 0.055283405 -0.039166152
-0.061161503 0.00698918 -0.06309107 0.075608514 -0.046309657 -0.082612336 0.05064317 0.02121949
0.00652157 -0.050710116 -0.034623034 -0.038283173 0.07870238 -0.07587245 -0.065346874 0.07694462

temporal_filtering.conv.bias f4 [8]
00000000: 4f9f 573d cd50 c538 6589 3abd f7d2 1d38
00000010: 976f f038 7008 ed39 efcc 44bc 4831 cfb9
0.052642163 9.408742e-05 -0.045541186 3.7628193e-05 0.00011464877 0.0004521045 -0.012011751 -0.00039518834

temporal_filtering.senet.fc.0.weight f4 [4, 8]
00000000: 7936 2a3e b808 843d 0402 123e 4502 1cbb
00000010: fe0a 463a ca78 dbba d3fd 2cbc 8742 7f3e
00000020: ef67 a73c 4abf c43b 7a92 b83d 46b0 763e
00000030: a39d 7d3c 6ff9 97bd 3dfc f13c 0165 f7b8
00000040: c63d ecb6 5007 0b36 66a4 533c 48e7 393d
00000050: 6435 00bd 68c5 183c 2ee1 aa35 5b4f 1237
00000060: 9951 1b3e 15b2 35bc 891d 65be 2634 99bd
00000070: 8bb3 de38 88e0 073e 5f1e 86be f2f9 35bd
0.16622342 0.064469755 0.14258581 -0.0023805064 0.00075547385 -0.0016744372 -0.010558563 0.24927722
0.020435302 0.0060042487 0.09012313 0.2409068 0.015479478 -0.074206226 0.029539222 -0.00011796691
-7.0405395e-06 2.071687e-06 0.012917614 0.045386583 -0.031300917 0.009324409 1.2731523e-06 8.7207545e-06
0.15167846 -0.011089821 -0.22374548 -0.0748065 0.000106192274 0.13269246 -0.26195046 -0.04442782

temporal_filtering.senet.fc.2.weight f4 [8, 4]
00000000: f544 93b9 3f2c 0cba 0862 043e 8a65 12bc
00000010: 2eee 823e efb2 a8be f94f 2a3e 9a22 473e
00000020: 5489 35be 9431 f5bc 031e f8b4 a521 793e
00000030: 4251 84be de46 dfbd bfd5 d5bd 205f b8be
00000040: 9910 30bd 2027 95be 56d2 51bd 4d0f d33d
00000050: c426 373e 3ab9 1cb8 f96d 10be b56b a83d
00000060: ca46 88ba bad8 2a3e 0bb5 3ab6 59c6 cf3c
00000070: 2b72 c0bd 40aa 91be fc7f f6bc 3e3d 49bd
-0.00028089402 -0.00053471694 0.12928021 -0.008935342 0.25572342 -0.32949015 0.1663207 0.19446793
-0.17728168 -0.029930867 -4.6215436e-07 0.2432924 -0.25843245 -0.10902189 -0.104411595 -0.36010075
-0.04298458 -0.29131413 -0.051225983 0.10305653 0.17885882 -3.7365804e-05 -0.14104451 0.082236685
-0.0010397073 0.16684237 -2.782154e-06 0.025363134 -0.09396776 -0.28450203 -0.030090325 -0.04913067

temporal_filtering.bn.weight f4 [8]
00000000: 8774 833f deca 7d3f 31be 833f fbba 6d3f
00000010: 29f1 6c3f 27c7 6e3f 341e 733f dc21 793f
1.0269936 0.99137676 1.0292417 0.92863435 0.9255548 0.9327263 0.9496796 0.9731729

temporal_filtering.bn.bias f4 [8]
00000000: 1d8d b7bd afa5 d7bc 0427 483d cb3a 3a3d
00000010: 8658 86bc b9b5 98bc 7a03 0cbd c218 d43c
-0.08962462 -0.026324121 0.048865333 0.045466226 -0.016399633 -0.01864134 -0.034183003 0.025890712

temporal_filtering.bn.running_mean f4 [8]
00000000: 459d f43c 7466 673a e79c d6bc 4a6e 56ba
00000010: 4607 5437 d89f c139 f3a1 07bc 520c 9c38
0.029860148 0.00088272174 -0.026197864 -0.00081798865 1.2637878e-05 0.00036930921 -0.008278358 7.4409545e-05

temporal_filtering.bn.running_var f4 [8]
00000000: 1459 013e 8efe 513e 7269 4d3e 8c00 233e
00000010: fca9 023e e060 f73d b736 033e ec04 b53e
0.12631637 0.20507261 0.20059755 0.15918177 0.12760156 0.12079024 0.12813841 0.35355318

spatial_filtering.conv.weight f4 [16, 8, 3, 1]
00000000: 83c3 0d3e 3da6 6cbd 0859 d53b e403 27be
00000010: da7b db3d d664 1abe ba93 58bd 45ed 49bd
00000020: 6818 613d 10ad 2cbe 8940 113e ab11 fcbd
00000030: 651f 9cbb 09e4 92bd efb6 16be e22b 6cbd
00000040: 0fbd 23be a3ad 683c 163e cd3d 8111 18bd
00000050: 3288 b9bd 4101 673d 0d2b 113d b354 8dbd
00000060: be92 febd 4947 bfbd 8d01 203e d6c2 e83d
00000070: d67c e73c ae16 b4bc d3b1 fdbc 177f 2cbe
00000080: 0ebc ab3d 8360 f6bd dc55 e9bd ce17 00bd
00000090: 1838 b73d a25c 14be 930f afbd e5f4 c9bc
000000a0: a09c 90bd ca94 f1bc e889 36be 116b 2f3d
000000b0: 37d2 893d 84c0 4d3c 4bc6 0abe 274c 1f3e
000000c0: 32d0 1bbe 4495 96bd be20 8c3c a4d3 64be
000000d0: 8000 22be 5389 86bd 6ee2 2d3c 2dd5 4b3d
000000e0: cf29 3d3d a1c4 2e3e 2f72 353e 1caf 1dbe
000000f0: 928c 39be 7813 fcbd d46e 6dbd f618 3cbe
00000100: cfab c4bd 43ad d2bd 334d 0e3d 435c b73c
00000110: 07eb 2a3e 9d12 26bd f835 263e f96c f3bd
00000120: f9b5 f13c 0cf0 2ebe 1621 21be fefe 4e3d
00000130: 1110 b13d 134e 0bbd 85c7 1ebe 67bb 833d
00000140: 5ddd 3cbd d7dc f6bd a6b5 45be 4f46 b13d
00000150: f748 1abe c178 e3bd 3c73 4bbe 702f 4438
00000160: d5ac 7d3b 1f03 e93d 5ac6 f8bd 7bf0 3ebe
00000170: 45e3 a33d b35b 4f3d 9b6c b1bd 04fa b1bd
00000180: 215d 0abe 9b0d 12be 852c 07be 866a a5bd
00000190: fa34 203e 1b6b 843d 6516 613d 0f46 cf3d
000001a0: 1bfa 82bd 2c56 2b3e 7351 26be ff56 ccbd
000001b0: 1285 2abe 0f59 843d 2ab2 883c 2cab 15be
000001c0: 26b9 c1bb fd80 d7bc bc86 073e b3c5 78bd
000001d0: 86d8 a1bd 376d d43d 929a 933d 6990 ac3a
000001e0: 1a71 b6bd 8162 17be 79df 06be 3276 f53d
000001f0: 021a febd 4eab c23d ddf3 213e e302 82bd
00000200: e648 ccbc 1d5d ebbd 5b5d 923d 5462 b33b
00000210: 1c17 383d 77eb 41be 1c76 38bd 727f 093d
00000220: 442c 3b3d ffc7 a8bc 5db4 fd3d 5719 fa3d
00000230: 7ac4 a8bd 2b3f f3b9 716a 1ebb 0e28 d53d
00000240: 4ee1 213d 088a 86ba 7c03 10bd 28b5 f1bd
00000250: d66c 5cbd d3ba 243e 33c4 0bbe 53c4 28be
00000260: bd7a b33d d4af 4fbd 200a 0bbe d4bb 53be
00000270: 6e52 b73c cb7e 7dbd 5cc4 5ebd d9d5 abbd
00000280: 87fe 36bd b8ab 9a3d e65f a1bd cbfc 37be
00000290: 448e 763c 3f31 d4bd e323 343e fada 11be
000002a0: 86fd 023e 7612 98bd fcbf ac3d bddf eebd
000002b0: a415 d4bd f58f 49bd df3e e63d 528d 08be
000002c0: 73a5 5b3d 408f 003d 080e d1bd bb64 27be
000002d0: 29f8 6cbc 1720 9abd 5176 1cbe 177e c8bd
000002e0: 7a42 6b3b 5af9 50be a368 89bd 744f 14be
000002f0: c9a6 963c a9b7 2c3e 546a c23d 3d30 c9bd
00000300: 5dd2 40be 764d 2abd 1cbb bb3d a05b 4fbe
00000310: 4284 69bd f35e abbd ec82 2dbe 0106 433e
00000320: 3827 053d 7aa1 123b 10df c939 93cd 05bd
00000330: 522d 423e 8d52 fd3d e001 9bbd 7d1f b43b
00000340: 91ef bd3d e51f e43d d081 11be 1ebd bcbd
00000350: 7449 de3b ea52 973d e630 5ebe bb49 1c3c
00000360: 5195 6ebd a6f8 81bd a9fa c0bd f069 263e
00000370: ce1c d63d a0ba bd3c 5c63 853c ff29 03be
00000380: 85c9 923d e4a1 2cbd 3bed 4dbe b14a 933d
00000390: 1a99 153e 1333 3bbd 1399 1dbe 8193 c7bd
000003a0: 3adb debd 3bea 7bbd e74e 9fbd 924c c0bd
000003b0: a773 72bd 5342 893d 5488 29bd 1334 ce3d
000003c0: e47a 7dbd 6f5b 8a3d 5912 573d ca50 6dbd
000003d0: 4345 15be 5408 993d 6ce8 21be 9d4b a8bd
000003e0: d82d cabd cd17 5abd af67 b73d 6dbe ab3c
000003f0: 2937 a93d 05a4 233e 5540 16bd f6e2 3e3d
0.13844113 -0.057775725 0.0065108575 -0.16310078 0.10716982 -0.15077528 -0.052875258 -0.049298543
0.054954916 -0.16862893 0.14184774 -0.123080574 -0.0047644847 -0.071724005 -0.14718221 -0.057659037
-0.15990089 0.0142015545 0.100216076 -0.037126068 -0.0905918 0.05639768 0.035441447 -0.06900921
-0.124303326 -0.093397684 0.15625592 0.11365287 0.028257769 -0.02198347 -0.030968582 -0.16845356
0.08385478 -0.12030127 -0.113933295 -0.031272702 0.08946246 -0.14488462 -0.085478924 -0.024652908
-0.07061124 -0.029489893 -0.17826045 0.042826716 0.067295484 0.012558106 -0.13552205 0.15556394
-0.15216139 -0.07352689 0.017105456 -0.2234636 -0.15820503 -0.06569161 0.010613067 0.049763847
0.04618245 0.17067195 0.17719339 -0.1539883 -0.1812003 -0.12308401 -0.057967022 -0.18368897
-0.096030824 -0.10286953 0.03474159 0.022382861 0.16691218 -0.040545095 0.16231525 -0.11886019
0.029505717 -0.17083758 -0.15735278 0.05053615 0.086456425 -0.034010004 -0.15505798 0.064322285
-0.046109546 -0.120538406 -0.19307575 0.086559884 -0.15066896 -0.11107016 -0.19868177 4.677422e-05
0.0038707752 0.113775484 -0.121472076 -0.18646424 0.080023326 0.05062456 -0.08663293 -0.08690265
-0.13512088 -0.14263003 -0.13200577 -0.08076958 0.15645209 0.06465741 0.054952998 0.101207845
-0.0639536 0.1673209 -0.16242008 -0.09977531 -0.16652325 0.06462299 0.016686518 -0.14616078
-0.005911964 -0.026306624 0.13234991 -0.060735416 -0.07902627 0.103723936 0.07207216 0.0013165596
-0.08908291 -0.1478367 -0.13171186 0.119854346 -0.12407304 0.0950533 0.15815683 -0.06348207
-0.024937104 -0.11492369 0.071467124 0.005474368 0.044943914 -0.18937479 -0.045034513 0.033568807
0.045696512 -0.020603178 0.12387917 0.122118644 -0.082406 -0.00046395636 -0.002417233 0.104080305
0.039521508 -0.0010264525 -0.035159573 -0.11802131 -0.05381473 0.16086893 -0.13649063 -0.16481142
0.08763645 -0.050704792 -0.13578081 -0.2067712 0.022378173 -0.061888497 -0.05438648 -0.083903976
-0.04467633 0.07552284 -0.07879619 -0.17967527 0.015048567 -0.103609554 0.17591815 -0.14243689
0.12792024 -0.07425396 0.084350556 -0.116637684 -0.1035569 -0.049209554 0.112424605 -0.1333516
0.05362458 0.031386614 -0.102077544 -0.1634702 -0.014463463 -0.07525652 -0.15279509 -0.09789675
0.0035897777 -0.2040762 -0.06709411 -0.14483434 0.018390076 0.16866936 0.09492937 -0.09823654
-0.18830247 -0.04157778 0.09166548 -0.20249796 -0.057010897 -0.083677195 -0.16944474 0.19045259
0.032508105 0.002237408 0.00038503902 -0.032666754 0.18962601 0.12369261 -0.07568717 0.0054969178
0.09274209 0.11138896 -0.14209676 -0.09215759 0.0067836586 0.073888615 -0.21698341 0.009539063
-0.058247868 -0.06346254 -0.0942281 0.1625135 0.10454713 0.023160279 0.01628273 -0.12808989
0.07167343 -0.04214658 -0.20110027 0.07191981 0.14609185 -0.045703005 -0.15390424 -0.09744931
-0.10881658 -0.061502676 -0.07778721 -0.09389605 -0.059192326 0.067021035 -0.04138978 0.10068526
-0.061884776 0.06755721 0.052507732 -0.057938375 -0.14577202 0.074722916 -0.15811318 -0.08217547
-0.09872025 -0.053245354 0.08955323 0.020964826 0.08262474 0.15980537 -0.036682446 0.046603166

spatial_filtering.conv.bias f4 [16]
00000000: 14b5 f9bc 1934 c5bd 0e3d 733e 1292 89bd
00000010: cb3b be3b 79bd d23d f589 883d bfca ad3d
00000020: e41c afbd 237d a0bb bb97 e1bd 7234 263d
00000030: a0e3 89bd c05c 95bd 439d b4bd cbd2 49b9
-0.030481853 -0.096290775 0.2375376 -0.06717314 0.0058054677 0.10290045 0.06666938 0.084859364
-0.08550432 -0.00489773 -0.110152684 0.04057736 -0.06732869 -0.07293081 -0.08819058 -0.0001924738

spatial_filtering.senet.fc.0.weight f4 [8, 16]
00000000: 0ffd e1bd 9408 dcbc a8e5 40be 0755 59bd
00000010: f96d 063c 8bb2 4b3d e74b 19bb 4209 513d
00000020: 6307 d23c 772e 833d 6422 d43d 2be9 203d
00000030: d8c7 c5bc 03ff 3b3b 9b4e cb3d d35f 9ebd
00000040: e61f 32be d742 613d 072b c4bd 959c 403d
00000050: a583 393d edf5 bebc d3d6 bbbd c162 a33b
00000060: 9bd5 9e3c 589f 6d3c 5daa e8bc 53a5 0b3c
00000070: 0cd7 343d af69 22bd f92a 22be cfee 8c3d
00000080: 44be bf39 f1ea 5dba f6dd 2d3c c543 89bb
00000090: 7428 eab9 f4e0 df3b ddd1 663b 3fc1 853b
000000a0: e449 5738 5c9c 0b3a d35c 853a c7b7 713b
000000b0: cb89 8dbb 9cb0 2538 9bbb 7dbb 41fa f639
000000c0: f3d6 05be 2b01 bdbd 853f 113e 7b52 c93d
000000d0: fa9c 59bd 335c 8b3d 85c5 963d 2326 af3d
000000e0: 3f07 3b3d 9899 353d af6c eabd 06d5 fc3c
000000f0: d73a 54be 0a7a cfbd 9ea5 2e3c a689 75bd
00000100: 04d8 843d 4808 ca3d 9381 2f3d 6bd0 1dbe
00000110: f67e 04be 0e3b f03d b1bc eabd a2de 6fbd
00000120: bf32 403d 1845 043c 9cbf 273c 0513 93bd
00000130: 2450 2e3e 0669 3ebe 8fce 35be bb66 de3c
00000140: 0ba2 8dbe 1931 0cbe 655b ecbd ff08 9bbe
00000150: 1892 a13a 74ac 36bc 0801 de38 b91a 8dbd
00000160: 13c2 54bd d248 a03d d4b6 62bc d65f 4dbe
00000170: efe2 283e 6751 b6bc aad7 2ebe 01a4 ac3d
00000180: c30b 0e3e 5ae2 e0bd 0cc8 3b3d 7946 eebd
00000190: c425 00be 5acc 5e3e 274d 2a3e 2d43 de3d
000001a0: 6d8d 28be 4f28 01bd ee5e 03be af36 1a3e
000001b0: 70b3 c03d 01dd 363d 059d 103e 5db3 493c
000001c0: 865a 143e e561 093e 3ed6 693e 5b8e 86be
000001d0: 0d7d 26be 4be0 a53d 9ae6 2c3e bdf0 6f3c
000001e0: 02e8 0bbe f27f 92bd 704e 1ebe a307 cabd
000001f0: a19b 15be 5e9c 263d 41d6 423e 0ee2 dbbd
-0.11034595 -0.02685956 -0.18837607 -0.053059604 0.00820493 0.04973082 -0.0023391189 0.05103422
0.025638288 0.06405347 0.10358122 0.039284866 -0.024143144 0.0028685934 0.09927102 -0.07733121
-0.17394981 0.054995384 -0.09578519 0.04702433 0.04529156 -0.023310626 -0.09171834 0.0049861376
0.019388964 0.014503323 -0.028401548 0.008523303 0.044150397 -0.03965157 -0.15836705 0.068814866
0.00036572118 -0.000846549 0.010612002 -0.004188987 -0.00044662098 0.0068322364 0.0035220303 0.0040818746
5.132881e-05 0.00053257286 0.0010174758 0.0036883221 -0.0043194047 3.9503546e-05 -0.0038716558 0.0004710723
-0.13070278 -0.092287384 0.14184387 0.09830185 -0.05312822 0.06804695 0.073618926 0.08552196
0.045661207 0.04433593 -0.11446511 0.030863296 -0.2072557 -0.10130699 0.010659603 -0.059945725
0.06486514 0.09864861 0.04284818 -0.15411536 -0.12939057 0.11730014 -0.11461771 -0.05856193
0.046923395 0.008073114 0.010238554 -0.07181362 0.17022759 -0.18594751 -0.17754577 0.027148595
-0.2766269 -0.13690604 -0.115408696 -0.302803 0.0012326865 -0.0111495145 0.00010585977 -0.068898626
-0.051942896 0.07826389 -0.013837535 -0.2005609 0.16492818 -0.022255613 -0.17074457 0.08429719
0.13871674 -0.10980673 0.045845076 -0.11634535 -0.12514406 0.21757641 0.16630994 0.108526565
-0.164602 -0.031532582 -0.12829182 0.15059923 0.09409225 0.04464436 0.14122398 0.01231083
0.14487657 0.1341625 0.22835633 -0.26280484 -0.1625864 0.08099421 0.16884843 0.014644799
-0.13662723 -0.0715331 -0.15459609 -0.09864738 -0.14610149 0.040676467 0.19027044 -0.10736476

spatial_filtering.senet.fc.2.weight f4 [16, 8]
00000000: 5f4a 81ba 25de e7bc ffb4 29ba 181b 2cb9
00000010: ad6c cbba 6269 133a 97f7 36bd bba4 eb3b
00000020: ed20 cf3c a187 89bb 140f 2a3d aebe c13d
00000030: 4484 46bb 841a 60bd 63ec 583c d6ca d1bd
00000040: 2c75 823d fb28 093e a35e 5f3d f1f9 703e
00000050: 636d 08be aca0 29be b707 473d 0e1f d63e
00000060: 1837 8bba 73de 2bba 5063 24ba f736 33bb
00000070: 7b2f c03b 3b98 69bc 3781 9bbd f07b a93d
00000080: ce15 893b 1776 3839 5c9e cc3c 42b3 88bb
00000090: 214a b93b 159b b83d 69d0 94bb 2476 bbba
000000a0: 711e 41be 198f 0abd 5f42 16bb a71d 613e
000000b0: 0763 0abe fd84 aabe 03ab 833e 0d70 993d
000000c0: 7e3f 6bbc 3800 993d 619d b63b 6592 9b3d
000000d0: 5359 6dbc 257f 913d 139a 39be fb1e 5cbe
000000e0: 9096 4cbc 92c2 9cbd 14c7 913a 08d6 96bd
000000f0: bc15 143e 6b97 52be 6163 44be 2cf9 2b3e
00000100: b1dc 7abc 4d27 76be c635 99bd 9ea5 323e
00000110: 6cc4 54be 4f25 dfbd 8228 e6bd 1c0c 8abe
00000120: 0083 0239 1e77 8cba 929f 0ebd 5bcf a6ba
00000130: 79d4 af3d 3043 323b 9162 963b bd26 6bbc
00000140: 9f14 813d 2bef debc 8264 1fbd d0b0 e53b
00000150: b077 efbc 31f0 c1bd 4087 053e 37a2 62bc
00000160: 7481 9339 b564 b9bc a5f0 0dba 5e59 ddbc
00000170: b689 a2bd 8a64 7cbd 3764 913d 3b67 173e
00000180: 5ebb 6a3d f67e 3cbe a1e4 35ba 6028 6d3d
00000190: 2767 94bd 58bc 77be d64c 313d 185d 093e
000001a0: 4538 59bb 6e15 bcbd eca4 bf38 a123 e4bc
000001b0: e705 af3d 81d0 d9bd c846 cdb9 1ef2 00bd
000001c0: 503c 99bc 337c fc3c d14b b039 90fb 1d3e
000001d0: 2b87 4bbd 4322 5bbe 95c4 8ebe 1748 3d3d
000001e0: 968a a4bc 2f1a 15be ae86 883d 0645 be3c
000001f0: 1900 903d 0294 42be 2b8c 49be 7f00 b5bc
-0.0009864083 -0.028304169 -0.0006473809 -0.00016413291 -0.0015520059 0.0005623308 -0.044669714 0.0071912683
0.025284255 -0.0041970764 0.041518286 0.094601974 -0.0030291239 -0.054712787 0.013239953 -0.10243766
0.06370005 0.13394539 0.054533612 0.23532845 -0.13322978 -0.16565198 0.04859134 0.41820568
-0.0010621278 -0.000655628 -0.0006270902 -0.0027345994 0.005865035 -0.014257486 -0.07593005 0.08275592
0.0041835075 0.000175916 0.024977855 -0.00417176 0.005654589 0.090139546 -0.004541446 -0.0014302176
-0.18859269 -0.033827875 -0.0022927744 0.21983968 -0.13514338 -0.33304587 0.2571641 0.07492075
-0.014358399 0.07470745 0.0055729602 0.07596282 -0.014486629 0.07104329 -0.18125181 -0.21496193
-0.012487069 -0.07654299 0.0011121952 -0.07365042 0.14461416 -0.20565574 -0.19178535 0.1679427
-0.015311406 -0.2403843 -0.074809596 0.1744599 -0.20778054 -0.10895788 -0.11238195 -0.26962364
0.00012446567 -0.0010716652 -0.034820147 -0.0012726592 0.08585448 0.0027200691 0.0045893868 -0.014352498
0.06302761 -0.027213654 -0.03891421 0.007009603 -0.029231876 -0.09469641 0.13039875 -0.01383262
0.00028134475 -0.022631029 -0.0005414582 -0.027020153 -0.079364225 -0.06161932 0.070991926 0.14785473
0.057307594 -0.18407807 -0.00069386704 0.057899833 -0.07246237 -0.24192941 0.043286167 0.13414419
-0.0033145112 -0.09183775 9.138309e-05 -0.02784902 0.08546048 -0.10635472 -0.00039153383 -0.0314809
-0.018705517 0.030820942 0.00033625824 0.15427995 -0.049689453 -0.21399789 -0.27884355 0.04621133
-0.020085614 -0.1456077 0.06666313 0.023226272 0.070312686 -0.19001773 -0.19682376 -0.022094963

spatial_filtering.bn.weight f4 [16]
00000000: 4b12 4b3f 558a 5f3f e6f8 7c3f b0bc 583f
00000010: 7cbc 4e3f af04 733f 3fe9 743f 69ac 733f
00000020: efbc 773f 16f7 523f 90de 793f 97cd 573f
00000030: f50f 5c3f 7ec5 613f bd2a 7b3f 7fb3 6f3f
0.7932479 0.8732045 0.9881729 0.84662914 0.80756354 0.9492902 0.95668405 0.9518495
0.96772665 0.82408273 0.9760523 0.8429808 0.8596185 0.88191974 0.9811209 0.93633264

spatial_filtering.bn.bias f4 [16]
00000000: 5ac7 13bd 6c62 9bbd dd61 a9bd 740c 78bd
00000010: 7ed4 02bd e5be e8bc d0c3 75bd ae5c ddbc
00000020: 39ea 60bd 9a84 d6bc 7dc0 a0bd 3845 55bc
00000030: b59f a33c 5477 40bb 1c02 f6bc a1a6 d5bb
-0.03607879 -0.07587132 -0.08270619 -0.06055875 -0.03194093 -0.028411338 -0.060001194 -0.027021732
-0.054910872 -0.026186276 -0.07849214 -0.013016991 0.019973615 -0.0029368 -0.030030303 -0.006520108

spatial_filtering.bn.running_mean f4 [16]
00000000: 51ac 96bd 987a b9bd 884b a53d 286d e9bd
00000010: 26f6 d3bb c4c1 6a3d 115d 51bd 8cc1 16bc
00000020: fc2f 7bbd 561d f1bc 68b6 b5bd 1c55 93bc
00000030: f4bb 153d 646c 4cbd 071e 84bd af09 33bc
-0.073570855 -0.09056586 0.08071047 -0.11397773 -0.006468552 0.057313696 -0.051114146 -0.009201419
-0.06132506 -0.029432934 -0.08872682 -0.01798492 0.0365562 -0.049908057 -0.0645104 -0.010927602

spatial_filtering.bn.running_var f4 [16]
00000000: 9662 f83c dbdf 623d 58a5 513d cf5b 423d
00000010: ea3a fd3c 128c 1d3d fe75 573d 37c9 5b3d
00000020: ac1d 0e3d f4f0 003d e051 c03c d631 f23c
00000030: 8093 c13c 06bd 193d 6f1c ba3c 9582 3a3d
0.030320447 0.055389266 0.051183075 0.047450837 0.030911881 0.03846366 0.05260276 0.05365869
0.034696266 0.03147979 0.023476541 0.02956478 0.023629904 0.037533782 0.022718636 0.04553469

feature_compression.depthwise_conv.weight f4 [16, 1, 1, 32]
00000000: aa64 b5bc c578 e23d b1df ddbd c97d b23d
00000010: d0eb b33a b664 bd3d ec07 703c 906c fa3d
00000020: dd85 c3bc 73af c9bc e579 cdbd de80 f73d
00000030: 6cf8 d5bd e791 263d c630 81bd debf d1bd
00000040: d72e 14bc 8555 073e a0fb e33d df07 cc3d
00000050: 816a 063d f901 aa3d db22 04be 3cc2 1a3d
00000060: 9905 15bd c63a 633d 4729 23be 2ab8 eb3c
00000070: 7567 b73a 991b ac3b a26e c7bd aac0 e23c
00000080: badf 2cbe 0962 bd3d 247b 2abe cc06 883c
00000090: ea33 b73d e4d3 ff3c d6d8 22be 6b31 2dbe
000000a0: 44f1 e6bd c14e 173d 358f cebd fff3 02bc
000000b0: 852d 023e 3d13 ce3d eab6 e03d 5240 3c3d
000000c0: 6c60 bf3d 1be1 b5bd 4143 e6bd 1725 b6bd
000000d0: 146e 6d3d d025 ea3c 56f1 1f3e 7fd0 8f3d
000000e0: a8c3 1e3e c96d babd 31bb 88bc f215 e2bd
000000f0: a3b2 183e aa25 793d 57a6 13bd d4a9 2c3c
00000100: deef 25be b8d1 9a3c 5e7b 0fbe 688a ccbd
00000110: 02a4 3dbe b51b b63c cec4 16be 1b89 11bd
00000120: 8649 123d 41e1 4abd 8512 4ebe 99b2 05bd
00000130: 298d f73b 6fd3 323c 3d74 8b3d d1b2 33be
00000140: 88cc 1a3c 12de 333d 1b06 1dbd c79d 4ebe
00000150: c4f6 e03d 4bcd 45bd bd04 d73d 7fba 16bc
00000160: 895b b63d 9ea3 7cbd 6e4a 093c 8b7b a8bd
00000170: 8a5e bbbd 0215 da3d 7f94 18be b77d 81bd
00000180: 730a b33d e118 103e 4676 1ebe 79ae 5d3d
00000190: 6cb3 07be dc06 0ebe 6dd7 48bd 1705 af3d
000001a0: cd59 f43c 11aa a83d 51bb 3e3d a8ea 953c
000001b0: 25e1 ef3d 02b1 37bd 5b4b b3bd 135d 873d
000001c0: 1ba8 5e3d d47b 11be 0f3e 123e 2456 81bc
000001d0: a906 e13c af61 74bd 8560 05be 82d1 57bd
000001e0: eb7b 07bd 6d48 41bd 75b0 c8bd 73c8 d9bc
000001f0: cbc2 7d3d 9c48 8dbd c194 e4bd b5f9 023e
00000200: bbc1 f9bc f360 943d 4cd6 43bc 671b be3d
00000210: 0d5a f63d 429d a93d c0f6 c93d 62b1 8cbd
00000220: 8bc3 963d 6139 efbc a9d1 c33d 93e1 dabd
00000230: 1355 993d 3c04 04be 0186 6ebd 36ea dfbd
00000240: 0940 983b 75d5 2bbd e900 343c 0038 94ba
00000250: fa77 23be 9851 cebc 2d62 1abe e22b babd
00000260: 95b3 ea3d 263f 1cbb af40 40bd 44bc 21be
00000270: 0f99 d33d eda1 a9bd 1437 ab3d 25e3 773d
00000280: 553f db38 4283 0fbe 268e 30bc 0ff8 64bc
00000290: 9a1a ddbd 6fc1 76bd f8d0 cb3c e439 babc
000002a0: 4f39 073c 3b60 873d cb16 a73d f871 08be
000002b0: c7b6 223e 4480 923d f23c a4bd 95f1 77bd
000002c0: 3116 23be 7e7f f8bb 13c6 1abe d8dc 20be
000002d0: 38d1 48bd 2c27 103e edb2 e8bd 3554 253d
000002e0: 150c 163e 6ad5 483d b060 12be 19ac 97bd
000002f0: ef33 133e c098 f7bd e0b6 10be cee7 fdbd
00000300: b2b3 4b3d 47a1 38bd 9b7b 4ebd d827 0fbe
00000310: f0fd 30be 5505 e0bd 2f8e c4bc 5592 2d3d
00000320: 7537 3cbc 56fd 21be f660 f5bc 63bc 83bd
00000330: af62 74bc cf8a a63c 4542 c53d c5f5 8bbc
00000340: 3ebb 1bbe e6cb c53d a190 c2bd 89a7 2e3d
00000350: 7ac3 3abe f5d3 14be 8e4b 6f3d 66c5 82bd
00000360: beea 0ebd 4dd7 fcbd 2c8f 72bd dd5e 3abe
00000370: 0f88 f5bd 8712 04be e4a9 90bd a672 d53d
00000380: 7ca8 023e cef7 a3bd 77d6 acbc b448 0bbe
00000390: c4fd 09bd 172c c7bd 2345 7dbd 6b11 943d
000003a0: 2b71 13bd 5d01 333d 5e05 9bbd 0848 11be
000003b0: 99fa 63bd 8d19 fc3c d72a d03d c758 b5bd
000003c0: 213e cf3c f397 cb3c 3ab6 0e3e 4e18 09be
000003d0: ce14 0b3e d98d 19bd 0391 4dbd 9619 95bd
000003e0: 2a8c 0bbd 0b77 b2bd 25c5 ed3d 76b3 0ebe
000003f0: 4c98 a33c 1e6a 15be 13aa fbbd eac7 18be
-0.022142727 0.11058191 -0.108336814 0.08715398 0.0013726894 0.09247725 0.014650326 0.12227738
-0.023867542 -0.024619794 -0.10033015 0.12085126 -0.10447773 0.040666487 -0.06308131 -0.10241674
-0.009044371 0.13216217 0.11131978 0.09962439 0.032816414 0.083011575 -0.12903921 0.037782893
-0.03638229 0.055475973 -0.15933715 0.02877434 0.0013992625 0.0052523133 -0.097378984 0.02767976
-0.1688222 0.09247214 -0.16648537 0.016604804 0.08945449 0.031228967 -0.15903029 -0.16913383
-0.112764865 0.03694034 -0.10085908 -0.0079927435 0.12712677 0.10062263 0.10972388 0.045959778
0.09344563 -0.08880826 -0.112432964 -0.08893793 0.057966307 0.028582484 0.15619406 0.07022189
0.15504324 -0.09102971 -0.016690822 -0.11039342 0.14911895 0.060826935 -0.036047306 0.010538537
-0.16204783 0.01889883 -0.14011905 -0.099873364 -0.18519595 0.022230009 -0.14723513 -0.035531145
0.03571465 -0.049531225 -0.20124252 -0.032641027 0.0075546694 0.0109146675 0.0680928 -0.17548682
0.009448178 0.043912955 -0.0383359 -0.20177375 0.10984567 -0.048291486 0.10498951 -0.009199738
0.08904178 -0.061679475 0.008379562 -0.08226689 -0.09148891 0.10648538 -0.14900397 -0.06322806
0.087422274 0.1407199 -0.15474805 0.05412147 -0.13252038 -0.13869804 -0.04903357 0.08545893
0.029827977 0.082355626 0.046565358 0.01830037 0.11712865 -0.044846542 -0.08754607 0.066095494
0.054359537 -0.14207393 0.14281486 -0.015788145 0.027468996 -0.05966347 -0.130251 -0.052690037
-0.03307716 -0.04718821 -0.097992815 -0.02658484 0.061953347 -0.06898615 -0.11161185 0.12790568
-0.030487886 0.07245054 -0.011952948 0.0928257 0.120288946 0.08281948 0.09861517 -0.068697706
0.073615156 -0.029202165 0.09561474 -0.10687556 0.0748693 -0.1289224 -0.058233265 -0.10933344
0.0046463055 -0.041951615 0.010986545 -0.0011308193 -0.15963736 -0.025185391 -0.15076514 -0.09090401
0.11460034 -0.002384135 -0.046936687 -0.15794474 0.10331928 -0.08282838 0.08360115 0.060519356
0.0001045453 -0.14014915 -0.010776078 -0.013975157 -0.107960895 -0.060243066 0.024879918 -0.022732683
0.0082534095 0.066101514 0.08158644 -0.13324726 0.15890037 0.07153371 -0.08019437 -0.060533125
-0.15926434 -0.0075835576 -0.15114622 -0.15709245 -0.04902765 0.14077443 -0.113622524 0.04036351
0.14653046 0.049031653 -0.14294696 -0.07405872 0.1437528 -0.120896816 -0.14132261 -0.12397729
0.049731918 -0.04507568 -0.050410848 -0.13980043 -0.1728437 -0.10938517 -0.02399358 0.04237588
-0.011487831 -0.15819296 -0.029953461 -0.06432416 -0.014916106 0.020329861 0.096317805 -0.017084965
-0.15208146 0.09658031 -0.09500242 0.042640243 -0.18238631 -0.1453398 0.058421664 -0.06385307
-0.034891836 -0.12345753 -0.05921857 -0.1820025 -0.11988842 -0.12897693 -0.07063654 0.10422258
0.12759584 -0.08006249 -0.021098359 -0.13601953 -0.033689275 -0.09725206 -0.061833512 0.07229885
-0.035996597 0.043702472 -0.07569383 -0.14187634 -0.05565891 0.030773902 0.10164421 -0.088548236
0.02529818 0.024852728 0.13936701 -0.13388178 0.13582155 -0.037488792 -0.050187122 -0.07280271
-0.034069218 -0.08714112 0.11609868 -0.13935646 0.019970082 -0.14591262 -0.122882985 -0.14920011

feature_compression.depthwise_conv.bias f4 [16]
00000000: f628 9b3d a4d0 6abe 5eb5 febd 5c7d 7ebd
00000010: 05e7 ddbb 1a02 ec3d 6a34 49bd 36d5 43be
00000020: 5bde 5d3d 0c3a 213d 5e72 18bd c0c1 a6bd
00000030: 7e9c b1bd 75f6 20be 4d2e 083d 8ffe b3bd
0.07576172 -0.22931153 -0.12436937 -0.06213127 -0.0067719244 0.11523838 -0.04912225 -0.19124302
0.054167133 0.039362 -0.037218444 -0.08142424 -0.08672427 -0.15719016 0.03324728 -0.087887876

feature_compression.pointwise_conv.weight f4 [16, 16, 1, 1]
00000000: 8f82 31bd f6f9 aabc 7af7 17be b3c3 873d
00000010: 0b0e 2a3e c4ff 13bd 77b9 89bd 783a adbb
00000020: 8550 47be 84cd c73d 3364 393e e3d3 dcbc
00000030: 117f 47be 5650 d03d 64c0 133e befc b0bd
00000040: 112b 9d3d 6eaa 5d3e 3012 c3bd 854c 1b3a
00000050: 0c3c 1bbe 78a9 053e 4e14 423e 5656 62be
00000060: 62eb 293c 7ddd 47be 1bc0 443e 09ea 3e3d
00000070: c291 29be a278 4a3e 37a4 50be ce0b 443d
00000080: 7764 1a3d 1356 773e 7dbd 023d 56be 10bd
00000090: 7ccf ef3d a740 78be 6921 9fbc 42a3 ad3d
000000a0: 6690 1a3e 1413 0a3e f46e 15be 97b2 7fbd
000000b0: 9d43 e2bd 3cee 4abe f3f9 303e 561c 8abd
000000c0: c4da a93d da45 3a3e 7c86 5bbe 5d5d 5ebe
000000d0: 4dd9 39be 5b2d 053e e89a e23d 779a 45be
000000e0: 04e2 c7bd 9822 fd3c 330b bfbd 73c8 593e
000000f0: 10fb 573e 6a1b 21be e561 13be df4b 933d
00000100: 8ad9 143e 88e5 063b 4930 3d3d 3149 6dbd
00000110: ba82 983c c1ec 5a3d 395e f7bc 01a4 f4bd
00000120: a3ad 393e 869b a8bd f3ef f7bd cb9e 2fbd
00000130: 8efb fcbd 4ed3 bcbd b5b2 77be 9360 00be
00000140: d0d9 2cbd feb3 b43c d0b3 1dbe 4fcc 663c
00000150: 8b4d f8bd 5025 21be f1da 84be 6707 993c
00000160: 563e 413e f8c7 19be cb2c ab3c daaa 243e
00000170: 550c da3d b92f b93d 1056 8abe c9ef 103d
00000180: 7065 48bd 3ec8 4ebe 93d1 35be 99af f2bd
00000190: 03c7 d13c 9aa6 27be 3f3b 71bc c6cb 2cbe
000001a0: 4c52 033e 4c89 88bd 81d6 8ebd 8d32 36bc
000001b0: a097 1f3e 9a5c 4fbe 6da4 0abe 425a 2cbd
000001c0: d6f6 68bd 554f 4abe abed e6bd 2d1d 64bd
000001d0: 8003 f33c b695 4d3e 3b38 6bbe 05cc c4bd
000001e0: 43f7 3fbc ea85 353d 50f9 7ebe 8461 5d3d
000001f0: 7193 1f3e 542e 983c dccf e4bd 099c 4cbe
00000200: 9bb9 19be e6ba c8bd 7e38 3dbe 09f8 c83c
00000210: 69ca cb3d 526d 3ebe e25a 753c 87f7 22be
00000220: 5baa 07be 8696 ddbd 282f 853e a1a1 ec3d
00000230: e72a 1fbd bde2 923d 8a09 a1bd 9011 8a3e
00000240: 1d69 cebd 198a fb3d 5a8f 07be 3a50 30be
00000250: 317e e53d 794b 62be 82c3 14be c4bf 2a3e
00000260: 4632 1a3e d1cb 15be 16b0 1c3e aaf3 5a3c
00000270: 95a6 023e 7cc8 5cbe 87d9 08bd bc79 2abc
00000280: c5a1 cabd 5ba0 1b3e ac61 8abe 9faf 753e
00000290: 6571 ab3d 32b7 ea3c 0dad 8ebd 9c9a cfbd
000002a0: 38f2 dbbc de43 84bd d672 9d3d 3ba6 6b3e
000002b0: 0970 253c 62c7 e9bd 80a8 9bbd 244a a6ba
000002c0: 542c 1d3e da0f 0fbd 9934 293b fe31 3e3e
000002d0: 22d1 173e 6e8f 48be a132 353e aa40 343d
000002e0: 3805 3d3e 7f99 d43d 00fc 053e de2a 973d
000002f0: 2e35 3ebe f399 01be 6a3c a73d 253f 5fbd
00000300: 5c63 12bd f21f da3d c075 d5bd 2acb 27be
00000310: 7425 1dbd df8f 5e3d 438a 193e 7917 303d
00000320: 8932 f1bd 05fb 4c3d 5d04 583e 2114 223e
00000330: aaba 85bd 2ff0 c7bd 85a2 2ebe 6d09 3b3e
00000340: 33ad 00be 9f32 1dbe 81d0 85bd 2674 a53d
00000350: 9bd7 3439 ed75 84bc 45e8 3fbe 001a 41bd
00000360: cf8d cbbc 7b56 04bd eae6 61be 2b63 86bd
00000370: d6be 82bc d72a 1dbe 227a 0cbe cfdb 62be
00000380: 30ce 89bd d101 18be 1eba 963d 19c1 963d
00000390: 4c41 07be 52dd febd 9399 e8bc 0e22 38be
000003a0: c92b 343e 407f 4b39 243d 553e 8e89 cebd
000003b0: 8853 8f3d e260 31be d4a4 87be 4beb 493d
000003c0: 1398 a9bd 6e1a e5bc deda 2cbe 9480 84bc
000003d0: 4e94 bbbb e06c 7f3d 6a76 373e 7e4c 2f3e
000003e0: b134 7dbe 6e2c dabc f661 ce3d 6c1c 2fbe
000003f0: a4e2 413d 98be 6cbe add4 3f3d 3bc1 f13d
-0.0433374 -0.020871144 -0.14840499 0.066291235 0.1660692 -0.03613259 -0.06724828 -0.005286511
-0.1946431 0.09755996 0.18104629 -0.026956504 -0.19482066 0.10171573 0.1442886 -0.08641957
0.0767423 0.21647045 -0.09524953 0.0005924183 -0.15159625 0.13052928 0.18953058 -0.22103247
0.010371061 -0.19518085 0.19213907 0.046609912 -0.16559508 0.1977258 -0.20375143 0.04786282
0.037693467 0.24153928 0.03191899 -0.03533777 0.117094964 -0.24243413 -0.01942511 0.084784046
0.15094146 0.1348384 -0.14593107 -0.062426176 -0.110480525 -0.19817442 0.17282848 -0.06743686
0.08293679 0.18190709 -0.2143802 -0.21715303 -0.181493 0.13005583 0.11064702 -0.19297205
-0.09759906 0.030900285 -0.09328308 0.21267872 0.21091866 -0.15733114 -0.14392813 0.07192206
0.1453611 0.0020583589 0.046188626 -0.05793113 0.018617023 0.053448442 -0.030196296 -0.11945344
0.18132643 -0.08232789 -0.121063136 -0.042876046 -0.12352668 -0.09219991 -0.24189265 -0.1253684
-0.04219991 0.022058483 -0.15400624 0.014086797 -0.12124165 -0.1573689 -0.2594829 0.018680288
0.18871436 -0.15017688 0.020895382 0.160808 0.106468834 0.090423055 -0.27018785 0.035384927
-0.048924863 -0.20193574 -0.17755727 -0.11849899 0.025607591 -0.16372147 -0.014723598 -0.16874608
0.12824363 -0.06666812 -0.06974507 -0.011120451 0.15585184 -0.20250168 -0.13539286 -0.042078264
-0.056876026 -0.19756825 -0.112758 -0.055691887 0.029664755 0.20076641 -0.22970669 -0.09609226
-0.011716667 0.044317164 -0.24899793 0.054048076 0.15583588 0.018576778 -0.111724585 -0.19981398
-0.15012209 -0.09801273 -0.18478581 0.024532335 0.09950716 -0.1859639 0.014975281 -0.15914737
-0.13248579 -0.10819726 0.2601254 0.11554266 -0.038859274 0.07172153 -0.078631476 0.26966524
-0.100786425 0.122821994 -0.13238278 -0.17218104 0.1120571 -0.22099103 -0.14527705 0.16674715
0.1505824 -0.14628531 0.15301546 0.013363758 0.12758859 -0.21560854 -0.033410575 -0.010405
-0.09894136 0.1519789 -0.27027643 0.23992775 0.08371238 0.028651807 -0.069666006 -0.10136911
-0.026848897 -0.06458257 0.07687919 0.2301263 0.010097512 -0.114149824 -0.07600498 -0.001268689
0.15348941 -0.034927227 0.0025818704 0.18573758 0.14825872 -0.19585964 0.17695095 0.04400698
0.18459022 0.103808396 0.13084412 0.07381223 -0.18574974 -0.12656383 0.0816582 -0.05450358
-0.035739288 0.10650624 -0.1042285 -0.16386095 -0.038365796 0.054336425 0.14994149 0.042991135
-0.11777217 0.05004408 0.21095414 0.15827991 -0.06529744 -0.09762608 -0.17054184 0.18265314
-0.1256607 -0.15351342 -0.065339096 0.08078794 0.00017246457 -0.016169513 -0.18740948 -0.047143936
-0.024847893 -0.032309037 -0.22060743 -0.065618835 -0.015960138 -0.15348373 -0.13718465 -0.22154163
-0.0672878 -0.14844443 0.07359718 0.07361049 -0.13208503 -0.12444557 -0.028393542 -0.17981741
0.17594828 0.00019406993 0.20824105 -0.1008483 0.06998354 -0.17322114 -0.2649294 0.04929666
-0.08280959 -0.027966704 -0.16880366 -0.016174592 -0.0057244664 0.06235969 0.17916265 0.17119023
-0.24727131 -0.026632514 0.10077278 -0.17100686 0.047335282 -0.23119581 0.046833683 0.11804434

feature_compression.pointwise_conv.bias f4 [16]
00000000: a175 9cbd 0b4b 023e 00fc 34bd c6e2 e5bd
00000010: b43d 543e d7a7 e13c d10f 4b3e 2f89 943e
00000020: 5273 a5bd b451 f5bd 6472 ee3d 30aa 30bd
00000030: 53a5 2abd 1c29 b43e cf3d 39be c366 46be
-0.076396234 0.12723939 -0.04418564 -0.11224894 0.20726663 0.027545853 0.19830252 0.29010913
-0.08078636 -0.11978474 0.11642912 -0.043131053 -0.04166157 0.35187614 -0.18089984 -0.19375138

feature_compression.senet.fc.0.weight f4 [8, 16]
00000000: 92d6 bf3d 68bf 503d c8aa b8bd ddbb 3cbe
00000010: c6eb 03bd e6bc d2bd a1ad 0f3c 1779 9c3d
00000020: f8d3 36be 60c6 19bd 747a afbb a0f2 113e
00000030: 7ad6 65bd 01a6 ca3d 2cb7 fd3d e74f 44be
00000040: e26d 42b9 da87 953e 0109 933d dd29 e83d
00000050: 2e02 8c3d 7c8b b03d 3520 843e 64d4 983e
00000060: c5a7 173e 72dd 2f3e b748 723e 3dff f2bc
00000070: 28c6 883e ba4f a73e b8d6 dcbc fa12 e0bd
00000080: 6a5a ccbd 4b28 1a3e 8280 5c3e 7458 173d
00000090: 2d57 6f3e b243 a63e e6ae 6b3e a4d0 2abe
000000a0: 58eb 7d3e a6d3 6b3e f827 583e ba5d d8ba
000000b0: 3ec0 2fbc 3e30 9e3d bbd0 033e f619 9fbe
000000c0: 3c04 3cbd c033 493e 150c d2bc a5be aa3b
000000d0: fccf bb3d bb0c 21be c3d5 ba3d 1b1d 9abd
000000e0: 9b5a 153c 8bc1 1cbe bd32 27bd 1d76 85b9
000000f0: 1813 d3bb af06 efbd 5505 dcbd 4556 dabd
00000100: f666 06be faf9 a1bb d0a8 393e 36a8 43be
00000110: a828 183e 5d64 46be 4c84 0bbe e093 2fbc
00000120: ebd0 70be ba98 cdbd 3364 4ebe 14a2 9abd
00000130: 3978 643d 38b4 1ebd 5a2b 09bd 301c 0cbe
00000140: 298e 6abb cf88 d1bb 4117 e63d dd46 60be
00000150: 2fc4 50bc fd47 f23c e428 8ebc 5ea3 6bbb
00000160: 3da9 f5bd dbbe b53c dd24 68bd d22c 153e
00000170: 2716 c6bd a706 a9bb 5c7d b6bd 6065 97bd
00000180: 7820 80bd cb2b 153e 1747 53be 7901 f43d
00000190: f442 033e 57bf fbbd 400d b83d a0bd d2bd
000001a0: 808a 043e e2aa 62be fc0c 9a3d 73f8 f2bc
000001b0: 49e6 fbbb bf61 1dbd 7103 37be 5667 e03b
000001c0: d73f 4cbe 53ac 92bd e8f3 4c3e 575d 3cbe
000001d0: 3453 1dbd ce87 c6bd 697d 923d 2d3c 2dbe
000001e0: f508 563d d227 92bd dc90 2fbe 09ea 7f3e
000001f0: 6c4b 47ba 32b4 603e 50d3 c0bd a3ab 3bbd
0.09367098 0.05096379 -0.09016949 -0.18431039 -0.032207273 -0.10289936 0.008769424 0.076402836
-0.17854297 -0.0375427 -0.0053551737 0.1425271 -0.056112744 0.09894944 0.12388453 -0.19171105
-0.00018542216 0.2920521 0.07179452 0.1133611 0.06836353 0.086203545 0.25805822 0.2984954
0.14810093 0.17174318 0.23660551 -0.029662723 0.2671368 0.32678014 -0.026957855 -0.109411195
-0.099781826 0.15054433 0.21533397 0.03694959 0.23373099 0.32473522 0.23015937 -0.16681153
0.24796808 0.23029956 0.21108997 -0.0016507425 -0.010726986 0.07724045 0.12872593 -0.31074494
-0.045902476 0.19648647 -0.025640527 0.005210715 0.09170529 -0.15727513 0.09122803 -0.07525083
0.00911584 -0.15308206 -0.040819872 -0.00025455738 -0.006441485 -0.11671197 -0.107432045 -0.10660986
-0.13125214 -0.0049431296 0.18130803 -0.19107136 0.14859259 -0.19374223 -0.13624686 -0.0107164085
-0.23517196 -0.10038896 -0.2015541 -0.07550445 0.055778716 -0.03874609 -0.03348861 -0.13682628
-0.00357903 -0.0063944827 0.11234904 -0.21902032 -0.012742086 0.029575342 -0.017353483 -0.0035955529
-0.1199517 0.022185734 -0.05667578 0.14567879 -0.09672194 -0.0051582637 -0.08910629 -0.073923826
-0.06256193 0.14567487 -0.20632587 0.119143434 0.1281851 -0.122923546 0.08986902 -0.10290074
0.12943459 -0.22135499 0.07522008 -0.029659485 -0.0076873642 -0.038423296 -0.17872407 0.006848256
-0.19946228 -0.071617745 0.20014918 -0.18394981 -0.038409427 -0.096938714 0.07152826 -0.16917486
0.052254636 -0.07136501 -0.17145103 0.24991621 -0.00076024863 0.21943739 -0.09415305 -0.045817982

feature_compression.senet.fc.2.weight f4 [16, 8]
00000000: c82d 233c a41c b73c ec86 e93c eb87 32bd
00000010: 4ea0 b5bc efcf 27bc f4ac 5f3e fdb3 a2bd
00000020: ed7f 223d d572 24be a31f 243e 8435 993d
00000030: e744 09be e9a5 c13c 2bc6 413d 6b6c a83b
00000040: d636 073e 23eb c1be a1c7 893d 68a2 c53c
00000050: 87b5 d83c 9389 713d 1d1a 46bd b972 9abd
00000060: 278a b63b 5f1a 493e e380 e6bd 7283 443d
00000070: f0a9 5d3a 6185 18bd c70a d33d 1f29 c7bd
00000080: 98f8 713e c9ae afbd 989c 113e 91ac bf3d
00000090: 766c 92be e819 4fbe c679 3a3e f732 21be
000000a0: f991 ec3d 78f1 56bb 63e5 283e f958 99bb
000000b0: 0a62 3bbe b582 443b c94a 0cbe 335f 123d
000000c0: dfc6 353e 4a18 293d cab5 253d 7077 663d
000000d0: 13d5 2cbe fa79 e2bc efba 483e 53c2 d53d
000000e0: 27bb ca3d 849f 5fbe 83a8 cebe fd33 273e
000000f0: f45d 3fbe 580d 423d 909e 1f3c b793 51be
00000100: b40d 203a c7ee f03b 4add e9bd 7b57 9a3d
00000110: f1a5 09be a078 313c da4a 793d 37a9 2cbd
00000120: 8fae 393e 058a 3d3e e586 fd3d 81f6 18be
00000130: 904f ae3d 0c46 19be cf2e b2bd cec0 31be
00000140: 1c63 e0bc 11d1 0b3e 15f6 323d c400 3d3e
00000150: e10d 1b3d ad44 1a3c 8766 cdbc 3e22 d13d
00000160: 2649 cc3d ea12 5bbd 4823 583e 9d98 f1bd
00000170: 5741 c73d 926d c2bd e2c2 80be a73f 393e
00000180: b203 94bc f5cc 4b3e b754 c63d 9324 ed3a
00000190: f047 adbc b35e 0fbc 13cd 713c b927 dfbc
000001a0: 8a0a 6d3e 747a a3be 0439 e0be f253 163d
000001b0: 75d9 afbe a4f8 8abe 77a9 96be b4f3 89be
000001c0: 0fa2 fb3d 7848 f03d 1af1 f63d e25b afbc
000001d0: 4b53 4c3c 5154 773d 538d fc3d 32b4 a23d
000001e0: c0cc 03be 35ca 76be 5e59 c8be 78dc 123e
000001f0: e437 2f3e e3c0 cdbd 2ad0 813e 6eff 73be
0.009959646 0.022352524 0.028506719 -0.043586653 -0.022171166 -0.010242446 0.2184332 -0.07944486
0.03967278 -0.1605943 0.16027693 0.074809104 -0.1340519 0.023638682 0.04730813 0.0051398776
0.13204512 -0.37874708 0.06727529 0.024125293 0.026453746 0.05896909 -0.048364747 -0.07541413
0.0055706683 0.19638966 -0.11255052 0.04797692 0.00084558036 -0.037236575 0.1030479 -0.0972464
0.23629987 -0.085782595 0.14219892 0.09359086 -0.28598374 -0.20224726 0.18210515 -0.15742098
0.115512796 -0.0032797735 0.16493754 -0.004679796 -0.18299118 0.0029985134 -0.13700403 0.03573532
0.17751645 0.04128293 0.04045657 0.05626625 -0.16878156 -0.027646054 0.1960256 0.10437455
0.09898978 -0.21838194 -0.4036294 0.16328426 -0.18688184 0.047376007 0.009742394 -0.20466505
0.00061055575 0.007352683 -0.11419161 0.07536217 -0.13442208 0.010831982 0.0608624 -0.042153563
0.18132995 0.18509682 0.12379245 -0.14937784 0.08511269 -0.14968127 -0.08700334 -0.17358705
-0.027391009 0.13653971 0.043691713 0.18457323 0.037855033 0.009415788 -0.025073303 0.10211609
0.099748895 -0.053484835 0.21107209 -0.11796687 0.097292595 -0.09493555 -0.25148684 0.18090688
-0.018068168 0.19902404 0.09684127 0.0018092565 -0.021152467 -0.008750605 0.014758366 -0.02724062
0.23148552 -0.31929362 -0.437935 0.03670115 -0.34345594 -0.27142823 -0.29426166 -0.26943743
0.122867696 0.11732572 0.12057705 -0.021406118 0.0124710305 0.060383145 0.12331643 0.07944526
-0.12871075 -0.24100573 -0.39130682 0.14341915 0.17111164 -0.10046556 0.2535413 -0.23827907

feature_compression.bn.weight f4 [16]
00000000: 3e68 663f 9bd1 683f 8c3c 5f3f ec5f 653f
00000010: ab6a 783f b909 763f 418b 7b3f 8252 7a3f
00000020: 8089 6b3f 903e 6a3f 4fec 693f c93d 6c3f
00000030: 9ecb 5e3f 4896 773f 657a 803f 69ea 7e3f
0.9000281 0.9094483 0.8720176 0.8959949 0.9703776 0.96108586 0.9825936 0.97782147
0.92006683 0.9150171 0.91376203 0.92281777 0.87029445 0.96713686 1.0037352 0.9957643

feature_compression.bn.bias f4 [16]
00000000: 5aa7 8dbd 939e 75bc 0ea6 eabd 141c ccbc
00000010: 3326 babc 80dd 433c 9a64 593b 91b9 36bd
00000020: 1cf0 f1ba 0fa6 5dbd 0455 ffbc 65a9 78bd
00000030: 376d a3bc b09f 87bd 06d0 2fbd 4867 94bd
-0.069166854 -0.01499142 -0.11457454 -0.024915732 -0.022723293 0.011954665 0.0033171535 -0.044610564
-0.0018458399 -0.054113444 -0.031168468 -0.060708422 -0.019949539 -0.06622255 -0.042922996 -0.07246262

feature_compression.bn.running_mean f4 [16]
00000000: 5e60 b9bc 25d9 473d cde1 e0bc af9e 2cbc
00000010: 6d9b 3b3e f06b 113d b633 533e d1cd 753e
00000020: 8e66 6abd b3f4 adbd 99d8 a63d 8a35 1cbd
00000030: 4108 88bd 2865 7e3e 6e4b 71bd dfbd e0bd
-0.02262896 0.04879107 -0.02745142 -0.01053588 0.18321009 0.035503328 0.20625195 0.24004294
-0.05722671 -0.08493938 0.081467815 -0.038136996 -0.06642199 0.24843276 -0.058909826 -0.10973715

feature_compression.bn.running_var f4 [16]
00000000: 509c e23b 4f63 133c efdc db3b 4cbf 813c
00000010: 56f2 013c 3162 8e3c f18c 533c bcbf 233c
00000020: 361f 513c 8d8f 4e3c bebd 323c 44d0 e03b
00000030: bbcb 1e3c 0a3e f23b 1a2c 373c f252 cd3b
0.0069156066 0.008995845 0.006709687 0.015838288 0.007931313 0.017380806 0.012912021 0.0099944435
0.012763789 0.012607467 0.010909496 0.0068607647 0.009692128 0.0073926495 0.011179948 0.0062659914
