logs/sscl_01171238/latest_w.pth (torch, 51736 bytes, 30 tensors)

temporal_filtering.conv.weight f4 [8, 1, 1, 128]
00000000: 6b6a 0f3e d056 113e 42f3 043e 952d 05ba
00000010: fca9 503d dd28 00bd 4678 133d f6eb 04bd
00000020: fc6a 08bd eff8 09bc 3545 c93c b956 9a3d
00000030: 3246 17bd f07f 9ebd 5094 79bd 466e 903b
00000040: 7e93 35bc 7561 ddbb 0916 ca3c 23af be3d
00000050: 0112 1f3e af55 3e3e a568 383e 8ebc fc3d
00000060: 8803 4e3a b0a6 24bd 636d 11bd 232d 95bd
00000070: b7e3 adbd 844e dfbd 1256 d5bd 7894 5c3d
00000080: 96f3 c73c 975f 8fbc 58d7 36ba 0d6b 4dbc
00000090: 6054 b83b fb63 f6bb 6cf4 b23c 1c48 06bd
000000a0: 949a 16be 5cd9 15be 1ab7 6abd 8e2d 363c
000000b0: 6ee0 afbd ccf2 ae3c 4ad3 f63c 7d39 71bd
000000c0: 17e9 20bd f2ee 7dbd 0f27 b1bd 982d 21be
000000d0: c16e edbd 5e45 02be c700 adbd ef8a 83bc
000000e0: 1d6b c73d 0015 613c 1720 a33d 999b 83bc
000000f0: ab6e b6bd f7a6 b7bd 64ff 1fbe 1a6b 25be
00000100: a8c2 e6bd 4721 1dbe 1edb a3bd 211d 173d
00000110: 050f 4a3d 5878 f4ba ef86 b13c 5f50 0f3d
00000120: 94ed 2e3d 03be 9d3d fd37 eabc 8266 4c3d
00000130: 0a53 84bc 3563 2b3d 6068 033c 73a0 4f3c
00000140: a167 af3c 0699 e33b bebf 563d 4000 1c3d
00000150: 2aea 22bd 9f98 b43d 02ba 2cbd c463 da3a
00000160: 0190 323d eafe 9abd c0e3 d1bc 6e52 4f3d
00000170: d57e 6e3d 5cd8 263e dc8e 393e 5854 973d
00000180: 726a f9bb 4f14 60bd a8ff 32bd 89de bdbd
00000190: fc5b 2fbe 81e3 b5bd 1b73 14be d4f6 c33c
000001a0: 8e35 c03c 97ad 513d cd32 fd3d 8aba 7a3d
000001b0: 1fcc 663d 421e 6f3d fe0f e93d 1ecf 47ba
000001c0: 025a a0ba 8a05 10bd b976 873c e133 103d
000001d0: 930e 10bd a87d 19bd b016 c23d 2514 933b
000001e0: 3120 f5bb e3fe 923d 78f0 223d 1323 a33c
000001f0: d7b2 913c 8e53 0fbd 408c 9f3c 0e5a 6f3d
00000200: 63b0 d03d 8934 913d a119 32bc 3fc6 22bc
00000210: bd48 19be 4728 08bb 6583 eabc 614b 193c
00000220: d508 1e3d cc31 c93d 5da8 943d 597e 6e3d
00000230: c98f 8b3c 89a3 96b8 f38b e33d d246 ca3d
00000240: 9fa6 2cbc 930c bc3d 0eb1 a33c c629 213d
00000250: 2e0f 373d 452f 223c 8160 963c 634e 9ebc
00000260: f16c 0cbe aeaf 99bd 2ec4 053c 5e7e 3abd
00000270: c871 c63c d4c3 8bbc 29c8 0e3d a328 9bbc
00000280: f4de 543d 2d87 40bd a412 4dbb a293 9c3d
00000290: f722 c43d ddcb 943d b729 24bc 33d1 e63c
000002a0: d11c 7cbd 1e8e 4cbd d1bf dfbc 0b07 96bc
000002b0: 1e72 d13c 8d60 87bd b737 b2bd 59f9 b0bd
000002c0: 980b 6cbd 002c 79bd a9dc 8dbd 037c d1bc
000002d0: 5b0e 253d 21c7 bf3d c7a3 673d df96 4eb9
000002e0: d201 773d baaf 7dbd 3df4 92bd c13a f6bc
000002f0: 985a 6cbd a92a b5bd b892 123c a1ed 5bbc
00000300: 3c1a 9ebc a734 2c3d e4c5 7a3c a7cf d8bd
00000310: 79cc 86bd 1d3e 22bd 7238 a0bc a4dc 8cbd
00000320: 1a5e 06bd e899 60bd c330 babd 62c0 71bd
00000330: 8140 463d 4a2b f23d a229 d83d 6a3a 963d
00000340: 5a6e e23d 1c12 b23c b550 d0bd ad8b 9dbd
00000350: 75f5 f1bd efab 74ba c96a 3f3d d897 093e
00000360: 1d93 1b3e 0c29 cd3c 9959 013d 8716 ddbc
00000370: ce82 0ebe 0d2f d1bd 6fea b2bd 136e b73d
00000380: 4ead 063e dcdb 063e 1fdb e73d 9360 e63d
00000390: 0653 bc3d 3f07 5bbc 701f 09be a21e 41be
000003a0: 1182 14be d649 88bd 1981 5a3d 1175 ca3d
000003b0: 59e4 cf3d 7c7b ee3b 3b16 443d 2142 c3bd
000003c0: 1bea 29be e7f4 00be 9416 26be 2e8b 933b
000003d0: 5a31 1fbd f9db a2bc 063d fd3d 1330 dd3d
000003e0: e9dc a03d 4903 eabb 53b3 18bd 88a3 93bd
000003f0: 6f17 a83c 3c17 bbbd 5743 5fbd 9b4f a83d
0.14005439 0.14193273 0.1298342 -0.00050803396 0.05094336 -0.03128897 0.036003374 -0.032451592
-0.033305153 -0.008421167 0.024569133 0.07536072 -0.036932178 -0.07739246 -0.060932457 0.004407677
-0.011082528 -0.0067560025 0.02466871 0.093107484 0.15534212 0.18587373 0.18008669 0.123406515
0.00078588026 -0.040198028 -0.03550471 -0.07284 -0.08490699 -0.109036475 -0.10416807 0.05385253
0.024408143 -0.017501635 -0.0006974838 -0.01253773 0.0056252927 -0.007519243 0.021845065 -0.032783613
-0.14707404 -0.14633697 -0.057303526 0.0111192595 -0.085877284 0.021356009 0.030130047 -0.058892716
-0.03928479 -0.061995454 -0.08650028 -0.15740049 -0.1159339 -0.12721774 -0.08447414 -0.01605746
0.09737227 0.013737917 0.07965105 -0.016065406 -0.08907827 -0.08967393 -0.15624768 -0.16154137
-0.112675965 -0.15344726 -0.08000778 0.036893014 0.04933073 -0.0018651588 0.021670787 0.034988757
0.04270704 0.077022575 -0.02859115 0.049902447 -0.016152877 0.041842658 0.00802049 0.012672531
0.021411719 0.006945732 0.052428953 0.038086176 -0.039774098 0.08818173 -0.04216958 0.0016661813
0.043594364 -0.07568152 -0.025621295 0.05061572 0.058226425 0.16293472 0.18120903 0.07389134
-0.007611566 -0.054706868 -0.043700844 -0.09270961 -0.17124933 -0.088812836 -0.14497034 0.023921408
0.023463037 0.05119094 0.12363205 0.061213054 0.05634701 0.058378465 0.113800034 -0.00076221104
-0.0012233856 -0.035161532 0.016536104 0.035205726 -0.03517015 -0.03747335 0.094769835 0.0044884854
-0.007480644 0.07177522 0.03978011 0.019914186 0.017785473 -0.034991793 0.019476056 0.058435492
0.10189893 0.070900984 -0.010870368 -0.009934961 -0.14969154 -0.002077596 -0.028627107 0.009356351
0.03858264 0.09823951 0.07258675 0.058225963 0.017036336 -7.183018e-05 0.111106776 0.09876789
-0.010537772 0.09182086 0.019981887 0.03934648 0.04469221 0.009898965 0.018356564 -0.019324487
-0.13713433 -0.07504211 0.008164449 -0.04553067 0.024224177 -0.017061152 0.034858856 -0.018940276
0.051970437 -0.047003914 -0.0031291628 0.07645346 0.095769815 0.07265446 -0.010019711 0.028175926
-0.06155092 -0.04994022 -0.027313145 -0.018313905 0.02556711 -0.066102125 -0.08702033 -0.08641309
-0.057628244 -0.060832977 -0.06926853 -0.025571829 0.040296894 0.09364153 0.056552675 -0.00019701895
0.06030447 -0.061935164 -0.07175491 -0.030057313 -0.057703584 -0.088460274 0.008946113 -0.013423354
-0.019299619 0.0420424 0.01530597 -0.105864815 -0.06581969 -0.039610017 -0.019558165 -0.06878021
-0.032804586 -0.054834276 -0.09091332 -0.05902136 0.04840136 0.11824663 0.10554816 0.0733536
0.11056204 0.02173715 -0.10171644 -0.07692657 -0.11814395 -0.00093334814 0.046732698 0.1343683
0.15192838 0.025043987 0.031579588 -0.026988281 -0.13917086 -0.10214052 -0.08736121 0.08956542
0.13152048 0.13169807 0.11321091 0.11248889 0.09195523 -0.013368427 -0.13390899 -0.18859342
-0.14502741 -0.06654708 0.053345773 0.0988561 0.10150976 0.007277904 0.047872763 -0.095340975
-0.1659321 -0.12593423 -0.1621955 0.0045026755 -0.038865425 -0.019880282 0.12365155 0.10800185
0.07854635 -0.007141505 -0.037280392 -0.072089255 0.020518987 -0.09135291 -0.05450758 0.082183085

temporal_filtering.conv.bias f4 [8]
00000000: a48e 1b36 6033 7ab8 6369 b8b6 2868 a336
00000010: 9771 55b8 5ab7 0438 c42f a736 262c 4bb6
2.3179828e-06 -5.965249e-05 -5.495896e-06 4.869904e-06 -5.0888946e-05 3.1642012e-05 4.9825485e-06 -3.0275055e-06

temporal_filtering.senet.fc.0.weight f4 [4, 8]
00000000: 810b 0080 da0c 0080 130e 0080 3c0c 0080
00000010: f208 0080 9111 0080 7b0d 0000 2a0e 0080
00000020: 7c0d 0000 0e0f 0080 a20c 0080 7d08 0080
00000030: ae0e 0000 fc0d 0000 470e 0000 3c11 0000
00000040: b98b 9034 432b 1a37 eec9 0933 f300 0fb5
00000050: 9b74 4a35 e549 9cb2 0646 3335 c699 4e35
00000060: 910e 0080 2711 0000 5f0a 0080 940e 0000
00000070: af0e 0000 c70a 0000 b50d 0080 b20d 0080
-4.127e-42 -4.61e-42 -5.049e-42 -4.389e-42 -3.209e-42 -6.302e-42 4.836e-42 -5.081e-42
4.837e-42 -5.4e-42 -4.532e-42 -3.045e-42 5.266e-42 5.017e-42 5.122e-42 6.183e-42
2.6923752e-07 9.189188e-06 3.2081452e-08 -5.327303e-07 7.542055e-07 -1.8194394e-08 6.6784594e-07 7.696475e-07
-5.225e-42 6.153e-42 -3.72e-42 5.23e-42 5.267e-42 3.866e-42 -4.917e-42 -4.913e-42

temporal_filtering.senet.fc.2.weight f4 [8, 4]
00000000: 5a0e 0080 f30c 0080 ad50 7d34 da0e 0000
00000010: ee0d 0000 ad0d 0000 c21c 0c32 a006 0080
00000020: 070e 0080 b40d 0000 96b6 0ab7 980a 0000
00000030: fe0d 0000 4705 0080 46ad 1bb4 cb0d 0080
00000040: 3210 0080 e40d 0000 4736 98b4 a40b 0080
00000050: 2e0d 0000 700f 0000 895c 89b3 bd0e 0000
00000060: 8b0e 0080 280d 0080 c73b ae37 590d 0080
00000070: dc0e 0080 9106 0080 c891 02b4 0e0e 0080
-5.148e-42 -4.645e-42 2.3591811e-07 5.328e-42 4.997e-42 4.906e-42 8.155611e-09 -2.377e-42
-5.032e-42 4.916e-42 -8.267953e-06 3.8e-42 5.02e-42 -1.893e-42 -1.4498536e-07 -4.948e-42
-5.81e-42 4.983e-42 -2.8351698e-07 -4.176e-42 4.728e-42 5.538e-42 -6.396392e-08 5.287e-42
-5.217e-42 -4.72e-42 2.0770252e-05 -4.788e-42 -5.33e-42 -2.356e-42 -1.2160228e-07 -5.042e-42

temporal_filtering.bn.weight f4 [8]
00000000: 0681 863f f576 843f 9fbb 853f 014d 733f
00000010: 1ce2 623f 7c81 563f bd14 843f 572c 573f
1.0508125 1.0348803 1.0447882 0.95039374 0.88626266 0.8379133 1.0318829 0.8405203

temporal_filtering.bn.bias f4 [8]
00000000: ef4c 23bf a63d 82be d131 11bf 1e32 92be
00000010: a266 e7be 0e56 a3be 97a6 06bf 7d97 473e
-0.63789266 -0.2543766 -0.5671664 -0.2855386 -0.4519549 -0.31901592 -0.52597946 0.19491382

temporal_filtering.bn.running_mean f4 [8]
00000000: 8bd1 9636 6dc4 f535 12c3 e534 81ee af36
00000010: 6add ceb6 2e92 d534 2ecf 8fb6 ce48 b135
4.4947424e-06 1.831109e-06 4.2796506e-07 5.243172e-06 -6.1650544e-06 3.97807e-07 -4.285851e-06 1.3208717e-06

temporal_filtering.bn.running_var f4 [8]
00000000: 3039 d63e b568 bc3e b611 d73e e65c 833e
00000010: 7b9f ef3e 075b a83e af7e 233f 21e5 153f
0.41840506 0.36798635 0.420057 0.25656813 0.4680136 0.32881948 0.6386518 0.5855275

spatial_filtering.conv.weight f4 [16, 8, 3, 1]
00000000: 6beb 643d 07b5 b6bd 2634 ef3d c56b 73be
00000010: 1583 09be 5944 53be 019e a13c 259c 223d
00000020: df45 86bd 3a5f 86bc 56cd 7bbd 07e0 f6bd
00000030: 544b 2abd 9e56 5e3d 11ab 05be a481 9d3d
00000040: 439d 483b 558f 353d a074 053e 732e 953c
00000050: 2c51 1c3d fe7e c0bc dd7b 943c eb8a 9fbd
00000060: 33a4 41bd 1269 f73d a858 b53d 4d57 db3d
00000070: 600c 3b3c 1f93 e2bd 17ce f3bc 4f48 41be
00000080: 0d73 29bd 5085 40be d301 6cbe ef99 edbd
00000090: 15dd 303e 5a27 63bd 59eb 953b dd7e 123c
000000a0: 0f2b eebd 2033 533d 17c8 b2bd 07b9 a83c
000000b0: 0af3 be3d 00a2 443d 8926 2e3b b6b5 36bc
000000c0: c3aa f1bd f818 f7bd dd37 1d3e e641 44be
000000d0: 0cb2 04be 4ce1 35be 4d6f da3d 6130 743d
000000e0: f1d5 303d 9e74 473d 3795 853d f1c2 5f3d
000000f0: 73b6 a1bd 755b bebd 1dbb 29be edbb a9bd
00000100: d14c 86be dbf9 0f3b 0911 c53d ece0 2d3e
00000110: 565a d03d 2d29 94bd 0bd3 b0bc 5792 44be
00000120: 3127 0b3d 7268 d53c eca1 2fbc 87df be3b
00000130: 7050 323d c9d6 15bd c2ba 90ba 326f f33b
00000140: 19bd 27be 052b 6dbe 19f3 13be 325f 95bd
00000150: db60 34bd 59d0 39bc 97a2 16bb 9e85 5d3e
00000160: b625 093e 2471 9e3d 7f15 0cbe f563 dcbd
00000170: e605 b5bd 5366 b73c afca 9b3c 66ed e23d
00000180: c31e d9bd 382a 16be 6dc2 943d 9a28 263d
00000190: 4ea2 143e 26ce a53d b0e1 823d faf7 4c3d
000001a0: bece d9bd 358b 63bd c729 60be dadb 1bbe
000001b0: e8c9 cebc dc33 7fbb 79ed a3bd 45c3 9abd
000001c0: 27af 5abc ac19 93bd 0f64 c93d 40ca e93d
000001d0: 0a0a fd3c 2330 f8bd 5411 e9bc 39ec 4cbe
000001e0: b5db 2bbe 17b1 babd 9549 50be 729f b93d
000001f0: 698a 07be 42e6 113d 2481 2f3e 2b83 a4bd
00000200: 857b a73b 7f6e 26bd 87f3 e33d 4f00 83bc
00000210: 4450 8bbd 879e 2cbe ffdb 2bbe 0d3f dd3d
00000220: ce36 e13d 4261 d83d e1f2 4c3d ba4a 10be
00000230: 9922 1abe dde9 0a3e 1c8e b53c 0685 ba3d
00000240: 4b2c a83c 1ae3 7b3d d2d0 893e feab 71be
00000250: e88a 7dbe ec73 233e 1684 06be 70f2 10bd
00000260: c67e dd3d 0e29 4fbc 89a1 8dbd adf6 27be
00000270: b145 a53d e001 233b 0c1a 7abd a88c 98bd
00000280: db85 abbc e05b e93d a609 81bd 9636 3abd
00000290: dd4d 543c 6038 f5bd b32b 08bd 3340 aebd
000002a0: fce8 5c3d 259b b2ba 5b84 1bbd c047 b4bd
000002b0: c037 f0bc 070a dbbd 0f6a 7a3e ecf6 163e
000002c0: e2ef 363d 8882 a2bc 7211 20bd 4d53 a5bd
000002d0: dd03 36bd 83fa 0fbe efbf 1cbe 5857 d73d
000002e0: 9ebb 04bd 3b64 81be af63 86bd 04a9 e1bd
000002f0: fc90 f5bd 22dd 5b3d 65d4 1c3e 2d5e 253e
00000300: deee 79be cd4e 42bd 4564 263e f137 29bd
00000310: a2ec f3bd 6d23 ef3c 5955 dbbc 83ac ccbb
00000320: dc48 14bd 86f8 c4bd a248 d5bc 8d28 243d
00000330: 1272 ca3d adcb f43d 38a3 b03d 7415 a8bd
00000340: b2d9 003e a639 b53d d80c 2a3d 7dea 623d
00000350: e0e7 de3c 5476 473e d84a c9bd 10c7 873d
00000360: 1c6b fe3c 3957 c13d c633 2dbc 93eb 013e
00000370: 41e7 a63c 80d1 adbd 9d6a b1bb fefe a7bd
00000380: 4d6c 69bd 455f 57be a3be e9bd 39e8 c6bc
00000390: 0c9e 463e c16d a63d 7bc2 7f3d bcab 263d
000003a0: 31e4 2dbd 25b8 05bd c423 17be e5a7 16bd
000003b0: 683a 8c3d 4836 ebbc 2f65 c53c 76e5 1a3d
000003c0: a718 31bd 9fac 72bc 3d35 213e 42f2 3bbe
000003d0: 29ee 77be 0764 213c b290 25be 7dc9 6bbd
000003e0: 67f2 eebc 5bc8 40bd 773d 8a3d 1214 2b3c
000003f0: ed72 0b3e 3079 133e bc2f 633b 2e79 d4ba
0.055888575 -0.08921247 0.116798684 -0.2377158 -0.1342891 -0.20631541 0.019728662 0.039699692
-0.065562956 -0.01640283 -0.06147512 -0.120544486 -0.041575745 0.054281823 -0.13053538 0.076907426
0.0030611313 0.044326145 0.1303277 0.018210625 0.03816335 -0.023498055 0.018125469 -0.077901684
-0.047275733 0.120805874 0.088548005 0.10710011 0.011416525 -0.11063217 -0.029761357 -0.1887524
-0.041369487 -0.18800855 -0.23047571 -0.11601626 0.17271836 -0.05545745 0.004575175 0.008941379
-0.116293065 0.05156243 -0.0872957 0.02059604 0.093237 0.048006058 0.0026573262 -0.011151722
-0.11800148 -0.12065309 0.15353341 -0.19165763 -0.12958544 -0.17761725 0.1066576 0.05961645
0.04317278 0.0486952 0.06522601 0.05462927 -0.078961276 -0.09294788 -0.16575284 -0.08287797
-0.2623048 0.0021968994 0.0962239 0.16980332 0.1017348 -0.07234416 -0.021585008 -0.19196449
0.033972923 0.02605078 -0.0107197575 0.0058249864 0.043533742 -0.03658179 -0.0011041986 0.007429027
-0.16380729 -0.23160942 -0.14448203 -0.07293548 -0.04403768 -0.011341178 -0.0022985095 0.21633002
0.13393292 0.077364236 -0.13680075 -0.10761253 -0.08839016 0.02238766 0.019017546 0.110804364
-0.106015705 -0.14664543 0.07263646 0.040566064 0.1451504 0.0809596 0.06390703 0.050041176
-0.10635136 -0.05555268 -0.21890937 -0.15220585 -0.02524276 -0.0038940823 -0.08004279 -0.07556776
-0.013347424 -0.07182631 0.09833538 0.11415529 0.030888576 -0.12118556 -0.028450646 -0.20011987
-0.1678303 -0.091158085 -0.2034057 0.09063615 -0.13236393 0.03561998 0.17139107 -0.08032831
0.00511116 -0.04063272 0.111304335 -0.015991358 -0.06802419 -0.16857348 -0.1678314 0.108030416
0.10996781 0.105654255 0.050036315 -0.14091006 -0.1505226 0.13565774 0.02216249 0.091074035
0.020528933 0.061495878 0.2691713 -0.23600766 -0.2476002 0.1596219 -0.13136324 -0.035387456
0.10815196 -0.012644066 -0.06915576 -0.16402693 0.08069933 0.0024872944 -0.061059996 -0.07448703
-0.02093785 0.11394477 -0.063006684 -0.045462213 0.012958017 -0.11973643 -0.0332448 -0.08508339
0.05393313 -0.0013626559 -0.03796802 -0.08802748 -0.029323459 -0.10695272 0.2445452 0.1474263
0.044662364 -0.019837633 -0.039079137 -0.08072529 -0.044437278 -0.14060406 -0.15307592 0.105147064
-0.03240549 -0.25271782 -0.06561982 -0.11018565 -0.11990544 0.053677686 0.15315397 0.16149206
-0.24407527 -0.04743843 0.16249187 -0.041313116 -0.119103685 0.029191697 -0.026774095 -0.006246151
-0.036202297 -0.096177146 -0.02603561 0.040077735 0.098850384 0.119529106 0.086248815 -0.08207217
0.12583044 0.08848886 0.041516155 0.055399407 0.027210176 0.19478732 -0.098287284 0.06629765
0.031056933 0.094404645 -0.010571426 0.1268752 0.020373942 -0.084872246 -0.0054143206 -0.08202933
-0.05698805 -0.21032436 -0.11413314 -0.024280654 0.19396228 0.08126403 0.06244133 0.040691122
-0.04245395 -0.032646317 -0.14759737 -0.03678121 0.068470776 -0.028712407 0.0240961 0.037816487
-0.0432364 -0.014811664 0.15742965 -0.18354133 -0.24211945 0.0098505085 -0.16168478 -0.0575652
-0.02916832 -0.047066074 0.06750005 0.010441797 0.1361806 0.14401698 0.0034665903 -0.0016210431

spatial_filtering.conv.bias f4 [16]
00000000: 7e47 a4b6 ee82 e4b5 dddd d5b5 f5a8 afb7
00000010: df04 bb35 aa62 49b7 4959 20b7 7e5e 6334
00000020: 045b 91b4 1523 1334 9592 60bb b692 d335
00000030: 8b41 d236 4207 bfb5 94e7 78b4 83c3 81b9
-4.8959037e-06 -1.7025429e-06 -1.5934307e-06 -2.0940302e-05 1.3934003e-06 -1.2003506e-05 -9.5575315e-06 2.1175399e-07
-2.7074577e-07 1.3703205e-07 -0.0034267057 1.5763424e-06 6.266118e-06 -1.4232721e-06 -2.3181047e-07 -0.00024750465

spatial_filtering.senet.fc.0.weight f4 [8, 16]
00000000: e1a4 dd32 eaeb f5b2 c833 ea33 2efa 03b4
00000010: 5033 1334 48b6 47b4 1105 f533 0873 29b4
00000020: 9700 38b3 79bd dcb2 b975 bd33 159d 07b4
00000030: 2d18 6331 dc49 c232 06cb 2833 bef9 a733
00000040: 6a2b e31c 9e83 ea9b 8f3c 9c9d 9ac4 f99d
00000050: 583f 079d 3dc5 dba7 bdf8 8b1d 0c58 a71d
00000060: b750 911b ea48 ce9b dca0 4c2b 3caf 221d
00000070: be7f 441c 9b56 861c a205 a49f 7c95 e89c
00000080: 1ff1 bf2f 2f36 3fad e3cf 4330 1674 94af
00000090: 980c 892e bc76 7cb2 26e9 95af 70c0 a72f
000000a0: 5441 422f 37a8 eeae ce92 9e2f 5ae2 ecaf
000000b0: 803b 9e2f 6dde 68ae f4f1 1a30 9771 9630
000000c0: e8d1 a1a1 9a6e 96a2 408b c920 718d 78a2
000000d0: a27a 8e1e 27bb 19a3 d269 85a1 8e9a f0a2
000000e0: 72fb 11a1 6b8e baa1 9392 d321 43bc c7a2
000000f0: 6d55 aa1f be79 a0a1 1eae 99a1 7521 9821
00000100: f1c3 0300 ee34 0100 165d 0080 9d48 0100
00000110: 9a82 0580 e235 a607 fa3a 0200 055e 0080
00000120: f557 0000 0e51 0080 742e ef18 da13 0280
00000130: 1791 0300 2fa8 0100 a9ec 6080 1d96 0100
00000140: 6365 10b7 0d19 1db7 49fc 6fb7 2331 09b7
00000150: 1ad9 49b7 6d36 9fb7 071d 1eb7 78f3 f6b6
00000160: 94a6 fa36 7fe9 53b5 36d2 68b8 c771 94b6
00000170: 932a 9536 68c8 b2b6 475c 63b7 c841 4db7
00000180: 299b 3729 5b0a 8ea6 ee03 0d29 9c7d c7ac
00000190: ed96 3e29 acca a6aa 63ef 8d29 304e d1a8
000001a0: 812a bca8 a907 0e29 1b6d 032b 8b77 7629
000001b0: d82f 02aa 9a10 9f28 19c8 8628 886f 31a8
000001c0: 9502 031a 6f32 c11a 7ad6 f019 5ecd da9a
000001d0: 3864 f419 21ce b99b f137 a21a f612 591b
000001e0: fe26 7c9a 5162 561a b27c de1a 2779 9119
000001f0: 5782 979a 123a 0e1a 7fc6 8e1a f55b 841a
2.5802764e-08 -2.8629035e-08 1.0905893e-07 -1.229134e-07 1.3709109e-07 -1.8599633e-07 1.1409623e-07 -1.57812e-07
-4.2841375e-08 -2.5697533e-08 8.822412e-08 -1.2630001e-07 3.304659e-09 2.261816e-08 3.9300197e-08 7.821971e-08
1.5032822e-21 -3.8797108e-22 -4.1355472e-21 -6.6113032e-21 -1.789985e-21 -6.0998557e-15 3.7050183e-21 4.429557e-21
2.4040399e-22 -3.412696e-22 7.2698596e-13 2.1531116e-21 6.5016063e-22 8.889763e-22 -6.946602e-20 -1.5391113e-21
3.4914024e-10 -1.0869124e-11 7.123601e-10 -2.7003527e-10 6.232276e-11 -1.4695328e-08 -2.7268604e-10 3.0513858e-10
1.7667406e-10 -1.0852868e-10 2.8844344e-10 -4.3088982e-10 2.878231e-10 -5.2948246e-11 5.636871e-10 1.0946221e-09
-1.0965346e-18 -4.0774685e-18 3.4142872e-19 -3.3685146e-18 1.5085555e-20 -8.333778e-18 -9.040441e-19 -6.521577e-18
-4.9460696e-19 -1.2641548e-18 1.4336714e-18 -5.4138388e-18 7.2139126e-20 -1.0874247e-18 -1.0413772e-18 1.0308777e-18
3.45797e-40 1.10823e-40 -3.3393e-41 1.17884e-40 -5.06028e-40 2.5008573e-34 2.04828e-40 -3.3728e-41
3.1553e-41 -2.9077e-41 6.1826958e-24 -1.90792e-40 3.27555e-40 1.52168e-40 -8.901105e-39 1.45686e-40
-8.606675e-06 -9.363762e-06 -1.430425e-05 -8.177277e-06 -1.20310815e-05 -1.8979621e-05 -9.424292e-06 -7.359715e-06
7.469973e-06 -7.8943407e-07 -5.5508885e-05 -4.423989e-06 4.4455023e-06 -5.3281437e-06 -1.3551739e-05 -1.2234268e-05
4.0768743e-14 -9.856036e-16 3.1311698e-14 -5.6698656e-12 4.2319382e-14 -2.9628155e-13 6.303185e-14 -2.323757e-14
-2.0890626e-14 3.1536978e-14 4.6691963e-13 5.472666e-14 -1.1562919e-13 1.7659746e-14 1.4963767e-14 -9.849658e-15
2.709225e-23 7.990441e-23 2.4902045e-23 -9.0494475e-23 2.5269487e-23 -3.073889e-22 6.709201e-23 1.7955946e-22
-5.2143876e-23 4.4333582e-23 9.2018504e-23 1.5041582e-23 -6.266271e-23 2.941182e-23 5.905051e-23 5.4742485e-23

spatial_filtering.senet.fc.2.weight f4 [16, 8]
00000000: f7f9 2f33 665e 919c f03a a729 989e 9722
00000010: f00b 0000 1ba2 aeb6 60b1 1527 3904 f29a
00000020: daa6 3632 57f1 a29b bbe8 7f29 43d9 da9f
00000030: 997e 0000 03b7 8336 1d26 b5a5 6210 651a
00000040: 788b 71b0 847b 219c 5a13 d52a 7af1 9e21
00000050: 6c12 0080 c304 84b6 cb05 e6a7 2bc6 de99
00000060: e586 b6b2 9ed3 d59c 4427 952a ab91 b9a0
00000070: 514b 0080 4f39 0a37 803e 3ca7 be5c 6019
00000080: 4a21 0532 34ad b79a 3b3b 0eaa 50c9 67a1
00000090: fd64 0000 67e4 cdb6 6e3d eaa5 a25b d71a
000000a0: c859 60b4 1c43 69af b737 7535 adc1 3da2
000000b0: ef52 4025 1940 1db7 fb58 1d2a 58c5 189c
000000c0: 6afe b631 f5c3 ee23 ce2d 3e2b 63ee dca0
000000d0: 6349 bc01 989e 93b7 d3c2 9f26 58e9 5499
000000e0: 16e7 ddb3 0da2 931c c4f4 59b1 6a2a 4aa2
000000f0: c668 0200 3154 8a36 2391 d9a8 da7b 7f1b
00000100: a8f0 2ab2 0b6e 141c e9d1 1eaa f8b7 0821
00000110: 3516 0000 4289 1736 6b19 9d27 dd4b ab9a
00000120: aa27 28b3 6e6d 2a9c a460 a5aa dd6d dea0
00000130: fc62 0080 fb32 6337 8ff4 d8a6 ba55 339b
00000140: 22aa 53b2 49f2 65b0 06c7 902b 8631 2ba1
00000150: 7d46 24a7 cb48 d8b8 1184 cf27 d605 8b1a
00000160: bf6f 6833 1f2b 871c 8d47 512b 18c7 b522
00000170: 9652 0080 d51d d3b6 b738 52a7 7ba9 1c9a
00000180: 0052 6bb0 5047 959a 3b04 0fab 3796 eea0
00000190: bd10 0080 a1df 5536 012f 40a6 8a51 2f97
000001a0: 5b57 3bb2 2fd0 959b 1b23 b1ab be66 9ca0
000001b0: 3231 0080 fcaf 03b6 c5af ae26 6624 511a
000001c0: d2ed 1e32 651d b51b a15b a8ab dda2 b9a1
000001d0: 4ebd 0000 6767 02b7 8500 fe26 3ef7 f899
000001e0: 1dc0 b833 b5bf 2524 5708 1d2c e51c c621
000001f0: 2b19 dd03 30cb 3fb7 0997 0b29 71c5 9f1a
4.0972704e-08 -9.619697e-22 7.426514e-14 4.109655e-18 4.282e-42 -5.2044757e-06 2.077406e-15 -1.00095676e-22
1.0631732e-08 -2.6956614e-22 5.6823236e-14 -9.268602e-20 4.5415e-41 3.9254096e-06 -3.1424321e-16 4.7369324e-23
-8.7873486e-10 -5.343007e-22 3.7849829e-13 1.0770415e-18 -6.609e-42 -3.934461e-06 -6.3844105e-15 -2.3034301e-23
-2.1248932e-08 -1.4149859e-21 2.6494963e-13 -3.1436614e-19 -2.7018e-41 8.238784e-06 -2.6124122e-15 1.1599258e-23
7.749188e-09 -7.596685e-23 -1.2632683e-13 -7.853228e-19 3.6228e-41 -6.1360656e-06 -4.0634156e-16 8.9069957e-23
-2.0894288e-07 -2.1215069e-10 9.135069e-07 -2.5716807e-18 1.6681444e-16 -9.372853e-06 1.3975272e-13 -5.054764e-22
5.3258207e-09 2.5887003e-17 6.7565127e-13 -3.74272e-19 6.91656e-38 -1.7597617e-05 1.1085649e-15 -1.10072665e-23
-1.0333149e-07 9.769533e-22 -3.171679e-09 -2.7398559e-18 2.21257e-40 4.1225217e-06 -2.4154783e-14 2.1133124e-22
-9.950021e-09 4.911132e-22 -1.4106046e-13 4.6322073e-19 7.966e-42 2.2580648e-06 4.360381e-15 -7.0846506e-23
-3.9151622e-08 -5.6389716e-22 -2.9376946e-13 -3.7680964e-19 -3.5509e-41 1.3542124e-05 -1.5054299e-15 -1.4834233e-22
-1.23205e-08 -8.365402e-10 1.0287055e-12 -5.8002597e-19 -2.2797784e-15 -0.000103132414 5.759723e-15 5.749848e-23
5.4118342e-08 8.944697e-22 7.435101e-13 4.9270947e-18 -2.9626e-41 -6.291763e-06 -2.91741e-15 -3.239695e-23
-8.560903e-10 -6.174017e-23 -5.0809677e-13 -4.0418172e-19 -6.005e-42 3.1869642e-06 -6.6677084e-16 -5.6648466e-25
-1.0904695e-08 -2.4784518e-22 -1.258635e-12 -2.6495417e-19 -1.7648e-41 -1.9622958e-06 1.2121318e-15 4.324959e-23
9.2508845e-09 2.9962934e-22 -1.196255e-12 -1.2579197e-18 6.791e-41 -7.772679e-06 1.7624931e-15 -2.574246e-23
8.603113e-08 3.5941054e-17 2.2315671e-12 1.342465e-18 1.2994991e-36 -1.1431795e-05 3.0995202e-14 6.607984e-23

spatial_filtering.bn.weight f4 [16]
00000000: 3978 353f 299c 5c3f 7272 663f a636 343f
00000010: 42b1 423f 37e3 613f f726 843f 90eb 4f3f
00000020: 33a5 333f 595e 1f3f 0eaa 8f3f ef23 443f
00000030: 3dbd 113f 1654 303f ceb4 693f 7431 963f
0.7088657 0.8617578 0.9001838 0.70395887 0.76051724 0.8823733 1.0324391 0.81218815
0.7017395 0.6225334 1.1223772 0.7661733 0.5692938 0.68878305 0.9129151 1.1733842

spatial_filtering.bn.bias f4 [16]
00000000: e3ec 17be 4f03 55be 6c81 80be 2918 22be
00000010: a24f 43be 0e39 7ebe 227b 95be e963 48be
00000020: 4fb6 9ebd 07a6 9ebd 3a76 a8be 8249 35be
00000030: 0cb5 08bd 02b8 e5bd 2403 78be 08c9 a3be
-0.14836459 -0.20802043 -0.2509874 -0.15829529 -0.19073346 -0.24826452 -0.29195505 -0.19569363
-0.07749616 -0.07746511 -0.329027 -0.17703822 -0.033375785 -0.11216737 -0.24219948 -0.31989312

spatial_filtering.bn.running_mean f4 [16]
00000000: 7915 a9bc 7fc2 ba3c f8d9 09bd b98b 7c3d
00000010: 7037 a6bc d10b 0c3e e60f 42bd 5b3b ab3d
00000020: 8f7d 443a 3a3e 50bb 6807 8fbd fdf1 113d
00000030: a5d7 a83c d2e8 87bc 246a 2bbc dd40 31ba
-0.020640122 0.022797821 -0.033655137 0.061656687 -0.020290107 0.13676383 -0.047378443 0.083609305
0.00074955163 -0.0031775371 -0.069838345 0.03563117 0.02061064 -0.01659051 -0.010462318 -0.00067616795

spatial_filtering.bn.running_var f4 [16]
00000000: c43b 183c fd0e 4b3c b96e 693c d8af 213c
00000010: c40d 5c3c f2bb 863c 6884 e73c 1efd 2f3c
00000020: 0cfc 853c d274 2d3c 7228 e13c ad6a 5f3c
00000030: 0e2e 573c d581 883c 8b36 473c f3d7 b03c
0.009291593 0.01239371 0.01424759 0.009868585 0.013431016 0.016447041 0.028261378 0.0107415
0.016355537 0.010586934 0.027485106 0.013636273 0.013133539 0.016663471 0.012159 0.021587348

feature_compression.depthwise_conv.weight f4 [16, 1, 1, 32]
00000000: e86e 173d b247 5a3c d77d 503d 4f83 013d
00000010: 0bfe 53bd e001 9a3d 69c2 e03d 4fa3 eb3d
00000020: 0757 f03d 1a0f 9f3c f368 a43c 85f1 da3c
00000030: 00c0 03be 4cf7 753c f250 31bd 2b03 43bd
00000040: 24a3 05be b3eb d43c 5c73 d4bd b048 0e3d
00000050: 95e5 673d af53 e53c 3a10 bfbd 33a8 4abe
00000060: 6ead 29be 745d 55bd 6fca 29bd c6d2 1ebd
00000070: f827 4c3d 13b2 283e 6d09 853d d476 0d3e
00000080: 36eb 8dbe 415f 9fbd 3a04 ecbc 35fc 223e
00000090: c4d9 0f3e c335 fa3d f2e1 38be 8dac 063d
000000a0: 630d 153e 5e2b 85bd 6ba3 01be 0074 c1bd
000000b0: 5a6e 13bd 9e79 99bb 5593 213d e5d3 a63c
000000c0: d678 a83d 71f4 e83d 68ff 6dbe 5c80 3bbe
000000d0: 8a01 933c 5c86 9a3d 7a1f a93b 1e72 57bd
000000e0: ae12 983d dc26 38bd 8a05 bc3c 3f08 173d
000000f0: 3fc8 a53c 327c 5d3d 007e 913d 39a4 6ebd
00000100: 1e8b dbbd 88ea 013c 9287 303d 8956 eabd
00000110: cade 2dbd 97fb 953b e09b 98bd bc3a 0c3e
00000120: b542 2f3e d844 49bd 36d9 c7bd 3a6c e93d
00000130: 73de e13d 77f3 513d c857 49be 7444 32be
00000140: c732 3ebe 59d4 f93d a803 e33c 1a72 a6bc
00000150: 6ce7 9f3b 52a5 4c3d daee b13c 3d6f 19be
00000160: 317b 18be 47d0 513c c80f 823e d04a 13be
00000170: c500 20bd 02b1 2cbd f073 cd3c 9816 4bbb
00000180: e336 843e a7af d7bb 4586 6cbd e02c 48be
00000190: 42b7 03be 43a7 82bd d010 06bd 98cb 0d3e
000001a0: 21bf fabc 048f 233d 9214 a53d 27e7 dc3d
000001b0: 1bd0 1d3e ca77 393d eb4d cabb 7633 54bd
000001c0: f2fc c23d 56d0 a2bd 8b06 493d 19d6 babd
000001d0: ff57 34be fcf6 bdbd e282 84bd 01f2 10bd
000001e0: 8111 393b a663 1fbd b07b f2bc 1894 49bd
000001f0: 3483 7ebd 7cd9 a5bb 9c49 8f39 2911 f03d
00000200: 5763 c23d 5ff9 5cbe 86d2 f0bd 51e6 393e
00000210: 934b 043c 465d 173e 3b3a 073e fac6 8dbc
00000220: d945 c4bd 45c4 4cbe 0d5b 263d 7d11 8fbc
00000230: e4d4 db3d 1c84 f2bd b064 4abd 20a8 e9bd
00000240: b8c2 4fbc af60 b1bd 2c47 80bd 4078 e93d
00000250: c0d2 ca3d 293c 6f3d 02d3 43bd 1c94 9b3d
00000260: 5af6 393d 2c50 84bd 953b 25be 01e1 d4bd
00000270: 67a8 52bd 82cc 9b3d f839 443e a877 503e
00000280: 0560 8fbd 1dde 82bd 1c43 fb3d b0af a3bd
00000290: 104d 91bc 62f1 c73d 5b5f 553c 6138 173c
000002a0: d463 633d c302 563d 6182 7c3d 0821 06bd
000002b0: b4b7 a5bd c56b aabc 3bcf dc3d c7fb 8ebd
000002c0: 815d 33be e878 5e3d de10 cfbd 1749 6bbd
000002d0: d1e8 8b3c dbb8 ba3a 9363 3abe 62a2 cebb
000002e0: 6f18 1a3e 4040 bfbd df7b c6bd f08e ea3c
000002f0: 3c3c 9d3d cfa2 6b3d 9323 2dbe 6527 acbd
00000300: f1fc 333d 2194 9abd a27e eb3d 27f9 d5bb
00000310: 3733 51be e2c4 e9bd 2bda 07be cf4d 7f3d
00000320: 1125 a23d 32c7 b63d bd38 34bd de96 1fbe
00000330: f5d1 b33c bf53 573c 0eec 1d3d 9e67 933c
00000340: 272a 2dbd 31ec f23d 0667 c73d b6df 01bd
00000350: df4c 95bd 1cb6 babd 1956 483d c85a ac3d
00000360: 31fb b5bc 9da6 9abd 75ae e73c b018 7abd
00000370: c214 29be 16a2 cfbd 2750 bb3c 9a21 2c3e
00000380: a279 943c f194 a33d 0ecf 67bd a3a1 23bd
00000390: 1d6c 563e fd60 8f3d 7dc8 e4bd f3ec f8bd
000003a0: 2673 3fbd 0bd8 afbc af13 423c 0f3c 35be
000003b0: c297 0cbe 0b7a c0bc a581 6f3d b70d f5bd
000003c0: c2f3 ae3c 97f3 553d fecd 003e 6a42 653c
000003d0: 999f f1bb 9843 dbbd 965e fdbd 00ce 4e3d
000003e0: 7119 b1bd e860 4dbd c80e e93d 12fc cd3d
000003f0: d092 1cbc 9593 2abe 436d 1dbd f80a 0c3e
0.036971003 0.013322758 0.05090126 0.031619366 -0.051755946 0.07519889 0.10974581 0.11505758
0.11735349 0.01941638 0.020069575 0.026726494 -0.12866211 0.015012573 -0.043290086 -0.047610443
-0.13050514 0.025991296 -0.103735656 0.03473729 0.05661543 0.027994005 -0.09329267 -0.19790725
-0.16570064 -0.052091077 -0.04145282 -0.038775228 0.049842805 0.1647418 0.064959385 0.1381486
-0.27718514 -0.0778184 -0.02881061 0.15916522 0.14047915 0.122172855 -0.18054941 0.0328794
0.14555888 -0.06502412 -0.12659995 -0.09445953 -0.03599391 -0.0046836874 0.039447147 0.020364711
0.082261726 0.113747485 -0.23241961 -0.18310684 0.01794507 0.07545158 0.005161223 -0.052599065
0.07425438 -0.044958934 0.02295186 0.0368731 0.020237086 0.05407352 0.07104111 -0.058262084
-0.10719894 0.007929452 0.04309804 -0.114422865 -0.042448796 0.004577111 -0.07451606 0.1369428
0.1711529 -0.04913792 -0.097582266 0.11397596 0.11028757 0.051257577 -0.19662392 -0.17408925
-0.18574058 0.12198705 0.027711704 -0.02031808 0.0048798826 0.04996235 0.021720339 -0.1498384
-0.14890744 0.012806005 0.25402665 -0.14384007 -0.039063234 -0.042160995 0.025079697 -0.0030988809
0.25823125 -0.0065822187 -0.057745237 -0.19548368 -0.12862876 -0.06379559 -0.032730877 0.13847196
-0.030608715 0.039931312 0.08060564 0.10786276 0.15411417 0.045280255 -0.0061738393 -0.05180689
0.09520902 -0.07949893 0.049078505 -0.09122867 -0.17611693 -0.09275624 -0.064702764 -0.035387043
0.0028239193 -0.03891339 -0.029599994 -0.0492135 -0.062136844 -0.0050613265 0.0002732993 0.11722023
0.09491604 -0.21579503 -0.11758904 0.18154265 0.008074659 0.14781675 0.13205807 -0.017306793
-0.09583635 -0.19996746 0.040614177 -0.017464394 0.10733965 -0.11841604 -0.04941243 -0.114090204
-0.012680702 -0.08661019 -0.06263575 0.11399889 0.099034786 0.058406983 -0.047808655 0.07596609
0.045400955 -0.06460604 -0.1613601 -0.103944786 -0.051430132 0.07607366 0.19162738 0.20358145
-0.07000736 -0.06390021 0.122686595 -0.07992494 -0.017736942 0.09762837 0.013023223 0.00922975
0.055515125 0.052248728 0.061647777 -0.032746345 -0.08091679 -0.020803342 0.107817136 -0.069816165
-0.17516138 0.054314524 -0.10110639 -0.05744275 0.017078789 0.0014245765 -0.18202047 -0.0063059786
0.15048383 -0.093384266 -0.09691595 0.028632611 0.076775044 0.057528313 -0.16908102 -0.084059514
0.043942396 -0.075477846 0.11498763 -0.0065299454 -0.20429693 -0.114145055 -0.13266818 0.062330063
0.07917226 0.08924712 -0.043999422 -0.15584895 0.021950701 0.013142525 0.038555197 0.017993744
-0.042276528 0.11861456 0.09736447 -0.031707488 -0.072900526 -0.09116766 0.048910234 0.08415753
-0.022214504 -0.0755131 0.02828143 -0.0610587 -0.16511825 -0.10138337 0.022865368 0.16809693
0.018124405 0.07987393 -0.056593947 -0.03994907 0.2093968 0.07000921 -0.111710526 -0.121545695
-0.046740673 -0.021465322 0.011845513 -0.17698692 -0.13729766 -0.023495695 0.058473248 -0.119655065
0.021356467 0.05223426 0.1257858 0.013992885 -0.007373762 -0.10706252 -0.123715565 0.050489426
-0.08647431 -0.050141245 0.113797724 0.10057844 -0.009556487 -0.1665786 -0.03843428 0.13676059

feature_compression.depthwise_conv.bias f4 [16]
00000000: 9b39 3236 f11a a6b6 0fad 99b5 a35b 7db3
00000010: acce a8b5 e7be 4fb5 ea07 09b5 49b0 21b6
00000020: 6d0a 1e36 0870 58b6 8979 8e35 edf4 46b6
00000030: 2f02 5533 1011 54b6 bc3e 4ab6 8d83 0936
2.6557598e-06 -4.950322e-06 -1.1449755e-06 -5.8989496e-08 -1.2577125e-06 -7.739131e-07 -5.1047994e-07 -2.409348e-06
2.3549903e-06 -3.225172e-06 1.0615196e-06 -2.9646865e-06 4.9594913e-08 -3.1600393e-06 -3.0136862e-06 2.0491163e-06

feature_compression.pointwise_conv.weight f4 [16, 16, 1, 1]
00000000: e7c5 62bd 4be2 98bd 734a 08be 9ebc 753e
00000010: 5dec 053e ccce edbc 8c81 7abd eeda 87bd
00000020: 0da0 26bb b21b 283e 260a 9e3d adbe 213c
00000030: e090 f3bd 8e28 fbbc bacd 1ebc 09e7 89bd
00000040: 6cf3 c73d 293d afbd 9084 22bd 0e11 9ebd
00000050: a41e 20be e7f6 7cbd dea1 223e 5747 35be
00000060: ae2e 08bd fee5 04be 85a8 633d 44c4 373e
00000070: 72fd 6fbd eec9 8f3d 31ce 83bd 9d1a 6b3d
00000080: 30a0 393e 9ff5 7ebc 1340 973c 511e db3b
00000090: 4aba 103e 568f 463b 1511 0bbc 3b7f 2b3d
000000a0: de1d 1d3e 931b f33d 8ddd c73d d910 36bd
000000b0: 7356 46be 01bb 43be b23f 283e 9431 a1bd
000000c0: 385d babd 16c2 82bd f1af f1bd 14d5 9dbd
000000d0: 5b2b 63be d506 333d 2172 c8bc e6af 4ebd
000000e0: 8943 04bd f370 ebbd 711e 8bbd 5b0e bf3d
000000f0: 3b68 d23d 2e01 09be 9ce7 10be d507 683d
00000100: f8aa f73d 72e2 44be fcfc 0f3d 407d 243d
00000110: 29ac 053e fe69 5f3d 0e8f 073c 7b20 83bd
00000120: cdc6 433e 4d80 38bd be12 60bd aa5a 43be
00000130: b83e 0cbe 5335 82bd c5b1 96bd 473d a6bd
00000140: dac0 e5bd 9985 cabd 6c6a 85be 834d 093e
00000150: f81b fdbc 5872 8abd dcef 0fbe e63f 27bd
00000160: 30d9 bdbc 58d2 153d a36c 63bc ee59 3f3d
00000170: bfaf fabc 9381 0fbc 465f afbd a6a0 3fbd
00000180: e5fb 8fbb 54d1 f7bd 0ac8 5ebd cd68 2ebd
00000190: f3f4 ae3d f75b aebd d86d a7bd 58da 18be
000001a0: 55c5 2f3e 3fb5 32be 1e7a c23d 5b25 babd
000001b0: a78c 223c f983 26be 30ed 1fbe be1c 6e3c
000001c0: e55b c4bd f279 22be 357b 5cbe 9b26 9b3d
000001d0: bcff 863d 8907 ac3d 49bf dfbd 682c 7cbd
000001e0: 35ac 7f3d d26b 1b3c 1a85 1abe 802a 66bc
000001f0: fddb f9bb cd5a 8139 ee1f 05be bbfd 29be
00000200: 5d99 723d 5ceb c8bc 7e63 d4bd e0e8 233c
00000210: 3633 26be 8f11 4dbe fd0c 983d cfdf 4dbe
00000220: e9b0 ea3c 1fa8 2bbe e38c db3d 72c6 673d
00000230: 4e1f b7bc bb8a 9fbc 5e5c f4bd 2c3a ca3d
00000240: 41d2 503c ea3a e5bd 16b8 76b9 66fe 2bbd
00000250: 1ad6 603e 7050 1bbd e46c 2b3c 1519 3dbd
00000260: ac28 163e 9fae 36be 0432 a03d 3e75 a1bd
00000270: f823 5fbc a521 31be be23 f0bd 7649 babc
00000280: 1609 29be 9bac 86bd f35f 63be 3dc8 f93d
00000290: 5f88 cd3d d29a 14bd 7fe7 09be 3282 b2bd
000002a0: 6d4a b2bc 3b98 76ba efb2 d5bc 04d1 853d
000002b0: f69a 44bc 1882 333c ac01 d5bd 2eef 85bd
000002c0: 82fe d33d 4124 18be 9f40 73bd 5d82 dc3d
000002d0: 9ba1 433d 961e 3bbe 0f03 ddbc ac57 cabd
000002e0: ce66 203e 2f17 d3bd 11a2 043e ea88 57bd
000002f0: 49bc a6bd 4ff8 babc 7621 bcbd e7f4 6e3d
00000300: 3b2e aa3d be81 253c 5033 81bd a9f7 bdbd
00000310: ee6e e4bd 8a70 65bc f7f8 733e d8b8 72bd
00000320: 3860 38bd 1622 83bd 911b 4d3d 4703 813e
00000330: 408f b5bd 4004 163c be2f 90bd 0f5b 7a3d
00000340: 85a8 84bc 00b3 fabd 8477 bebd 18b3 fb3d
00000350: 4278 0b3e 4743 843d d727 c7bd 4f9f f9bd
00000360: dd58 803d 859a 423d 4617 48be f6e7 49bd
00000370: 3147 cbbd 32ba 0abd 2edf 97bd b75d 01be
00000380: 9b49 b6bc 958d f8bd 2224 3fbd 4148 febc
00000390: fc23 3dbd f862 1bbe 15d9 0dbd 4cca 3cbe
000003a0: da33 113e 10f5 33be 329d e33d e793 c3bc
000003b0: da6a c4bc b431 21be 9d2a 0dbe fd50 a53d
000003c0: 7ce4 86bd 1e5d e7bd b921 d9bd c903 b5bd
000003d0: 3f95 ec3c 5712 e53c d65a 8f3d c6e8 b53c
000003e0: 2122 23bd 7bc1 26be e4be ef3d 49ec 0abd
000003f0: d6cd 3d3e e1d5 49be f981 d0bd 4c2c 7b3d
-0.055364516 -0.07465037 -0.1330965 0.23997733 0.13078447 -0.029029272 -0.0611587 -0.066335544
-0.0025424988 0.16416815 0.077167794 0.009872121 -0.11892867 -0.030658986 -0.009692604 -0.067335196
0.09763226 -0.08556587 -0.039677203 -0.07718097 -0.15636688 -0.061758902 0.1588206 -0.17702995
-0.033247642 -0.1297836 0.055580635 0.17945963 -0.058591314 0.07020937 -0.06435812 0.057398427
0.18127513 -0.01556149 0.01846317 0.0066869636 0.14133564 0.0030297837 -0.008487959 0.041869383
0.15343425 0.11870494 0.09759054 -0.04444966 -0.19368915 -0.19114305 0.16430548 -0.078707844
-0.09099811 -0.06384675 -0.11801136 -0.07706657 -0.22184508 0.043707687 -0.024468483 -0.05046072
-0.03229097 -0.11496153 -0.067929156 0.0932891 0.10273787 -0.13379356 -0.14150852 0.056648094
0.120931566 -0.19227007 0.035153374 0.04015851 0.13053955 0.05454444 0.008273853 -0.064026795
0.19118805 -0.045044232 -0.054705374 -0.19077554 -0.136958 -0.06357827 -0.073581256 -0.081171565
-0.11218424 -0.09888763 -0.26057756 0.13408475 -0.030897126 -0.067600906 -0.14056343 -0.040832423
-0.023174852 0.036577553 -0.0138808815 0.046716623 -0.03060138 -0.00875892 -0.08563094 -0.046784066
-0.004394042 -0.12100473 -0.05438999 -0.042580415 0.08542814 -0.08513635 -0.08175248 -0.14927042
0.1716512 -0.17451952 0.09495948 -0.09089156 0.009921229 -0.16261281 -0.15617824 0.01453322
-0.0958784 -0.15866831 -0.21531375 0.07575723 0.06591746 0.08399875 -0.109251566 -0.061565787
0.06242009 0.009486156 -0.15089837 -0.014048219 -0.0076251016 0.0002467245 -0.13000461 -0.16600697
0.05922829 -0.02452629 -0.10370539 0.010004252 -0.16230473 -0.2002623 0.07424352 -0.20104907
0.02864881 -0.16763352 0.107202314 0.056585737 -0.022353794 -0.019475332 -0.1193168 0.09874377
0.012745441 -0.111928776 -0.00023528966 -0.04199066 0.21956673 -0.037918508 0.010462973 -0.0461665
0.14663953 -0.1784005 0.0782204 -0.0788369 -0.013619415 -0.1729799 -0.11725567 -0.022740107
-0.16507372 -0.06575891 -0.2220457 0.121963955 0.10035776 -0.03628046 -0.13467215 -0.08716239
-0.021764005 -0.00094068394 -0.026086299 0.06534007 -0.011999836 0.01095631 -0.104007095 -0.065397605
0.10351278 -0.1485758 -0.0593878 0.10767052 0.04776154 -0.18273386 -0.026978998 -0.09880003
0.15664217 -0.10307156 0.12952448 -0.052620806 -0.08141381 -0.02282348 -0.0918607 0.058339026
0.08309599 0.010101734 -0.06308615 -0.09275753 -0.11153971 -0.014003882 0.23825441 -0.059258312
-0.045013636 -0.06402986 0.050075117 0.25197813 -0.088652134 0.009156287 -0.07040356 0.061121996
-0.016193638 -0.12241173 -0.093001395 0.12290019 0.13620093 0.06458145 -0.09724396 -0.12188589
0.06266949 0.047510643 -0.19540128 -0.04929348 -0.09925688 -0.033868976 -0.07415615 -0.12633406
-0.022251895 -0.1213638 -0.04666532 -0.031040313 -0.046176895 -0.15174472 -0.034630854 -0.18436545
0.14179936 -0.17573953 0.11113967 -0.023874236 -0.023976732 -0.15741616 -0.13785787 0.08072088
-0.06586549 -0.112970576 -0.10602135 -0.088386126 0.02887976 0.027962847 0.069997475 0.022205722
-0.03982747 -0.16284744 0.11706331 -0.033916745 0.18535551 -0.19710495 -0.1018104 0.06132154

feature_compression.pointwise_conv.bias f4 [16]
00000000: d92f 1eb7 b5c7 0cb6 9e6c 5536 53b0 d2b5
00000010: b369 2e37 d388 b334 565d a0b6 4a49 c5b5
00000020: 154c 3b36 3966 24b5 8228 4436 c29d 1d37
00000030: 17f8 4735 8653 d1b5 6185 3336 9a1a 8135
-9.428674e-06 -2.097787e-06 3.1802697e-06 -1.5697536e-06 1.0395818e-05 3.34409e-07 -4.7792373e-06 -1.4698974e-06
2.7909457e-06 -6.1243514e-07 2.9229855e-06 9.39466e-06 7.4494295e-07 -1.5596022e-06 2.6750715e-06 9.618991e-07

feature_compression.senet.fc.0.weight f4 [8, 16]
00000000: bd07 0000 e109 0080 4a0a 0000 bf08 0000
00000010: 4706 0000 ba06 0000 e60b 0000 e507 0000
00000020: 5b00 0080 5108 0000 e706 0000 6a0a 0080
00000030: 7a09 0000 0c0c 0080 9f0a 0000 e00b 0080
00000040: 14f4 942b a266 f82b 0e4a 2eab c886 2329
00000050: f4d3 4bab 025c 6e2b e0be ae2b 0c14 dfab
00000060: 1fb3 5d2c 9968 322a c889 1e2b 9a80 d32b
00000070: d70a 752b b063 d7ab 63c5 1b2c d935 022c
00000080: f997 85ad 8617 e22d 2801 d5ac 2e0e 442d
00000090: 5b65 dbac 7303 89ad 6d2e 69ad d0e2 90b0
000000a0: 3816 452d c036 a52c bfc2 e7ad 7bc4 862d
000000b0: f860 422e 0cec 1331 bcf7 862c 1f32 e4ad
000000c0: c508 0080 5809 0000 210a 0000 e908 0080
000000d0: 4704 0080 d008 0000 0f04 0000 7c02 0000
000000e0: 430c 0000 5008 0000 9d0a 0000 fd0c 0000
000000f0: 6e0d 0080 100b 0000 ae0c 0000 2500 0080
00000100: 02c7 0c91 9d73 7e11 dd34 5490 6a3a c910
00000110: 4d0f 0d10 b369 bb0e b637 9511 7aef 2714
00000120: b675 a211 a8b0 1f11 47ed df0f 6473 b311
00000130: 2aab 1511 dbd9 c516 7872 ad11 0282 3b10
00000140: f408 0000 2906 0000 ee0d 0080 450a 0000
00000150: 1709 0080 fc0d 0000 c300 0000 aa09 0000
00000160: 3308 0000 3c0c 0080 a80b 0000 0b08 0080
00000170: 910c 0080 1707 0000 900a 0080 be0c 0000
00000180: e10d 0080 a705 0080 360e 0080 4f0a 0000
00000190: 400a 0000 b60d 0080 bc0d 0000 570a 0000
000001a0: fc0d 0000 c400 0000 fd05 0080 b202 0000
000001b0: e30d 0000 2d0a 0000 5c0c 0000 c80d 0000
000001c0: 6e3c 009c 078b e41c b630 cc9a cb2a 0b1c
000001d0: 35fb 161c 737e 699a 0cac f51c 61d9 1ca0
000001e0: b597 0b1d 8d51 931c 11d9 d11a 5ffd f81c
000001f0: e750 b51c 991f b822 228d 1e1d da10 651b
2.776e-42 -3.544e-42 3.691e-42 3.138e-42 2.252e-42 2.413e-42 4.268e-42 2.832e-42
-1.28e-43 2.983e-42 2.476e-42 -3.736e-42 3.4e-42 -4.322e-42 3.81e-42 -4.26e-42
1.0583778e-12 1.7649946e-12 -6.191999e-13 3.6310175e-14 -7.241423e-13 8.468227e-13 1.2416422e-12 -1.5850667e-12
3.1505421e-12 1.5845865e-13 5.6324086e-13 1.5028146e-12 8.705653e-13 -1.5304338e-12 2.2136396e-12 1.8504003e-12
-1.5187839e-11 2.5703672e-11 -6.0539525e-12 1.1144459e-11 -6.235607e-12 -1.5576629e-11 -1.3254825e-11 -1.0541843e-09
1.1203087e-11 4.6956605e-12 -2.6348144e-11 1.5321291e-11 4.419662e-11 2.1525492e-09 3.836013e-12 -2.5942857e-11
-3.146e-42 3.352e-42 3.634e-42 -3.196e-42 -1.534e-42 3.161e-42 1.456e-42 8.91e-43
4.399e-42 2.982e-42 3.807e-42 4.66e-42 -4.818e-42 3.968e-42 4.549e-42 -5.2e-44
-1.1105377e-28 2.0072693e-28 -4.1850352e-29 7.937052e-29 2.7819134e-29 4.6200844e-30 2.354239e-28 8.478574e-27
2.5631638e-28 1.2597325e-28 2.2080894e-29 2.8312335e-28 1.1806771e-28 3.1964553e-25 2.7365134e-28 3.6979402e-29
3.212e-42 2.21e-42 -4.997e-42 3.684e-42 -3.261e-42 5.017e-42 2.73e-43 3.467e-42
2.941e-42 -4.389e-42 4.181e-42 -2.885e-42 -4.508e-42 2.543e-42 -3.789e-42 4.571e-42
-4.979e-42 -2.028e-42 -5.098e-42 3.698e-42 3.677e-42 -4.919e-42 4.927e-42 3.709e-42
5.017e-42 2.75e-43 -2.148e-42 9.67e-43 4.982e-42 3.65e-42 4.434e-42 4.944e-42
-4.242975e-22 1.5123712e-21 -8.445112e-23 4.604655e-22 4.9955514e-22 -4.8285416e-23 1.6257213e-21 -1.3285639e-19
1.8474928e-21 9.748724e-22 8.6791064e-23 1.6476758e-21 1.1998488e-21 4.9906755e-18 2.098409e-21 1.8947881e-22

feature_compression.senet.fc.2.weight f4 [16, 8]
00000000: 5311 0080 c28e c028 17f2 d129 2f06 0080
00000010: 4a18 e991 d90d 0080 8e0c 0080 b370 1f9f
00000020: c80b 0080 d170 6129 4a34 1dac 8105 0000
00000030: 19f0 8313 9b0e 0080 990b 0000 8e48 231f
00000040: 5c06 0000 eb60 72aa 0180 af2b 610f 0080
00000050: 02fe 6993 880e 0000 2107 0080 6e8f 279f
00000060: 4511 0080 7fb6 e5a9 e6e7 1c2c 2d0f 0000
00000070: be34 8012 510e 0080 c904 0000 0807 091e
00000080: f80d 0080 8e3f 48aa 0365 d2ab 9303 0000
00000090: f3f9 8513 cb0b 0080 bf00 0080 5cb4 781f
000000a0: ec0a 0080 bcbb c6a5 1dea 5fab 780e 0000
000000b0: 507f 5492 d30e 0080 990e 0080 2106 931d
000000c0: 640e 0080 9c97 e8a8 1275 77ab 3402 0000
000000d0: 0e4d 4892 c108 0080 4105 0080 1b4c 8c9d
000000e0: df0d 0000 d978 beac 44d3 57af 620d 0000
000000f0: 809e 7613 c60c 0000 fb04 0000 0566 c31e
00000100: 990e 0080 6183 cf28 3852 8d2a 2c0f 0080
00000110: 6be2 9190 4103 0080 4202 0080 350a bd9e
00000120: 6e0c 0000 85fa eba9 4202 6fac bb09 0080
00000130: d43f af93 2f0e 0080 8d0c 0080 88d1 b09f
00000140: 9a0a 0080 252d 3ca9 1a32 c3ab 0e0c 0080
00000150: 977c 7493 120d 0080 420f 0080 2860 0f9f
00000160: 8d0e 0080 88bd 902a 6148 31ab cd06 0000
00000170: 7257 d212 0007 0080 5101 0000 0a1c f51c
00000180: 7901 0080 9f10 c1a5 5bae fbab f50e 0080
00000190: f774 ab92 130e 0000 9f02 0080 d98d 869e
000001a0: 6e0d 0000 f4fa a0af 4bd3 28b1 ae0d 0000
000001b0: 4b83 c013 8e07 0080 650a 0000 5034 8b1e
000001c0: de09 0080 8080 2e2a 06df bfab 9909 0080
000001d0: 2d44 0793 f009 0080 9e0d 0000 a068 5f9d
000001e0: 7a02 0000 4a8e 97a8 cbdd 28ac c802 0000
000001f0: 84f6 fd10 d30d 0080 f30d 0080 47f0 b59d
-6.215e-42 2.1378193e-14 9.3234604e-14 -2.218e-42 -3.6775887e-28 -4.968e-42 -4.504e-42 -3.3762782e-20
-4.226e-42 5.005789e-14 -2.2340068e-12 1.974e-42 3.3305804e-27 -5.24e-42 4.16e-42 3.457661e-20
2.281e-42 -2.1527543e-13 1.2470026e-12 -5.517e-42 -2.953397e-27 5.213e-42 -2.557e-42 -3.5482268e-20
-6.195e-42 -1.0201301e-13 2.2297663e-12 5.444e-42 8.090938e-28 -5.136e-42 1.717e-42 7.254174e-21
-5.011e-42 -1.7785618e-13 -1.4949434e-12 1.282e-42 3.382039e-27 -4.23e-42 -2.68e-43 5.2665233e-20
-3.918e-42 -3.4474739e-16 -7.955041e-13 5.19e-42 -6.705233e-28 -5.318e-42 -5.237e-42 3.8916913e-21
-5.162e-42 -2.5822924e-14 -8.7914496e-13 7.9e-43 -6.320385e-28 -3.14e-42 -1.885e-42 -3.7136383e-21
4.976e-42 -5.4135416e-12 -1.9629193e-10 4.801e-42 3.1127712e-27 4.582e-42 1.787e-42 2.0688622e-20
-5.237e-42 2.3038593e-14 2.5103682e-13 -5.443e-42 -5.754127e-29 -1.167e-42 -8.1e-43 -2.0015375e-20
4.459e-42 -1.04795546e-13 -3.3965196e-12 -3.49e-42 -4.423915e-27 -5.088e-42 -4.502e-42 -7.488554e-20
-3.803e-42 -4.1783542e-14 -1.3869489e-12 -4.324e-42 -3.0858557e-27 -4.689e-42 -5.473e-42 -3.0360966e-20
-5.22e-42 2.5711052e-13 -6.298348e-13 2.44e-42 1.327442e-27 -2.511e-42 4.72e-43 1.6219988e-21
-5.28e-43 -3.3491426e-16 -1.7883016e-12 -5.366e-42 -1.0820451e-27 5.049e-42 -9.4e-43 -1.4246469e-20
4.818e-42 -2.9282143e-10 -2.4567324e-09 4.907e-42 4.859708e-27 -2.71e-42 3.729e-42 1.4738833e-20
-3.54e-42 1.5498887e-13 -1.3633268e-12 -3.443e-42 -1.7073009e-27 -3.565e-42 4.885e-42 -2.9567894e-21
8.88e-43 -1.6826076e-14 -2.3997356e-12 9.98e-43 1.0017072e-28 -4.959e-42 -5.004e-42 -4.8158742e-21

feature_compression.bn.weight f4 [16]
00000000: a4f9 553f 33af 5e3f 4b7c 773f e933 3b3f
00000010: 0791 7d3f f248 653f 6243 8d3f 936e 553f
00000020: 88d3 5f3f 470a 7a3f 0f3f 683f 056f 623f
00000030: e348 523f d180 643f 24d9 883f 2051 613f
0.83584046 0.8698608 0.9667403 0.73126084 0.9904942 0.8956443 1.1036189 0.8337185
0.87432146 0.9767193 0.9072122 0.8845065 0.82142466 0.8925906 1.0691266 0.8801441

feature_compression.bn.bias f4 [16]
00000000: 7ae3 f2bd c94e 3bbe 39b7 4bbe 97e5 f6bd
00000010: 2bd8 5bbe 1c22 12be ce29 70be e5cb 06be
00000020: 53f9 10be e617 3ebe cd59 26be cb08 20be
00000030: 0913 0bbe 7bf1 0bbe fe30 5abe c47d 03be
-0.11859794 -0.18291773 -0.19894113 -0.120555095 -0.2146918 -0.14270824 -0.23453447 -0.13163717
-0.1415761 -0.18563804 -0.16245194 -0.15628354 -0.1358148 -0.13666336 -0.21307752 -0.12840945

feature_compression.bn.running_mean f4 [16]
00000000: 3c7c 20bb 6bf5 0ebb 126c 513a 5d13 37bb
00000010: 34a5 09bb eb88 cebb 5fc7 a0bb 7905 d9bb
00000020: 5048 95bb 7cc3 1dbb c22f cabb 238a 8bbb
00000030: d016 45b9 6fa0 babb 547f a1bb 40b9 183a
-0.0024488112 -0.002181376 0.0007988821 -0.0027935125 -0.002100301 -0.006302943 -0.0049065794 -0.006622967
-0.0045557395 -0.0024072817 -0.006170244 -0.0042584105 -0.00018795882 -0.0056953947 -0.004928509 0.0005825944

feature_compression.bn.running_var f4 [16]
00000000: 3a0b f43a f990 283b e278 213b 32cf 0e3b
00000010: e312 203b d28c 193b 26d3 613b 619e 453b
00000020: 0936 4d3b 36a4 383b ac75 183b 054e 363b
00000030: 3594 213b e256 243b 9c2d 5e3b 6e88 283b
0.0018619068 0.0025721176 0.0024638702 0.0021790978 0.002442532 0.0023429883 0.003445813 0.0030154216
0.0031312725 0.002817405 0.0023263497 0.00278175 0.0024654989 0.00250762 0.0033901697 0.0025716084
