logs/sscl_01171232/best_w.pth (torch, 51736 bytes, 30 tensors)

temporal_filtering.conv.weight f4 [8, 1, 1, 128]
0	0x3bb55673	0.005533987
1	0xbc258938	-0.010103516
2	0xbd9bc858	-0.07606572
3	0xbbb78aca	-0.0056012617
4	0x3c4f5689	0.012654909
5	0xbd7d916c	-0.061906263
6	0xbd941891	-0.07231248
7	0x3c96a2ad	0.018388117
8	0xbcc8d9a5	-0.024517843
9	0xbbd5d943	-0.0065261438
10	0xbc65942b	-0.014012377
11	0xbc630636	-0.013856461
12	0xbccd03f1	-0.025026293
13	0xbc56a35d	-0.013100472
14	0xbd5a9cf2	-0.05337233
15	0xbd03cd69	-0.032178316
16	0xbd454b6b	-0.048167627
17	0xbce3f265	-0.027825544
18	0x3d18549b	0.03719006
19	0x3ce7682e	0.028247919
20	0x3d3f92a1	0.046770696
21	0x3d8dd8bd	0.06926105
22	0xbcb69419	-0.022287415
23	0x3ba3792c	0.00498881
24	0xbd49d078	-0.049271077
25	0xbbd58f66	-0.0065173386
26	0x3d51ce9b	0.051222425
27	0x3d7e7228	0.062120587
28	0x3d97753b	0.07395407
29	0x3cec294a	0.028828282
30	0x3d1f2c7c	0.038860783
31	0x3c907d81	0.01763797
32	0x3cae1619	0.021250771
33	0x3c60e6a3	0.013726863
34	0xbc950fe5	-0.018196056
35	0x3daaf630	0.08347738
36	0xbb1f9aab	-0.0024353664
37	0xbd0b68c1	-0.034035448
38	0xbcd17939	-0.025570499
39	0x3d6b8fe7	0.057510283
40	0xbc123103	-0.008922818
41	0x3d1443d7	0.03619751
42	0xbc68a2fa	-0.014199013
43	0x3c01ed9c	0.007930186
44	0xbd5d3253	-0.05400307
45	0x3d74f662	0.05980528
46	0x3c001fd2	0.007820087
47	0xbcf577be	-0.029964324
48	0x3d1187c1	0.035529856
49	0xbc25fbfb	-0.010130878
50	0xbd62e07e	-0.055389874
51	0xbc06d694	-0.00822987
52	0x3cb25d92	0.021773133
53	0x3cca9d30	0.024733156
54	0xbd4e78f5	-0.050408322
55	0x3cf46ac0	0.029836059
56	0x3b6119cf	0.0034347659
57	0x3c56e51d	0.013116148
58	0x3d0012eb	0.03126804
59	0x3d05bca8	0.03265062
60	0x3cbd8048	0.023132458
61	0xbd61d1f6	-0.055131875
62	0xbca60a0a	-0.020268459
63	0xbb6fccd3	-0.003659059
64	0x3cb6f4c4	0.02233351
65	0x3b9c9bf7	0.0047793346
66	0x3d05e23e	0.032686464
67	0x3d9bf294	0.076146275
68	0x3d704435	0.058658797
69	0x3d9211b7	0.07132285
70	0xbb59ec1c	-0.0033252304
71	0x3d01f4ca	0.03172759
72	0x3d6129fa	0.054971673
73	0x3cdddc03	0.027082449
74	0x3db4287d	0.08796785
75	0x3d8c8146	0.068605945
76	0x3db84b5f	0.08998751
77	0x3cce3932	0.025173757
78	0x3d29fc8a	0.041500606
79	0x3cc0050c	0.023439907
80	0x3dab3d02	0.08361246
81	0x3cc37a14	0.023861922
82	0x3d9ffbbe	0.07811688
83	0x3daab823	0.083359025
84	0x3d0ad5b7	0.03389522
85	0x3d757679	0.059927437
86	0x3d5b6357	0.053561535
87	0x3c8c8b72	0.017156336
88	0x3d8fa404	0.070137054
89	0x3d162780	0.036658764
90	0x3d8d5828	0.0690158
91	0x3cb957fe	0.022624966
92	0xbc4f2794	-0.0126437135
93	0x3d6ed149	0.05830506
94	0x3ceb7bb2	0.028745506
95	0x3d43c2fd	0.047793377
96	0x3d6d8a4a	0.05799321
97	0x3bd3f066	0.0064678667
98	0xbc93bd0e	-0.018034484
99	0x3ce0a1ba	0.027420867
100	0x3d4d1332	0.050067134
101	0x3cd07fde	0.025451597
102	0x3d81eb2f	0.06343686
103	0x3c679175	0.014133801
104	0x3cf23256	0.029565018
105	0x3d3ab270	0.045580328
106	0x3cf91ae2	0.030408327
107	0x3ccb0f89	0.024787681
108	0x3d9949d3	0.07484784
109	0x3d031ecd	0.032011796
110	0x3d978d3f	0.073999874
111	0x3d498cd5	0.049206574
112	0x3c48d644	0.012258116
113	0x3d9f6434	0.07782784
114	0x3d9ed618	0.07755679
115	0x3d2172aa	0.039415993
116	0x3d5d1ba8	0.053981453
117	0x3d253a23	0.040338647
118	0x3dab694b	0.083696924
119	0x3c799db1	0.0152353505
120	0x3d192d7d	0.037396897
121	0x3d081f22	0.033232816
122	0x3dac67d5	0.08418242
123	0x3dbf20c4	0.093324214
124	0x3ddc26d1	0.10749591
125	0x3debae9c	0.115079135
126	0x3df4b989	0.119494505
127	0x3e089598	0.13338315
128	0xbb2e64e2	-0.0026610424
129	0x3c4e1fad	0.012580794
130	0x3ce0d2b5	0.027444223
131	0x3c7372e9	0.01485894
132	0xbc1fa53a	-0.009743983
133	0x3ca49e1d	0.020094926
134	0x3d340672	0.04395146
135	0xbc11d04e	-0.008899761
136	0x3c9d39ce	0.019192602
137	0x3d77b2a3	0.060473096
138	0x3d4372fd	0.047717083
139	0x3a807fb5	0.0009803685
140	0x3ae703db	0.001762505
141	0x3d35b1b0	0.04435891
142	0x3ca2e968	0.019886687
143	0x3db68244	0.08911565
144	0x3cd41055	0.025886694
145	0x3d6e2b5a	0.058146812
146	0x3d6e93b6	0.058246337
147	0x3cc0dc07	0.023542417
148	0x3cd1990d	0.025585676
149	0x3cdeb4a2	0.027185742
150	0x3dc5b31f	0.09653305
151	0x3d1e422d	0.03863733
152	0x3cc2d7f6	0.023784619
153	0x3d8fd79f	0.07023548
154	0xbaeca0fb	-0.0018053347
155	0x3d88d40e	0.06681071
156	0x3c55c4f4	0.013047446
157	0x3b099351	0.0020992348
158	0x3d27a63b	0.040930014
159	0x3c3efb07	0.011656529
160	0xbc476149	-0.012169191
161	0x3ccfacde	0.025350984
162	0xbc629b76	-0.01383101
163	0xbc9d6043	-0.01921094
164	0x3b29b831	0.002589714
165	0xbc315d25	-0.01082543
166	0x3d004235	0.03131314
167	0x3b14177a	0.0022597
168	0x3c889e94	0.016677178
169	0xbcba6640	-0.022753835
170	0x3d042753	0.032264065
171	0x3d0eb08f	0.03483635
172	0x3cb67e7c	0.02227711
173	0xbbbde840	-0.0057955086
174	0x3b8ccb06	0.004296663
175	0xbcc3fa57	-0.023923082
176	0xbd0cd869	-0.034386072
177	0xbcde8429	-0.027162628
178	0xbcc123c3	-0.023576623
179	0xbc920a26	-0.017827105
180	0x3cc44a9f	0.023961363
181	0xbcc4ec7d	-0.024038548
182	0xbc5cb10a	-0.013469944
183	0x3d58d540	0.052937746
184	0x3d0b7057	0.034042682
185	0x3d1d0348	0.038333207
186	0x3d3ed4fe	0.046589844
187	0x3d78784d	0.060661603
188	0x3d311412	0.04323203
189	0x3d3bded5	0.045866806
190	0x3cedbf05	0.02902175
191	0x3d6199eb	0.05507843
192	0x3cf5bfae	0.029998627
193	0x3caa2a6a	0.020772178
194	0x3d940ab9	0.07228608
195	0x3cebeaea	0.02879854
196	0x3d7966f9	0.060889218
197	0x3d122fea	0.035690226
198	0x3d10b7fd	0.035331715
199	0xb9944c05	-0.000282854
200	0x3cf76189	0.030197876
201	0x3cf6e72d	0.03013953
202	0x3ce8fdb5	0.02844129
203	0x3cc155b6	0.02360044
204	0x3d321829	0.043480072
205	0x3d1dde9a	0.038542368
206	0x3d54fd8a	0.051999606
207	0x3d71455c	0.058904037
208	0x3d24a021	0.040191773
209	0x3d5ffcbd	0.05468439
210	0x3d6b2ba4	0.057414666
211	0x3dac0f76	0.084013864
212	0x3d454a2d	0.048166443
213	0x3d865ab2	0.065602675
214	0x3db5f5e5	0.08884791
215	0x3dc8251f	0.09772705
216	0x3db1c7a2	0.08680655
217	0x3d39336b	0.04521505
218	0x3db0e5b1	0.0863756
219	0x3dbbef19	0.09176464
220	0x3dcc0fda	0.09963961
221	0x3d945849	0.072434016
222	0x3d29df41	0.041472677
223	0x3d6fd1f5	0.05854984
224	0x3d37f041	0.04490686
225	0x3d93d7e9	0.07218916
226	0x3d8790f5	0.06619445
227	0x3d863f80	0.065550804
228	0x3cd54265	0.026032636
229	0x3d45b572	0.048268743
230	0x3d6754e4	0.056477442
231	0x3d94f014	0.07272354
232	0x3d81752a	0.063211754
233	0x3d830937	0.06398242
234	0x3cc99d64	0.024611183
235	0x3bfd8b21	0.0077375327
236	0x3bdc44b5	0.0067220577
237	0x3d6428c7	0.05570295
238	0x3cea5e1b	0.028609326
239	0x3c44ad7e	0.012004254
240	0x3c9e86ca	0.019351382
241	0xbbb18528	-0.005417485
242	0x3cd6f393	0.026239192
243	0x3c8601cc	0.016358279
244	0x3d1f6fc8	0.038924962
245	0x3d3c097c	0.045907483
246	0x3cab45b7	0.020907266
247	0x3ca8b191	0.020592483
248	0x3d76572b	0.060141724
249	0x3d85dfcd	0.06536827
250	0x3d29d52c	0.041463062
251	0xbbbf3ad2	-0.0058358693
252	0x3c924f95	0.017860213
253	0x3cc1e401	0.023668291
254	0x3ce4b2cb	0.027917286
255	0x3ba683d1	0.0050816317

temporal_filtering.conv.bias f4 [8]
0	0x3ce1b4fb	0.027552119
1	0xbbbe5b2b	-0.005809208
2	0xbc115e22	-0.008872541
3	0x3e15c929	0.14627518
4	0x3bc5eaa8	0.006039936
5	0x3d63899c	0.055551156
6	0x3cd594f7	0.026072009
7	0x3e03fbdb	0.12889044

temporal_filtering.senet.fc.0.weight f4 [4, 8]
0	0x3ec724c8	0.3889525
1	0x3d443d16	0.04790982
2	0x3d170fd8	0.036880344
3	0xbe87b537	-0.26505443
4	0xbe051914	-0.12997848
5	0x3ed198e7	0.40936968
6	0xbe9de436	-0.30838174
7	0x3dc1f89a	0.09471245
8	0xbd254a1b	-0.040353876
9	0xbe9dc560	-0.30814648
10	0x3d9ff778	0.07810873
11	0xbd44929a	-0.047991373
12	0x3e9730f5	0.2952954
13	0xbe8f4fca	-0.27990562
14	0xbdb6b343	-0.0892091
15	0xbd999b01	-0.07500268
16	0xbd43c141	-0.047791723
17	0xbe6b66ce	-0.22988436
18	0xbd47dcff	-0.048794743
19	0x3e3073e9	0.17231716
20	0xbd7b0777	-0.061286416
21	0xbe2f037e	-0.17091176
22	0x3e64edcb	0.22356336
23	0x3cac32a8	0.021020249
24	0xbe154f08	-0.1458093
25	0x3d406e59	0.046980236
26	0xbd724055	-0.059143383
27	0xbe17a4a8	-0.14808905
28	0xbe39e1fd	-0.18152614
29	0xbe620861	-0.22073509
30	0x3cd8a8f8	0.026447758
31	0x3dbfafe5	0.09359721

temporal_filtering.senet.fc.2.weight f4 [8, 4]
0	0xbd84fecc	-0.06493911
1	0xbeabc6f7	-0.33550236
2	0xbde2ff92	-0.110839024
3	0x3c39b178	0.011333816
4	0xbead1181	-0.33802417
5	0xbe245722	-0.16048864
6	0x3e3095bd	0.1724462
7	0xbc159327	-0.009129322
8	0xb9b908bd	-0.0003529246
9	0x3d8d3463	0.068947576
10	0x3e5b281f	0.21402024
11	0xbe026637	-0.12734304
12	0xbdcf9a42	-0.10136844
13	0xbed76dce	-0.42075962
14	0xbe915d78	-0.28391623
15	0x3de0cd2b	0.10976633
16	0xbeb3c477	-0.35110828
17	0xbe7dc6d9	-0.24782886
18	0x3e3886bb	0.18020146
19	0x3d492258	0.04910502
20	0xbece9813	-0.40350398
21	0x3df7f130	0.1210655
22	0x3e25fc4f	0.1620953
23	0xbd9493d0	-0.072547555
24	0x3d0b482d	0.03400438
25	0xbe36a438	-0.17836082
26	0x3e660aaa	0.22465006
27	0xbe21d3b8	-0.1580342
28	0xbe9f0d3a	-0.3106478
29	0xbe12f914	-0.14352828
30	0x3eb74822	0.3579722
31	0xbdd6b223	-0.10483196

temporal_filtering.bn.weight f4 [8]
0	0x3f6597be	0.89684665
1	0x3f6c1bac	0.92229724
2	0x3f7478b5	0.95496684
3	0x3f55d179	0.83522755
4	0x3f6956de	0.91148174
5	0x3f4d2f3b	0.8015019
6	0x3f54ad23	0.83076686
7	0x3f67a7a0	0.9049015

temporal_filtering.bn.bias f4 [8]
0	0xbd171f75	-0.036895234
1	0xbd86d80a	-0.06584175
2	0x3a888e71	0.0010418427
3	0x3c80344b	0.015649935
4	0xbdd6b35e	-0.1048343
5	0x3ba3e2b3	0.00500139
6	0xbc0a8d6e	-0.008456571
7	0xbd506a63	-0.05088271

temporal_filtering.bn.running_mean f4 [8]
0	0x3e26b9fa	0.16281882
1	0xbe3ec3a4	-0.18629318
2	0x3c4933c8	0.012280412
3	0xbda9ade8	-0.08285123
4	0x3e24929b	0.1607155
5	0xbed4852e	-0.41507858
6	0xbc6fa3ec	-0.014626484
7	0x3baf7398	0.005354356

temporal_filtering.bn.running_var f4 [8]
0	0x3f37f00a	0.71850646
1	0x3f89cfb1	1.0766507
2	0x3ef5dc2f	0.4801955
3	0x3e9d8a27	0.30769464
4	0x3f856431	1.0421201
5	0x40490a41	3.1412508
6	0x3f0c88cd	0.5489624
7	0x3e930931	0.2871795

spatial_filtering.conv.weight f4 [16, 8, 3, 1]
0	0x3e2777c6	0.16354284
1	0xbe0d806e	-0.13818523
2	0xbdde151b	-0.10843869
3	0x3c4214bd	0.011845765
4	0xbe5869fd	-0.21134181
5	0xbd3b16d8	-0.045676082
6	0xbdcb3149	-0.0992151
7	0xbce9dbeb	-0.028547248
8	0xbe16b521	-0.14717533
9	0x3e1cb128	0.15301955
10	0x3df9d930	0.12199628
11	0xbe2119c4	-0.15732485
12	0xbdd90783	-0.10597136
13	0xbe311d20	-0.17296267
14	0xbca6afd0	-0.020347506
15	0xbd14b282	-0.03630305
16	0x3e037ec9	0.12841333
17	0x3d54e9cd	0.051980782
18	0x3cb13e0d	0.021636033
19	0xbd5729a2	-0.05252994
20	0xbdd4d1c1	-0.1039157
21	0xbe0a2d57	-0.13493858
22	0xbdbb39be	-0.09141873
23	0xbcd5218b	-0.026016971
24	0x3cacd321	0.021096768
25	0xbd18c36d	-0.037295748
26	0x3e1fb465	0.15596159
27	0xbd85a10e	-0.06524859
28	0xbe03ae52	-0.12859467
29	0xbd91a4cb	-0.0711151
30	0xbd1cd718	-0.038291067
31	0x3d3cec65	0.04612388
32	0x3e26a582	0.16274074
33	0x3dadc891	0.08485521
34	0x3df1d60f	0.118084066
35	0xbde57e43	-0.11205723
36	0xbd05cf07	-0.03266814
37	0x3d13b37c	0.03605984
38	0xbe3180be	-0.17334267
39	0x3dd34c9a	0.10317345
40	0x3e2143da	0.1574854
41	0xbd4918e8	-0.049096018
42	0x3dffcda4	0.12490395
43	0x3e302929	0.17203201
44	0xbd278f66	-0.04090824
45	0xbcadfae4	-0.021237798
46	0x3cc13350	0.023584038
47	0x3e45d163	0.19318156
48	0xbe0367ba	-0.12832537
49	0xbdf04cc7	-0.11733394
50	0x3e4a6f38	0.19768989
51	0x3e2246cd	0.15847321
52	0xbd7b5bae	-0.06136673
53	0x3d9f944c	0.07791957
54	0x3ddbe5c9	0.107371874
55	0x3e11097f	0.14163779
56	0x3dca7795	0.0988609
57	0x3d7e083a	0.062019564
58	0xbe405006	-0.18780527
59	0xbd7bf211	-0.06151015
60	0x3d1c16b1	0.038107578
61	0xbc7c9106	-0.015415436
62	0xbb5224dd	-0.003206543
63	0xbd87d79c	-0.06632921
64	0xbb97ee45	-0.0046365582
65	0x3dc22517	0.094797306
66	0x3dd10749	0.10206468
67	0x3de1e265	0.110295095
68	0xbe33e263	-0.17566828
69	0xbc93ac5c	-0.018026523
70	0x3e272ea5	0.16326387
71	0xbdf59c7c	-0.11992738
72	0x3cf3b62e	0.029749956
73	0xbe24895b	-0.16068022
74	0xbde0a5e0	-0.10969138
75	0x3d4976aa	0.049185432
76	0xbd7c8726	-0.061652325
77	0x3c137594	0.009000201
78	0xbe1072a7	-0.14106236
79	0x3da8ccde	0.082422
80	0x3da31b4f	0.07964193
81	0x3cb443c1	0.022004964
82	0xbd9d274b	-0.0767351
83	0xbde60b88	-0.11232668
84	0x3d72bda5	0.05926289
85	0xbde84f2c	-0.11343226
86	0xbe0fc583	-0.14040188
87	0x3d1d121d	0.038347352
88	0x3d76c630	0.0602476
89	0xbd823ced	-0.06359277
90	0x3dac16dd	0.08402798
91	0xbbe6e578	-0.007046398
92	0xbd75952c	-0.059956715
93	0xbc04b0fa	-0.008098835
94	0x3e29fe6a	0.16600958
95	0xbd5f81c4	-0.054567114
96	0xbc7dd616	-0.015492937
97	0xbd2c9b03	-0.04214002
98	0xbcfad43e	-0.030618783
99	0xbc682fca	-0.01417155
100	0x3db3b064	0.08773878
101	0xbd2d793c	-0.042351946
102	0xbe162b34	-0.14664918
103	0x3da27deb	0.07934173
104	0xbd2f764d	-0.04283743
105	0x3d906f3d	0.07052467
106	0x3e3dc058	0.18530405
107	0xbcab636a	-0.020921428
108	0xbe4c2099	-0.1993431
109	0x3d9edf40	0.07757425
110	0x3dc0cf94	0.094145924
111	0x3dd11c95	0.1021053
112	0x3d685ee9	0.05673114
113	0xbdfe21f0	-0.12408817
114	0x3daa1592	0.083048955
115	0xbd798396	-0.060916506
116	0x3e140ee1	0.14458801
117	0x3e39c48b	0.18141381
118	0x3df25e07	0.118343405
119	0xbd0611d6	-0.032731853
120	0xbd7dce03	-0.061964046
121	0x3e12de81	0.14342691
122	0x3cd3af86	0.025840532
123	0xbe19a033	-0.15002517
124	0x3d0cebe5	0.034404654
125	0xbe265f49	-0.16247286
126	0xbc67d1df	-0.014149158
127	0xbdef9be3	-0.11699655
128	0xbd8c4885	-0.068497695
129	0xbc9215cd	-0.017832661
130	0xbe0d99dc	-0.13828224
131	0x3c0cb603	0.008588317
132	0x3beaaaf2	0.0071614916
133	0xbcba8d90	-0.02277258
134	0xbe01a624	-0.12661034
135	0xbe30fb9b	-0.1728348
136	0xbe373fdb	-0.17895453
137	0xbd732abd	-0.05936693
138	0xbd7203e0	-0.059085727
139	0xbe35a3d5	-0.17738278
140	0x3ddb9bae	0.10723053
141	0x3e1ceb0c	0.15324038
142	0xbe120e76	-0.14263329
143	0x3e15de5b	0.14635603
144	0xbbed0c08	-0.0072341003
145	0x3d0a5077	0.033768144
146	0xbcc95d7b	-0.024580708
147	0x3c93ac82	0.018026594
148	0xbcb4accc	-0.022055052
149	0x3b759a6b	0.0037476073
150	0xbe0cc0b0	-0.1374538
151	0xbd495942	-0.04915739
152	0xbd86be08	-0.06579214
153	0xbc768f43	-0.015048805
154	0x3c3d127e	0.011540053
155	0x3ac7795c	0.0015218663
156	0xbc787086	-0.015163546
157	0xbd92754c	-0.07151279
158	0x3d7fb922	0.062432416
159	0xbb753176	-0.0037413514
160	0xbd510aa2	-0.05103553
161	0xbad9f401	-0.0016628505
162	0x3be17ff7	0.0068817097
163	0x3cabe32c	0.020982347
164	0x3c8c53d2	0.017129812
165	0xbd7b9b45	-0.061427373
166	0xbce893eb	-0.028390845
167	0xbdb16546	-0.086618945
168	0xbda0fabd	-0.078603245
169	0x3e0ce19b	0.13757937
170	0xbdb375e1	-0.08762718
171	0x3d6ac748	0.057318956
172	0x3c402546	0.011727637
173	0xbbe257ac	-0.006907424
174	0xbdc7393b	-0.09727713
175	0xbd801cc4	-0.062554866
176	0xbdac2474	-0.084053904
177	0x3d9ff621	0.07810617
178	0xbda31979	-0.07963843
179	0x3dda8f52	0.106718674
180	0xbd10ba11	-0.035333697
181	0x3ccbbaae	0.02486929
182	0xbd30c38f	-0.04315525
183	0xbacc8a63	-0.0015605207
184	0xbd8ab544	-0.06772855
185	0xbc667051	-0.014064864
186	0xbd90d25b	-0.07071372
187	0x3d835c4c	0.064140886
188	0x3d19c7ea	0.03754417
189	0xbc2312e5	-0.009953235
190	0xbd95c7cb	-0.07313498
191	0xbd9f0a33	-0.07765617
192	0xbb4a80da	-0.0030899555
193	0xbd45d4dc	-0.0482987
194	0xbcf0a490	-0.029375345
195	0x3e323a29	0.17404999
196	0xbc611c52	-0.013739662
197	0x3cee2564	0.029070564
198	0x3e2fb41d	0.17158552
199	0x3dc809e6	0.09767513
200	0x3df9c35c	0.12195465
201	0xbe1f6536	-0.15565953
202	0xbdb9d5b0	-0.09073961
203	0xbd46a956	-0.048501335
204	0x3de065ce	0.10956918
205	0xbdb5bb21	-0.08873583
206	0xbb1c2ddb	-0.0023831043
207	0x3d5e8ca6	0.05433335
208	0xbd504b9a	-0.05085335
209	0xbdbdade8	-0.092616856
210	0xbddddbb9	-0.108329244
211	0xbe1aa14f	-0.15100597
212	0x3e168de8	0.1470257
213	0xbd9a183a	-0.07524152
214	0xbd43b897	-0.04778346
215	0xbd6cb290	-0.057787478
216	0x3c9c9d16	0.019117873
217	0xbe046cf5	-0.12932189
218	0xbe37b384	-0.17939574
219	0xbe058baf	-0.13041566
220	0x3d2aa6bc	0.041662917
221	0x3cc91f38	0.02455102
222	0x3c210913	0.009828824
223	0x3d80fe14	0.062984616
224	0xbd8080bb	-0.062745534
225	0xbd9c1f69	-0.076231785
226	0x3e44197d	0.19150348
227	0xbd8b38fe	-0.0679798
228	0xbe2bd2a8	-0.16779578
229	0xbde1cff5	-0.11025993
230	0xbe215a16	-0.15757021
231	0xbde8da04	-0.11369708
232	0x3dd25e47	0.10271888
233	0xbc806937	-0.01567517
234	0x3d223332	0.039599605
235	0xbdac05c6	-0.08399539
236	0x3db69173	0.08914461
237	0xbcd833a3	-0.02639181
238	0x3e33597a	0.17514601
239	0xbb5e958b	-0.0033963646
240	0x3d5aa581	0.053380493
241	0x3de453bf	0.11148786
242	0x3e30f881	0.17282297
243	0x3e1f56d1	0.15560462
244	0x3daf5822	0.08561732
245	0xbcbc8b21	-0.02301556
246	0x3e2a4e85	0.16631515
247	0x3e090122	0.13379338
248	0xbcc01d9e	-0.023451623
249	0x3e51172c	0.20418996
250	0xbdb6af77	-0.08920186
251	0xbd82a631	-0.06379355
252	0x3cdef587	0.027216686
253	0x3c36dddb	0.011161293
254	0x3dac6a3a	0.084186986
255	0x3e573ed9	0.21020068

spatial_filtering.conv.bias f4 [16]
0	0x39048ccc	0.00012640952
1	0x39581551	0.00020607306
2	0x3781d9b3	1.5479372e-05
3	0x38523027	5.0112747e-05
4	0xb73301bc	-1.0669635e-05
5	0x36d0c337	6.221609e-06
6	0x3820baee	3.8321064e-05
7	0xb81d0298	-3.7434133e-05
8	0xb881a619	-6.1821374e-05
9	0x38eb066b	0.00011206869
10	0xb75c4fa0	-1.3131561e-05
11	0xb839df21	-4.4315242e-05
12	0x3692839e	4.3664613e-06
13	0x389c0f62	7.441525e-05
14	0xb7e1bae5	-2.690912e-05
15	0xb7682437	-1.38367095e-05

spatial_filtering.senet.fc.0.weight f4 [8, 16]
0	0xb5432587	-7.269777e-07
1	0xb4f0bcc4	-4.484083e-07
2	0x34a39f9c	3.0477247e-07
3	0xb56470f8	-8.510101e-07
4	0x350214d9	4.845911e-07
5	0x344ca5d6	1.9059311e-07
6	0x34a27248	3.0258002e-07
7	0xb4f7d646	-4.616324e-07
8	0xb5103a7d	-5.372929e-07
9	0xb53db0b8	-7.0665146e-07
10	0xb4eb80ca	-4.3865867e-07
11	0xb4b13ef5	-3.3014626e-07
12	0xb549cb12	-7.517384e-07
13	0x34f6f9e3	4.6002887e-07
14	0x35436619	7.279173e-07
15	0x34abd98b	3.2009515e-07
16	0xb823fd63	-3.9098213e-05
17	0x360f3c27	2.1343674e-06
18	0x378c15d3	1.6699463e-05
19	0x33dca25f	1.02740835e-07
20	0x359f57f9	1.1872027e-06
21	0xb74da05f	-1.22562915e-05
22	0xb693424e	-4.3886603e-06
23	0xb6b7d41d	-5.4785182e-06
24	0x37718fe7	1.4398224e-05
25	0xb75c2c06	-1.3123272e-05
26	0x36f43865	7.278332e-06
27	0xb7074620	-8.062954e-06
28	0xb751dc0f	-1.2508607e-05
29	0x36ba0082	5.543291e-06
30	0x37b8d6e2	2.2034572e-05
31	0x37b56369	2.1623173e-05
32	0x370168ab	7.713369e-06
33	0xb68ba247	-4.1614144e-06
34	0xb66e9f62	-3.5557537e-06
35	0x34f281c7	4.5170438e-07
36	0xb642167e	-2.8921345e-06
37	0x36c13364	5.757831e-06
38	0xb42eb782	-1.6271773e-07
39	0xb3b9b3b6	-8.647423e-08
40	0x35c69c1b	1.4797582e-06
41	0xb60e3fc1	-2.1196759e-06
42	0xb753e218	-1.2629222e-05
43	0x379f0bc8	1.8959763e-05
44	0x371295f4	8.737192e-06
45	0xb6020702	-1.9375589e-06
46	0x36318752	2.6453822e-06
47	0xb608de8e	-2.0395123e-06
48	0x379344c2	1.7555783e-05
49	0x37acee97	2.06151e-05
50	0xb77fe1e2	-1.5251777e-05
51	0x36e9fa8c	6.9731086e-06
52	0x381f66cc	3.800429e-05
53	0x3845bff1	4.714722e-05
54	0xb6bfc20b	-5.714833e-06
55	0x36ac5dd5	5.136923e-06
56	0xb7e06566	-2.6750098e-05
57	0xb76f5991	-1.4266364e-05
58	0xb92504ac	-0.00015737367
59	0xb665f846	-3.4268173e-06
60	0xb6fce767	-7.537124e-06
61	0x3719953d	9.154258e-06
62	0xb7034931	-7.82525e-06
63	0xb6cec2d7	-6.1619608e-06
64	0xbb57b389	-0.0032913408
65	0xba64d148	-0.0008728695
66	0xb98748df	-0.000258035
67	0xbac5a1ff	-0.0015078186
68	0xb964ad48	-0.00021808327
69	0x3a26dbb1	0.0006365134
70	0xb934c319	-0.00017238817
71	0xbb66b4ec	-0.0035203053
72	0x39b108c8	0.00033766613
73	0xbbb0dc08	-0.0053973235
74	0xbaefb7fa	-0.0018289082
75	0x39cd76b1	0.0003918908
76	0xbb0895ed	-0.0020841316
77	0x3a4e74bd	0.0007875672
78	0x3a951e69	0.0011376861
79	0x39ef542b	0.00045648342
80	0x388742f7	6.449775e-05
81	0x38ca7a7f	9.654927e-05
82	0xb8df02f9	-0.00010634022
83	0xb747a17f	-1.1898926e-05
84	0xb94c4c1d	-0.0001948331
85	0x37e1c721	2.6914817e-05
86	0x383669f9	4.3490876e-05
87	0x3aa96398	0.0012923358
88	0xb8ca655e	-9.650992e-05
89	0x384bbb4a	4.8573398e-05
90	0x39dc5b36	0.00042029627
91	0xb8f4b641	-0.00011668774
92	0xb82a7505	-4.064014e-05
93	0x3995ae08	0.00028549158
94	0xb96cf444	-0.0002259771
95	0xb893cc67	-7.047579e-05
96	0xbc50ed20	-0.0127518475
97	0xba9493e4	-0.0011335579
98	0x3a905f0a	0.0011014652
99	0xbb7648d6	-0.0037580035
100	0xba3ddf79	-0.0007243078
101	0xba489b2f	-0.00076525187
102	0xba985cb5	-0.0011624309
103	0xbc33ecd1	-0.010981754
104	0x3ad2ef18	0.0016092984
105	0xbc69dba6	-0.01427356
106	0xbaba1a95	-0.0014198596
107	0xba20c10f	-0.00061322836
108	0xbb9e827c	-0.0048373323
109	0x3b284150	0.0025673695
110	0x3ace3a06	0.0015733845
111	0x3a43012d	0.0007438835
112	0xbbc2e4d3	-0.005947688
113	0x3ad03bde	0.0015886982
114	0x38206ff9	3.8251255e-05
115	0xbb4f1af5	-0.003160176
116	0x39b5cb7b	0.00034674615
117	0xb98f59b1	-0.0002734191
118	0x399f5a07	0.0003039392
119	0xbc191794	-0.009344
120	0xbaf88373	-0.0018960073
121	0xbb446b1e	-0.0029971073
122	0x3bd4722c	0.006483337
123	0xba13bca9	-0.00056357175
124	0x3a798c25	0.00095194794
125	0x3a473dd5	0.0007600461
126	0xba673f04	-0.0008821341
127	0xba34bdca	-0.0006894736

spatial_filtering.senet.fc.2.weight f4 [16, 8]
0	0xb3ce4818	-9.605736e-08
1	0x3719ad48	9.159856e-06
2	0xb97a3789	-0.00023862546
3	0x3af19072	0.0018429889
4	0x3c1c790a	0.009550342
5	0xbbe4d806	-0.00698376
6	0xbb793092	-0.0038023335
7	0xba3a63a7	-0.0007110186
8	0x35fd3f11	1.8868324e-06
9	0x37f9dac7	2.978499e-05
10	0xb6b379a0	-5.3487747e-06
11	0x37a64217	1.9819518e-05
12	0x3ba6f2a2	0.005094842
13	0x38076c6a	3.2287477e-05
14	0x3c5016e1	0.012700767
15	0x3b6fdcd6	0.0036600134
16	0x34be2016	3.5413603e-07
17	0x366b1dcf	3.503508e-06
18	0x34490cda	1.8724259e-07
19	0x395c5528	0.00021012558
20	0x3ae21670	0.0017249119
21	0xb95cc8ab	-0.0002105559
22	0x3c0c54ab	0.008565108
23	0x3b297854	0.0025859075
24	0x3342f8d9	4.539547e-08
25	0xb4d506d1	-3.96793e-07
26	0x32338f22	1.0451716e-08
27	0x35b4a929	1.3460277e-06
28	0xbaaa224e	-0.0012980194
29	0xb64da9ac	-3.0646142e-06
30	0xb911b4b8	-0.000138956
31	0x394752e0	0.00019008992
32	0xb4d6ad3d	-3.9986654e-07
33	0xb9918165	-0.00027752962
34	0x32db71b8	2.5546669e-08
35	0x36f7f8a9	7.3901215e-06
36	0xbae75b9c	-0.0017651203
37	0xbbc84947	-0.006112251
38	0xbb84ee01	-0.0040566926
39	0xbb819ce1	-0.003955469
40	0x33f4f0b8	1.1405922e-07
41	0xb71cf4ef	-9.355353e-06
42	0xb3f40030	-1.13621695e-07
43	0x33e777f3	1.07785944e-07
44	0x38c9f97a	9.6308955e-05
45	0x39557818	0.00020358001
46	0x386b979d	5.6169567e-05
47	0x399a2611	0.0002940153
48	0x342323c2	1.5193567e-07
49	0xb6dc0421	-6.5569916e-06
50	0x330f5b68	3.3377916e-08
51	0x36bec5da	5.685474e-06
52	0x388b0648	6.6292065e-05
53	0xb6cbc7bf	-6.073125e-06
54	0xba9142c3	-0.0011082519
55	0xb968cb0d	-0.00022200886
56	0x341e7fbc	1.4761366e-07
57	0xb6746358	-3.641666e-06
58	0xb0619e6e	-8.2079665e-10
59	0x348c4699	2.61284e-07
60	0xb668f0e7	-3.4710918e-06
61	0x3548b075	7.4762585e-07
62	0xba42421a	-0.00074103626
63	0xb783ee9f	-1.5727534e-05
64	0xb461a0fe	-2.1013327e-07
65	0xb69d414b	-4.6865657e-06
66	0x34280c26	1.5650639e-07
67	0xb748bcf4	-1.1964923e-05
68	0x3ab84129	0.0014057505
69	0x37eeb84c	2.845763e-05
70	0x3b960105	0.0045777583
71	0x3b4984c3	0.0030749298
72	0x34db24b7	4.0818642e-07
73	0x3662b19e	3.378001e-06
74	0x33de4303	1.034987e-07
75	0x36d305e4	6.288976e-06
76	0xb9c5da6d	-0.00037737508
77	0x3708325a	8.117955e-06
78	0xbbc3b035	-0.0059719332
79	0xbb43ec2c	-0.0029895408
80	0x34e9c649	4.3543903e-07
81	0x3708b1f0	8.147661e-06
82	0x37578103	1.28450365e-05
83	0xb62f2890	-2.6100643e-06
84	0x3c81fecd	0.015868569
85	0xb8b186e3	-8.465142e-05
86	0x3caa2561	0.020769777
87	0xbd0d7b2e	-0.0345413
88	0x347cf47f	2.3558276e-07
89	0x36d0ed31	6.2264958e-06
90	0xb416081b	-1.3972787e-07
91	0x373bbb1d	1.1189634e-05
92	0xbb53677e	-0.003225773
93	0x3b4ca799	0.0031227826
94	0x3bbd6665	0.0057800286
95	0x3a89b437	0.0010505979
96	0xb3fb065d	-1.1689256e-07
97	0x37e8ee50	2.7767528e-05
98	0xb3a64e5a	-7.7442294e-08
99	0x360447a0	1.9711224e-06
100	0xb9949fc1	-0.00028347786
101	0xb77fd5fc	-1.52490065e-05
102	0xbae71f79	-0.0017633281
103	0xb9aa5ee1	-0.00032495617
104	0x35b8b558	1.3761846e-06
105	0x37952327	1.7778553e-05
106	0x397e704f	0.00024265166
107	0x35d40079	1.5795368e-06
108	0x394385c3	0.0001864648
109	0xb85b82b5	-5.23354e-05
110	0x3aac1d9e	0.0013131385
111	0x3a0965bb	0.0005241294
112	0x34af44b2	3.2646273e-07
113	0x36b4fbc8	5.393729e-06
114	0x3199e0bd	4.478436e-09
115	0xb6a69db9	-4.965547e-06
116	0xb99ac180	-0.00029517338
117	0xb7ec0943	-2.8137705e-05
118	0xbab07ae0	-0.0013464354
119	0x391435ba	0.00014134395
120	0x319ea43a	4.6170756e-09
121	0x378f81d8	1.7107392e-05
122	0xb31d9de4	-3.669801e-08
123	0xb7a91c47	-2.0159538e-05
124	0xb9f514a5	-0.00046745423
125	0xb8575299	-5.133692e-05
126	0xbaabfd0e	-0.0013121681
127	0xb93a9097	-0.00017792206

spatial_filtering.bn.weight f4 [16]
0	0x3f2d0324	0.6758292
1	0x3f5f4cc5	0.87226516
2	0x3f4a2b31	0.78972155
3	0x3f249c49	0.6430097
4	0x3f418b1e	0.756029
5	0x3f38fa09	0.72256523
6	0x3f0e73a3	0.556452
7	0x3f06dcb5	0.5268052
8	0x3f434a06	0.76284826
9	0x3f3eb182	0.74489605
10	0x3f6bf404	0.92169213
11	0x3f2cc85c	0.67493224
12	0x3f2e4783	0.6807787
13	0x3f54323e	0.82889163
14	0x3f2d20bc	0.67628074
15	0x3f32d371	0.69853884

spatial_filtering.bn.bias f4 [16]
0	0xbc1ea56b	-0.009682993
1	0xbd1f3719	-0.038870905
2	0xbdaabefb	-0.08337208
3	0xbced8cfb	-0.028997889
4	0xbe0a4cbf	-0.13505839
5	0xbd3de4b9	-0.046360705
6	0x3c7082a1	0.014679582
7	0xbcb3c373	-0.021943783
8	0xbd4d9569	-0.050191317
9	0xbdd02629	-0.101635285
10	0xbd9950f4	-0.07486144
11	0xbd8ad9d3	-0.06779828
12	0xbd01af40	-0.031661272
13	0xbde4f117	-0.11178797
14	0xbd40fc67	-0.04711571
15	0x3a552180	0.0008130297

spatial_filtering.bn.running_mean f4 [16]
0	0xbd26d4e0	-0.040730357
1	0x3d2ff705	0.042960186
2	0x3cae7a25	0.021298477
3	0xbc9966e0	-0.018725812
4	0x3d00710f	0.03135782
5	0xbd7f80cf	-0.0623787
6	0xbcd49ebb	-0.025954595
7	0xbc965090	-0.018348962
8	0xbc21abc3	-0.009867611
9	0xbc6774f6	-0.014127007
10	0x3d8aa87c	0.06770417
11	0xbd534ddd	-0.051587928
12	0x3d249255	0.040178616
13	0x3cdbb1e1	0.026818218
14	0xbd0e7772	-0.03478188
15	0xbd04e284	-0.032442585

spatial_filtering.bn.running_var f4 [16]
0	0x3ca51afa	0.020154465
1	0x3caca607	0.021075262
2	0x3c8175da	0.015803266
3	0x3be40ac2	0.0069592902
4	0x3cd8372d	0.026393497
5	0x3c461209	0.012089261
6	0x3c0ac069	0.008468726
7	0x3c11b11d	0.008892325
8	0x3d2e1462	0.042499907
9	0x3c63765c	0.0138832
10	0x3cceb2fb	0.025231829
11	0x3d0494ae	0.032368354
12	0x3cc01994	0.023449697
13	0x3d19f53f	0.0375874
14	0x3d059751	0.03261501
15	0x3d381103	0.0449381

feature_compression.depthwise_conv.weight f4 [16, 1, 1, 32]
0	0x3d2ed2e2	0.042681582
1	0xbada498e	-0.0016654001
2	0x3d61962e	0.055074863
3	0xbdc13e98	-0.09435767
4	0x3d484406	0.048892997
5	0x3d1b66dc	0.03793989
6	0xbd4fe274	-0.050753072
7	0x3cf3e3b5	0.029771665
8	0x3cfe19a2	0.031018082
9	0x3e143f28	0.14477217
10	0x3de9e146	0.114199206
11	0x3db34a78	0.08754438
12	0x3d910f4c	0.07082996
13	0xbbc6de58	-0.006068986
14	0x3d750529	0.059819374
15	0xbd30c3ed	-0.0431556
16	0x3c4f0ea5	0.012637769
17	0xbd8cb77a	-0.06870933
18	0x3e244099	0.16040267
19	0x3cccd3c4	0.025003321
20	0x3dfad8bd	0.12248371
21	0x3e0736d6	0.13204512
22	0xbdfc4f65	-0.12319831
23	0xbddfffa6	-0.10937433
24	0xbca7d194	-0.020485677
25	0x3d329e79	0.043608163
26	0x3ccde72d	0.025134647
27	0x3d2a4ba4	0.041576043
28	0x3cbae498	0.02281408
29	0x3dc4d00c	0.09609994
30	0x3c51dd2a	0.012809077
31	0xbc48a8cb	-0.012247275
32	0x3ce4ccd6	0.027929705
33	0x3d9dbc34	0.077019125
34	0x3d3bd7f1	0.045860235
35	0x3c7a4318	0.015274785
36	0x3cbc26c3	0.022967702
37	0x3cea3d36	0.02859364
38	0x3c0e1711	0.008672492
39	0x3d137787	0.036002662
40	0x3ded96fc	0.116010636
41	0xbca3ae29	-0.019980507
42	0x3cb05e70	0.021529406
43	0x3e340986	0.17581758
44	0x3de57dfc	0.1120567
45	0x3e463721	0.19356968
46	0xba31bae9	-0.0006779866
47	0x3e277831	0.16354443
48	0xbd03c2aa	-0.032168068
49	0xbde3a2ed	-0.1111506
50	0xbd945093	-0.07241931
51	0x3e0f0ce6	0.13969764
52	0xbdada7f1	-0.08479298
53	0x3dfa1d38	0.12212604
54	0x3e1b068d	0.15139218
55	0xbd9eb3f2	-0.077491656
56	0x3d77f4ab	0.060536068
57	0x3e139e07	0.14415751
58	0x3b65511c	0.0034990972
59	0xbd62353b	-0.055226546
60	0xbe03bfd6	-0.12866148
61	0xbe23cd5d	-0.15996309
62	0xbdf494b0	-0.119424224
63	0xbdebac82	-0.11507513
64	0x3e145d52	0.14488724
65	0x3d1a0329	0.03760067
66	0x3dc9c471	0.09851921
67	0x3d6782a5	0.056521077
68	0xbe1a75ba	-0.15083972
69	0x3d2832fb	0.041064244
70	0x3d9407b0	0.07228029
71	0xbd836c48	-0.064171374
72	0x3d34334d	0.043994237
73	0xbe3fc61c	-0.18727916
74	0x3942376e	0.00018521931
75	0xbe0a523e	-0.13507935
76	0x3cc5fcd7	0.024168415
77	0xbe2d9d03	-0.16954426
78	0x3b9d39c8	0.004798148
79	0xbdb9aade	-0.090657935
80	0xbe3ba6e0	-0.18325377
81	0x3d30de29	0.04318062
82	0x3d70e587	0.058812644
83	0xbd197523	-0.037465226
84	0x3d943048	0.072357714
85	0xbcbf1243	-0.023324138
86	0x3c5539fe	0.013014315
87	0xbd7a7902	-0.06115056
88	0x3c1a8ed0	0.009433463
89	0x3d7f27e3	0.0622939
90	0x3dbce9d3	0.09224286
91	0x3e24856c	0.16066521
92	0x3e19bb0b	0.15012757
93	0x3e1b7b26	0.15183696
94	0x3e18099d	0.14847417
95	0x3d0faf35	0.0350792
96	0x3e1cba63	0.15305476
97	0x3de72ef5	0.11288253
98	0x3a80e7e0	0.0009834729
99	0xbd9d0c57	-0.07668369
100	0x3d17692d	0.036965538
101	0xbd5c6f80	-0.053817272
102	0x3d960d13	0.073267125
103	0xbb9a3ff2	-0.00470733
104	0xbd5ccec3	-0.05390812
105	0xbddb0488	-0.10694224
106	0xbe0479e2	-0.1293712
107	0x3bf837f4	0.0075750295
108	0xbe051e3a	-0.12999812
109	0xbc870da8	-0.016486004
110	0xbdbf28d2	-0.09333958
111	0xbdbd4508	-0.09241682
112	0xbd800569	-0.06251032
113	0x3da680f1	0.08130062
114	0x3d9129fa	0.070880845
115	0xbd462f15	-0.048384745
116	0x3d61c681	0.05512095
117	0xbd931289	-0.0718127
118	0xbdfd6d08	-0.12374312
119	0xbccc2cef	-0.02492377
120	0x3ddbce96	0.107327625
121	0x3d921dfe	0.07134627
122	0xbc5cccdf	-0.013476579
123	0x3df541f3	0.119754694
124	0xbda76de3	-0.08175256
125	0xbd26b42e	-0.040699176
126	0x3e1e3b8e	0.15452406
127	0x3e192555	0.14955647
128	0xbd0a5ead	-0.033781696
129	0xbe30540b	-0.1721956
130	0x3d8ea107	0.06964307
131	0xbe1b1f34	-0.15148622
132	0x3bdb6131	0.0066949357
133	0xbe0e553d	-0.13899703
134	0xbcc5fcfe	-0.024168488
135	0xbdf118b0	-0.11772287
136	0xbcfba0d3	-0.030716335
137	0x3d37bc0f	0.04485708
138	0xbdcacbe3	-0.099021696
139	0xbddfe3ed	-0.10932145
140	0x3d557e2e	0.052122287
141	0xbdd5b79b	-0.104354106
142	0x3b5461a9	0.0032406843
143	0xbc691944	-0.014227215
144	0xbdb01491	-0.08597673
145	0x3dc81175	0.09768955
146	0xbc551eb2	-0.013007807
147	0xbde99a40	-0.11406374
148	0x3b6df0e8	0.0036306921
149	0xbb1594f0	-0.002282437
150	0xbc062352	-0.008187132
151	0x3d8867f7	0.06660455
152	0x3e105ad7	0.14097153
153	0xbd31907c	-0.04335068
154	0xbc850a91	-0.01624039
155	0xbb1a693c	-0.002356126
156	0x3d357b50	0.044307053
157	0xbd5a9421	-0.053363923
158	0x3cef0742	0.029178265
159	0x3dcbf007	0.09957891
160	0xbd29a532	-0.04141731
161	0xbd011a33	-0.031519126
162	0x3db82f8b	0.08993443
163	0x3d5b711c	0.053574666
164	0xbe1cddb7	-0.15318953
165	0xbdcbc7f1	-0.09950245
166	0xbd357b6e	-0.044307165
167	0xbd0bb92f	-0.03411215
168	0x3d2c61c3	0.04208542
169	0xbdcb135f	-0.09915804
170	0xbb8d9901	-0.004321218
171	0xbdd0ff24	-0.10204914
172	0x3d6dcf66	0.05805912
173	0x3d39766f	0.045278963
174	0xbdc6d9af	-0.097094886
175	0xbbd4b815	-0.006491671
176	0x3b7fd02c	0.0039033992
177	0x3d7e464b	0.062078755
178	0x3de307c8	0.110854685
179	0x3b18a30b	0.002329054
180	0x3d96cead	0.07363639
181	0xbbb5d7a6	-0.005549389
182	0xbc3043a8	-0.010758318
183	0xbb516fa2	-0.0031957407
184	0xbdddbedb	-0.108274184
185	0x3d1e16bc	0.0385959
186	0x3d2282a4	0.03967537
187	0xbbd61794	-0.0065335725
188	0xbdd6ac84	-0.104821235
189	0xbdf15999	-0.117846675
190	0xbcf44f0c	-0.029822849
191	0xbe00758d	-0.12544842
192	0xbd975338	-0.073889196
193	0xbd9f28b5	-0.07771436
194	0xbd07785c	-0.033073768
195	0xbd5d980f	-0.054100093
196	0xbda50201	-0.08057023
197	0xbc7b61fa	-0.015343184
198	0x3d3b3389	0.045703445
199	0x3d140f8c	0.03614764
200	0xbd3ef049	-0.046615873
201	0x3e0109ed	0.12601443
202	0x3d99599c	0.07487795
203	0xbb97aaef	-0.004628531
204	0xbdc2de8c	-0.09515104
205	0xbdad79ec	-0.084705204
206	0x3ca68d52	0.020331059
207	0x3b80ef40	0.003934771
208	0x3dcdcc37	0.100487165
209	0x3e005d39	0.12535562
210	0x3d5817bc	0.05275701
211	0x3df857b1	0.12126101
212	0x3d804b44	0.06264356
213	0x3d09edb6	0.033673964
214	0x3d177eb6	0.036986075
215	0xbdc9a009	-0.098449774
216	0xbdaf234f	-0.085516565
217	0xbdb7413a	-0.08947988
218	0x3d60a325	0.054843087
219	0xbd05f10e	-0.03270059
220	0x3c0b4e6d	0.008502585
221	0x3d0b9b8f	0.0340839
222	0x3d36fef5	0.04467674
223	0x3c5cab98	0.0134686455
224	0x3d6d5bea	0.057948984
225	0xbd812c96	-0.06307332
226	0xbda6d853	-0.08146729
227	0x3cc32bc9	0.02382459
228	0x3e11c18b	0.14233987
229	0xbd26a167	-0.04068127
230	0x3e0f8bbd	0.1401815
231	0xbddb4ef9	-0.10708422
232	0xbcee45a7	-0.029085947
233	0xbda96bc6	-0.08272509
234	0xbd90d83c	-0.070724934
235	0x3ca53021	0.020164551
236	0xbdb4a637	-0.088207655
237	0xbbc4c3fe	-0.0060048094
238	0x3ddb5b19	0.10710735
239	0x3c2219ff	0.009893893
240	0x3dccffa6	0.100096986
241	0xbdfa9dc7	-0.12237125
242	0xbc2338ae	-0.009962244
243	0x3c5c52ef	0.013447507
244	0xbd64f0ae	-0.055893593
245	0x3d77c6af	0.060492214
246	0xbd2edb07	-0.04268935
247	0x3d0f7837	0.035026755
248	0xbdc83e97	-0.09777563
249	0x3dd05403	0.10172274
250	0xbbc6a063	-0.0060616
251	0xbbb8ae2b	-0.005635997
252	0xbd9602ed	-0.07324777
253	0x3db619d9	0.08891649
254	0xbca924e4	-0.020647474
255	0x3d5de108	0.054169685

feature_compression.depthwise_conv.bias f4 [16]
0	0x351298a0	5.4611337e-07
1	0xb4a86a71	-3.1369885e-07
2	0x34a9cf40	3.1629497e-07
3	0xb3ee01f6	-1.1083095e-07
4	0x354e1a7c	7.677952e-07
5	0x3503f13c	4.9152345e-07
6	0xb418906a	-1.420864e-07
7	0xb50d0169	-5.2528645e-07
8	0xb4ec3fc0	-4.400481e-07
9	0x3488b90b	2.546661e-07
10	0x359e53cb	1.1796304e-06
11	0xb2be5ecd	-2.2162022e-08
12	0x3487ba52	2.5281275e-07
13	0x353dea23	7.07487e-07
14	0x3304d19a	3.0924276e-08
15	0xb50a6225	-5.1551825e-07

feature_compression.pointwise_conv.weight f4 [16, 16, 1, 1]
0	0xbd586dc2	-0.05283905
1	0x3deaa701	0.11457635
2	0x3d6158ed	0.055016447
3	0x3dfe563e	0.12418793
4	0x3c2d411d	0.010574606
5	0x3c85bd29	0.01632555
6	0x3df97a02	0.12181474
7	0xbd29fb71	-0.04149956
8	0x3e50b759	0.20382442
9	0xbc18be44	-0.009322707
10	0x3cab83b6	0.020936828
11	0xbe0e7aa2	-0.13913968
12	0xbd0a3d90	-0.033750117
13	0xbe25cd09	-0.16191496
14	0x38b6f51e	8.724093e-05
15	0x3d9f0b79	0.0776586
16	0x3ce99da5	0.028517554
17	0xbe4cc1af	-0.1999576
18	0xbc305b1c	-0.01076391
19	0xbc1ed62d	-0.009694618
20	0x3e3c1326	0.1836668
21	0xbc93e6d6	-0.018054407
22	0xbd441851	-0.047874752
23	0xbd6b2ed3	-0.057417702
24	0xbe49edcd	-0.1971962
25	0x3cdf7841	0.027279021
26	0x3e35fb1a	0.17771569
27	0xbd57b2a8	-0.052660614
28	0x3d882486	0.06647591
29	0x3e01334e	0.12617227
30	0xbd443d19	-0.04790983
31	0xbe2f0a29	-0.1709372
32	0xbe127989	-0.14304174
33	0xbe1576af	-0.14596055
34	0x3ae293a1	0.0017286428
35	0xbdb1405a	-0.08654852
36	0x3d8c9d4d	0.0686594
37	0x3ba90528	0.0051580854
38	0xbdd75c9f	-0.10515713
39	0x3d8ec000	0.06970215
40	0xbe5ad6e1	-0.21371032
41	0xbd46394d	-0.04839449
42	0x3d0d0135	0.03442498
43	0xbdd78996	-0.10524289
44	0xbe079d2a	-0.13243547
45	0xbc02156b	-0.007939677
46	0x3e1430f2	0.14471796
47	0xbdbd0406	-0.09229283
48	0xbe088b12	-0.13334301
49	0xbe48da63	-0.19614558
50	0xbd83dfee	-0.064391956
51	0x3d7d56b0	0.06185025
52	0x3c99313d	0.018700236
53	0xbd999750	-0.07499564
54	0xbe0372fd	-0.12836833
55	0xbcbd8378	-0.023133978
56	0xbe62013f	-0.22070788
57	0x3e044560	0.1291709
58	0xbd8c62aa	-0.06854756
59	0xbcfbd8b2	-0.030742977
60	0x3d4156c5	0.04720189
61	0x3c470534	0.012147237
62	0x3e25923b	0.16169064
63	0x3dc7247e	0.09723757
64	0xbc1d9846	-0.009618824
65	0x3e1cef3e	0.15325639
66	0x3b070635	0.0020603065
67	0xbdbd7190	-0.09250176
68	0xbc37ad1d	-0.011210707
69	0x3e183dee	0.14867374
70	0x3cbd0273	0.023072457
71	0xbd6e4fe5	-0.058181662
72	0x3de4eba9	0.11177761
73	0x3d4f0ce5	0.050549407
74	0xbdd0395e	-0.10167192
75	0xbe0d3aac	-0.13791913
76	0xbd79eaa1	-0.061014775
77	0xbe0aee5d	-0.13567491
78	0xbe5962e2	-0.21229127
79	0x3e2b4918	0.16727102
80	0x3d70e9d3	0.058816742
81	0x3e15812c	0.14600056
82	0x3e6e1c99	0.23253097
83	0x3e2f0203	0.17090611
84	0x3d5eb5ba	0.054372527
85	0xbe17508c	-0.1477682
86	0x3deda3ee	0.11603533
87	0x3d3507c1	0.044196848
88	0xbde44bdc	-0.111472815
89	0xbe0451e0	-0.12921858
90	0xbc618f1c	-0.01376703
91	0x3c764a1f	0.01503232
92	0x3dc0e129	0.09417946
93	0x3e41b436	0.18916401
94	0xbe023cf5	-0.12718566
95	0xbc897522	-0.016779486
96	0x3cb60a94	0.02222184
97	0xba2425d6	-0.00062617415
98	0x3cf6c750	0.030124336
99	0x3c246e6f	0.010036095
100	0x3dbf6588	0.093455374
101	0x3df54b33	0.11977234
102	0x3e13e553	0.14442949
103	0xbdcc6d99	-0.099818416
104	0x3dabe5bb	0.08393427
105	0x3dc31f40	0.09527445
106	0x3e587d43	0.21141534
107	0x3e554fe7	0.20831262
108	0x3e100565	0.14064558
109	0xbcbf7d04	-0.023375042
110	0x3cb7ac9a	0.02242117
111	0xbdd91d3b	-0.106012784
112	0xbdfc3fe1	-0.123168714
113	0x3e3b2657	0.18276344
114	0xbe4d108e	-0.20025846
115	0xbe051d38	-0.12999427
116	0xbd90ed73	-0.0707654
117	0xbcd29690	-0.02570656
118	0xbcd4dafd	-0.025983328
119	0x3e0e416e	0.13892147
120	0xbdb793db	-0.08963748
121	0x3e1e2099	0.15442123
122	0xbd185ea5	-0.037199635
123	0xbe35f07c	-0.17767519
124	0xbe4c8bcf	-0.19975208
125	0x3e122204	0.14270788
126	0xbe10b369	-0.1413094
127	0x3e59697e	0.21231648
128	0xbdc2b275	-0.09506694
129	0x3ddd1df3	0.10796728
130	0x3c8a2751	0.01686445
131	0x3e0706fc	0.13186258
132	0x3da2d1f4	0.07950202
133	0x3e45983e	0.19296357
134	0x3d0b79a2	0.034051545
135	0x3da186b5	0.078870215
136	0xbca8b9b6	-0.020596366
137	0xbb077a8e	-0.0020672414
138	0x3e4c1998	0.19931638
139	0xbd1c11aa	-0.038102783
140	0xbe52b6c5	-0.20577534
141	0x3d95ab47	0.07308059
142	0xbc2906ef	-0.0103165945
143	0x3d8210a8	0.06350833
144	0xbe035d5a	-0.1282858
145	0xbe008ce1	-0.12553741
146	0x3e90ca18	0.28279185
147	0xbe1d245d	-0.15345903
148	0xbd91e108	-0.071229994
149	0x3e1e5e27	0.15465604
150	0xbe0b63ba	-0.13612261
151	0x3dc0c233	0.094120406
152	0xbd3324cb	-0.04373626
153	0x3c1b1af6	0.009466877
154	0xbe4440b0	-0.19165301
155	0x3d726e65	0.05918731
156	0xbc062cf0	-0.008189425
157	0xbe027ff1	-0.12744118
158	0x3d28c89e	0.04120695
159	0x3d8469fe	0.06465529
160	0x3da23e92	0.079220906
161	0x3e752c6d	0.23942728
162	0x3d037296	0.0320917
163	0xbe1ecc8b	-0.15507714
164	0xbe3eaff5	-0.1862181
165	0xbd7e9bf7	-0.06216046
166	0xbc7c3251	-0.015392856
167	0xbd6fdcd4	-0.058560207
168	0x3c367c4e	0.011138035
169	0xbda98ab8	-0.082784116
170	0x3dbfccc5	0.093652286
171	0x3ceffed5	0.029296318
172	0xbdd4d24e	-0.10391675
173	0xbe6fd82e	-0.2342231
174	0xbda1a3e2	-0.07892586
175	0xbd9cb540	-0.07651758
176	0x3db06f29	0.08614952
177	0x3d97f35e	0.074194655
178	0xbd145408	-0.03621295
179	0x3d1afcbd	0.037838686
180	0xbe3eedbd	-0.18645377
181	0x3dee1989	0.11625964
182	0xbda80303	-0.082036994
183	0xbda6b84c	-0.081406206
184	0xbda853d0	-0.08219111
185	0xbe3b9baf	-0.18321107
186	0x3e036440	0.12831211
187	0xbddf3f6a	-0.10900767
188	0xbe19d450	-0.15022397
189	0xbe51a2ee	-0.20472309
190	0xbd672e5e	-0.056440704
191	0x3d2314ef	0.039814886
192	0xbdf42671	-0.119213946
193	0x3d587811	0.05284888
194	0x3e3de3b9	0.185439
195	0x3e3a3163	0.18182902
196	0x3e0159be	0.1263189
197	0x3d84218f	0.06451713
198	0x3ce24564	0.027620979
199	0x3dab6f67	0.08370858
200	0xbdf13b3b	-0.117788754
201	0xbe22336b	-0.15839927
202	0xbd106cac	-0.035259888
203	0xbd96f93f	-0.07371759
204	0x3e0e9529	0.13924088
205	0x3dd75a42	0.10515262
206	0xbdd62144	-0.10455564
207	0x3d73d4e0	0.059529185
208	0xbe2ea502	-0.17055133
209	0x3cfdec9d	0.030996615
210	0x3c9a9c58	0.018873379
211	0x3e2f6f3a	0.17132273
212	0xbe36e78e	-0.17861769
213	0x3e0749e9	0.13211788
214	0x3d37ac55	0.044842083
215	0x3e08b77a	0.13351241
216	0xbdf01ca1	-0.117242105
217	0xbd2e01b4	-0.042482093
218	0x3e4251b4	0.1897648
219	0x3e12e5ff	0.14345549
220	0xbdaf43c8	-0.0855785
221	0x3e4f070f	0.20217536
222	0x3df9b436	0.12192576
223	0x3e2d42f5	0.16920073
224	0xbde6ed82	-0.1127577
225	0x3dd76993	0.105181836
226	0xbe47b6b8	-0.19503295
227	0x3d856eaf	0.06515252
228	0xbdc03d7d	-0.09386728
229	0xbddd853a	-0.108164266
230	0xbda793fc	-0.08182523
231	0x3cf9e504	0.030504711
232	0xbd4dfc74	-0.050289586
233	0xbe025780	-0.12728691
234	0x3d3672ed	0.044543196
235	0xbe3ee1ba	-0.18640795
236	0xbdca5b32	-0.098806754
237	0x3d82cc00	0.06386566
238	0xbe07d360	-0.13264227
239	0x3e4236d4	0.18966228
240	0x3dfaac18	0.122398555
241	0x3cbe4e24	0.02323062
242	0xbdb29597	-0.08719938
243	0x3c9346ce	0.017978098
244	0x3db7d1da	0.08975573
245	0x3e488f95	0.19586022
246	0x3b5719bc	0.0032821735
247	0x3cc1a887	0.02363993
248	0xbe18b6e5	-0.14913519
249	0x3d71dcf1	0.059048597
250	0x3e957b67	0.2919571
251	0xbd2565d7	-0.040380325
252	0x3e156c9c	0.14592212
253	0xbdca0285	-0.09863762
254	0x3d273839	0.040825102
255	0xbe2c49f7	-0.1682509

feature_compression.pointwise_conv.bias f4 [16]
0	0x35630ba4	8.458103e-07
1	0xb6b1b388	-5.2959113e-06
2	0x34d3b32b	3.9432175e-07
3	0x35525114	7.834908e-07
4	0x359a92e3	1.1516644e-06
5	0x35761c26	9.16831e-07
6	0x360b6454	2.0771013e-06
7	0x35196c31	5.715438e-07
8	0x351a6c89	5.752741e-07
9	0x351b0813	5.775375e-07
10	0xb4440124	-1.8254337e-07
11	0x3483b5eb	2.4533014e-07
12	0x329dd9aa	1.8376188e-08
13	0xb4d8d9dc	-4.039165e-07
14	0x39ee1a80	0.00045414641
15	0x389365bc	7.028456e-05

feature_compression.senet.fc.0.weight f4 [8, 16]
0	0xb3eba1cb	-1.097247e-07
1	0x350b66fb	5.193139e-07
2	0xb505cbc1	-4.984286e-07
3	0x33176182	3.524611e-08
4	0xb1cf9278	-6.0411445e-09
5	0xb456dd06	-2.0010711e-07
6	0xb42becbb	-1.6011738e-07
7	0xb54047b9	-7.1629944e-07
8	0xb4e7a7b7	-4.3149132e-07
9	0xb4ace325	-3.2202766e-07
10	0x32be6b1f	2.2167624e-08
11	0x352ada9e	6.3648065e-07
12	0xb59d1f13	-1.1706455e-06
13	0xb4fef667	-4.7490468e-07
14	0xb443effc	-1.8248096e-07
15	0x342056d2	1.4932746e-07
16	0xb63d2d95	-2.8189727e-06
17	0xb6a00bcd	-4.7697454e-06
18	0x361dd020	2.3515968e-06
19	0xb733c6a0	-1.0715477e-05
20	0xb66e7261	-3.553134e-06
21	0x35e2f985	1.6910932e-06
22	0xb6a61a0f	-4.950219e-06
23	0xb683bb1c	-3.9258866e-06
24	0xb69139af	-4.328052e-06
25	0xb68221df	-3.878245e-06
26	0x35721d83	9.019497e-07
27	0x371e84a2	9.448415e-06
28	0x36a409f3	4.888739e-06
29	0xb69d27c8	-4.6835958e-06
30	0xb544521b	-7.313517e-07
31	0x3543bb09	7.291533e-07
32	0xba6da0e6	-0.0009064808
33	0x36afe8be	5.242501e-06
34	0xb748668d	-1.1944806e-05
35	0xb836991a	-4.353477e-05
36	0x359ffb40	1.1919547e-06
37	0xb598461b	-1.1345286e-06
38	0xb6cbf8bb	-6.0788275e-06
39	0xb7b45533	-2.1497346e-05
40	0xb80160ad	-3.0846033e-05
41	0xb668984e	-3.4659347e-06
42	0xb7dfdc08	-2.6686132e-05
43	0xb5fc1c8a	-1.8783769e-06
44	0x3580eec8	9.606238e-07
45	0xb7b5856c	-2.163901e-05
46	0xb777ecc5	-1.47774745e-05
47	0xb7385414	-1.0986831e-05
48	0xb6ff55c9	-7.609579e-06
49	0x3b37d1fa	0.002804874
50	0x38d259a1	0.00010030275
51	0x398a4d3e	0.0002637896
52	0xb8e98c6f	-0.000111364636
53	0xb7494308	-1.19961405e-05
54	0x393ce5f2	0.00018014738
55	0x378dd0b5	1.6905697e-05
56	0x3af1eb1e	0.0018456911
57	0x38fa6bc0	0.00011940999
58	0xb97c495e	-0.00024059924
59	0xb9cc457f	-0.0003896169
60	0x38ae1285	8.300416e-05
61	0x3af0f341	0.0018383042
62	0xb930d713	-0.0001686479
63	0x390ef453	0.00013633193
64	0x357b8fba	9.3713936e-07
65	0xb608a222	-2.0359953e-06
66	0xb5b66ff2	-1.3592637e-06
67	0xb5c7cce4	-1.4886286e-06
68	0x365fd2c4	3.3352271e-06
69	0xb51fd994	-5.9548734e-07
70	0x344cc262	1.9069697e-07
71	0xb671e63a	-3.6045808e-06
72	0x34bf8c2d	3.5678514e-07
73	0x36af0745	5.2162527e-06
74	0x369c5f12	4.66023e-06
75	0xb6e1b823	-6.726959e-06
76	0x367cece6	3.768882e-06
77	0x35790e2a	9.278034e-07
78	0x3531a923	6.6183765e-07
79	0x34f1fca9	4.5073583e-07
80	0xb731bb8e	-1.0593691e-05
81	0xb681bd0d	-3.866508e-06
82	0xb63f1099	-2.847088e-06
83	0xb70f2f96	-8.534544e-06
84	0xb743d458	-1.1672346e-05
85	0xb7a999b7	-2.0217949e-05
86	0xb76f4df8	-1.4263664e-05
87	0xb572241e	-9.020458e-07
88	0x388750ed	6.452375e-05
89	0x3989061f	0.00026135237
90	0xb763c3d4	-1.3575849e-05
91	0x36eb4ce2	7.012496e-06
92	0xb6be3371	-5.66843e-06
93	0x36cc4320	6.087488e-06
94	0xb7907b56	-1.722357e-05
95	0xb7bc6df1	-2.2462542e-05
96	0x327f0e94	1.4846268e-08
97	0x3430293d	1.640628e-07
98	0xb4abce8f	-3.2001523e-07
99	0x34c1d20a	3.6101875e-07
100	0x3482b3d2	2.4345223e-07
101	0xb3ccd5e8	-9.5383996e-08
102	0xb3437753	-4.55105e-08
103	0x353db367	7.066905e-07
104	0xb431da21	-1.6563764e-07
105	0xb5284a93	-6.2693397e-07
106	0xb448f626	-1.8716e-07
107	0xb4f378fa	-4.53503e-07
108	0xb4ccf4a6	-3.8175966e-07
109	0xb5045c9e	-4.930861e-07
110	0x34dfcbb3	4.1685198e-07
111	0xb4701f60	-2.2363156e-07
112	0x362b6e6e	2.5545264e-06
113	0x39df5b86	0.00042602065
114	0xb639af7e	-2.7669298e-06
115	0x37e92e0d	2.7797209e-05
116	0xb7ca4e2a	-2.4116674e-05
117	0x376df506	1.418335e-05
118	0x37450c42	1.1744969e-05
119	0x36ef6867	7.134909e-06
120	0xb6aad82e	-5.0915614e-06
121	0x3944b1ec	0.00018758298
122	0xb7a59667	-1.973957e-05
123	0xb806ebde	-3.2167758e-05
124	0x38bf016a	9.107853e-05
125	0x36c2a9aa	5.801402e-06
126	0x391ce6e9	0.0001496334
127	0xb63ed672	-2.843703e-06

feature_compression.senet.fc.2.weight f4 [16, 8]
0	0xb2c87093	-2.3334257e-08
1	0xb50c1683	-5.2186823e-07
2	0xb6928e7f	-4.367728e-06
3	0x3a14d108	0.00056769
4	0xb497fd2e	-2.8310154e-07
5	0xb6a155b7	-4.8081524e-06
6	0x366d8739	3.5394462e-06
7	0xb6816337	-3.8560497e-06
8	0x32dbcde2	2.558858e-08
9	0x35a0211c	1.1930565e-06
10	0x36f410d9	7.273728e-06
11	0x3a70fa2f	0.00091925537
12	0xb402043e	-1.2108737e-07
13	0x3a67836e	0.0008831535
14	0xb39f0c6e	-7.4062754e-08
15	0x352a32ad	6.340368e-07
16	0x343e9e4d	1.7752718e-07
17	0xb8945922	-7.073792e-05
18	0xb8159f36	-3.5672645e-05
19	0x39ab8e85	0.00032721847
20	0x34da816c	4.069983e-07
21	0x354a5407	7.537314e-07
22	0xb237fc85	-1.0709418e-08
23	0x368b61e5	4.1539192e-06
24	0xb3d0aca8	-9.717161e-08
25	0xb58ddcea	-1.0569613e-06
26	0xb71e9762	-9.45278e-06
27	0x384343ac	4.6554647e-05
28	0x33796783	5.8068974e-08
29	0x35c74bcc	1.4848715e-06
30	0x325c66d1	1.2829063e-08
31	0x35d23ba7	1.566358e-06
32	0xb45ac398	-2.0373989e-07
33	0xb5077ee2	-5.047606e-07
34	0xb61d79ab	-2.3465643e-06
35	0x38551b71	5.0808714e-05
36	0xb412b89e	-1.3664473e-07
37	0xb5f6a7b9	-1.8377242e-06
38	0xb2149cd3	-8.6503915e-09
39	0x360e9371	2.124547e-06
40	0x33e59d69	1.0692276e-07
41	0xb5d75b49	-1.6045316e-06
42	0x3695ac6e	4.4606195e-06
43	0x38b96c75	8.841689e-05
44	0xb732dba0	-1.0660762e-05
45	0x36d987af	6.4828996e-06
46	0x32a4f527	1.9203595e-08
47	0x3a882b4b	0.0010388879
48	0x366b153a	3.5030084e-06
49	0x305464c6	7.726836e-10
50	0x370b48f8	8.302035e-06
51	0x386b2bca	5.6069148e-05
52	0xb2f76206	-2.879916e-08
53	0xb690ffb3	-4.3213017e-06
54	0x3368033c	5.401965e-08
55	0xb4e435dd	-4.25075e-07
56	0x34076200	1.2608507e-07
57	0x3569d761	8.711268e-07
58	0x35f40e59	1.8183592e-06
59	0xb7e43854	-2.7205948e-05
60	0x33086ec2	3.17657e-08
61	0xb8a93131	-8.0677106e-05
62	0xb7c38a9d	-2.3310358e-05
63	0x36b1f6c3	5.303738e-06
64	0x349244b1	2.72446e-07
65	0x35905f35	1.0756545e-06
66	0xb6c8fa2a	-5.9895874e-06
67	0x378242d5	1.5528329e-05
68	0x332ca21a	4.01943e-08
69	0x36fa53e4	7.4603468e-06
70	0xb3100009	-3.3527645e-08
71	0x3910aa2c	0.00013796304
72	0xb3929207	-6.825217e-08
73	0xb5475c0f	-7.426724e-07
74	0x36c47a2e	5.855479e-06
75	0xb81f6485	-3.800217e-05
76	0x354590d5	7.359898e-07
77	0xb588e3c1	-1.0199075e-06
78	0xb32ec954	-4.069564e-08
79	0x38fb93ca	0.000119961405
80	0xb436c492	-1.7021583e-07
81	0x35c925f1	1.4986709e-06
82	0x35daadcc	1.6292847e-06
83	0xb7b8d5bb	-2.2034035e-05
84	0x393c5f2f	0.00017964536
85	0x38ae1ff1	8.302916e-05
86	0xb14cfbfe	-2.9829148e-09
87	0x3769f517	1.3944947e-05
88	0xb2e7f50a	-2.700337e-08
89	0xb63e457d	-2.8352654e-06
90	0xb70046e4	-7.6459e-06
91	0x376724b4	1.3777219e-05
92	0x3506376a	4.999953e-07
93	0x36b2b5b7	5.325968e-06
94	0xb28b490e	-1.6214951e-08
95	0xb94e0aaa	-0.00019649664
96	0xb34201ab	-4.5170662e-08
97	0xb4d23a05	-3.9157763e-07
98	0x3686e951	4.020673e-06
99	0xb8a75b53	-7.980191e-05
100	0xb48d5547	-2.6325344e-07
101	0xb5897986	-1.0242663e-06
102	0xb2c0ee8f	-2.2460226e-08
103	0xb5f5b014	-1.8305168e-06
104	0x348879b1	2.5420516e-07
105	0xb5227fa8	-6.0535467e-07
106	0x354e4405	7.683996e-07
107	0x3aa38487	0.0012475409
108	0x340be939	1.303023e-07
109	0xb6ae3951	-5.1922766e-06
110	0xb2a71c11	-1.9454122e-08
111	0x3a2a1a26	0.0006488882
112	0xb73e2190	-1.1332697e-05
113	0x3713e521	8.815231e-06
114	0xbab0259b	-0.0013438942
115	0x3bd3d40a	0.006464486
116	0x34afb48d	3.2727658e-07
117	0x36684847	3.4612765e-06
118	0x3304f906	3.096013e-08
119	0x3718bfe8	9.104588e-06
120	0x33188b3b	3.5516887e-08
121	0x39b000d8	0.00033569965
122	0x36cf9027	6.1858623e-06
123	0x3a5d385a	0.0008438878
124	0xb591d61b	-1.0865655e-06
125	0x3aceb4a9	0.0015770394
126	0xb41804f3	-1.4157904e-07
127	0xb6f9496a	-7.429325e-06

feature_compression.bn.weight f4 [16]
0	0x3f43a105	0.7641757
1	0x3f4d3f26	0.8017448
2	0x3f4d9d5c	0.80318236
3	0x3f3ba361	0.7329617
4	0x3f47c629	0.78036743
5	0x3f4d4467	0.801825
6	0x3f6571bd	0.89626676
7	0x3f4bc608	0.79599047
8	0x3f4cd083	0.80005664
9	0x3f404b1b	0.751146
10	0x3f6b0f6d	0.9182041
11	0x3f644dd7	0.89181274
12	0x3f3f08b7	0.7462267
13	0x3f49dfdf	0.78857225
14	0x3f4d156b	0.80110806
15	0x3f513e81	0.81736

feature_compression.bn.bias f4 [16]
0	0xbdb007a4	-0.08595207
1	0xbd9af98c	-0.075671285
2	0xbd74a317	-0.059725847
3	0xbdd9df51	-0.10638297
4	0xbd70d83c	-0.058799967
5	0xbdc09994	-0.09404293
6	0xbdb1039b	-0.08643266
7	0xbd86025e	-0.0654342
8	0xbd70a3af	-0.05874985
9	0xbd4dc268	-0.05023423
10	0xbddab0cc	-0.106782526
11	0xbd7ffce4	-0.062497035
12	0xbdb16647	-0.08662086
13	0xbd996900	-0.0749073
14	0xbd9cc27b	-0.07654282
15	0xbd806180	-0.06268597

feature_compression.bn.running_mean f4 [16]
0	0xba86be87	-0.001028017
1	0x3afd36ee	0.0019318738
2	0xbb592a9b	-0.0033136967
3	0xbc4d6f7e	-0.012538789
4	0xbbb342f2	-0.005470627
5	0x3c229d5f	0.0099252155
6	0x3b235fc0	0.0024928898
7	0xbbbddfdb	-0.005794508
8	0xbace6948	-0.0015747929
9	0xbc60599c	-0.01369324
10	0x3c62a2e0	0.013832778
11	0x3b9e1fc5	0.0048255646
12	0xbbba8141	-0.005691678
13	0xbc0f0d38	-0.008731179
14	0xbb8cdf21	-0.00429906
15	0x3c094aad	0.0083796205

feature_compression.bn.running_var f4 [16]
0	0x3c1887dd	0.009309736
1	0x3c95408b	0.018219253
2	0x3c4cffdd	0.012512174
3	0x3c490c15	0.012270947
4	0x3c29160a	0.010320196
5	0x3c3d3416	0.011548063
6	0x3c01e5a3	0.007928285
7	0x3c255c3b	0.01009279
8	0x3be69044	0.007036241
9	0x3c8c9bef	0.017164199
10	0x3cc04bd4	0.023473658
11	0x3c56a49d	0.01310077
12	0x3c4bfa84	0.012449864
13	0x3c1f4137	0.009720138
14	0x3bcb2bfa	0.006200311
15	0x3c9dd645	0.01926721
