logs/sscl_01171232/latest_w.pth (torch, 51736 bytes, 30 tensors)

temporal_filtering.conv.weight f4 [8, 1, 1, 128]
0.06614957 0.04643511 0.00064921344 0.02732109 0.031373225 -0.008616905 -0.012988369 0.03517131
0.017472902 0.029458001 0.030022139 0.03530913 0.034385916 0.041848313 0.018643802 0.0228662
0.00935659 0.014452755 0.0439924 0.037844464 0.043589614 0.047675215 -0.005100944 0.00025476702
-0.033317667 -0.01827044 0.004354018 0.0052264715 0.0097788 -0.009319374 0.001969518 0.000724052
0.010596056 0.013541875 -0.0006852482 0.045375787 0.007962729 0.00063434377 0.016983401 0.064313695
0.031284653 0.040127628 -0.0037433512 -0.020001944 -0.07247892 -0.03872983 -0.0700537 -0.08973658
-0.06750264 -0.097664505 -0.13053398 -0.12204879 -0.11968007 -0.12300323 -0.15317447 -0.11035223
-0.11349938 -0.097896405 -0.07719275 -0.057305384 -0.04149213 -0.05023009 -0.014513745 0.013543394
0.048816886 0.06603705 0.098562956 0.13905519 0.15490001 0.18006884 0.17295122 0.1955334
0.20488271 0.18969259 0.1896857 0.1586667 0.13535574 0.09287341 0.07762739 0.061433688
0.07249614 0.05678425 0.0683375 0.066823915 0.05206511 0.05566232 0.050036207 0.032338053
0.034646306 0.01571121 0.012867479 -0.011358234 -0.033409048 -0.028543167 -0.045993634 -0.05018226
-0.05084734 -0.05780898 -0.049462076 -0.021144502 0.004412536 0.016798796 0.036985084 0.02876863
0.032251537 0.033487633 0.026634155 0.022443805 0.03283396 0.019670203 0.024981393 0.010916931
-0.007801383 0.0033822393 0.0011528316 -0.0047198473 0.011366898 0.023385184 0.054341592 0.0485958
0.07013616 0.085923746 0.12039735 0.14047958 0.15926464 0.17032841 0.17500183 0.17658828
0.033578705 0.04763341 0.06432728 0.07480141 0.080596685 0.10177674 0.11477505 0.09868057
0.10742134 0.11613511 0.1053783 0.08303314 0.075529926 0.08399613 0.07120096 0.086740375
0.059856728 0.060623385 0.049502634 0.026446389 0.015217844 0.0058892365 0.021287005 -0.0009476528
-0.0072266078 0.007298808 -0.018497271 0.0002288101 -0.021070339 -0.028284354 -0.015982376 -0.025097242
-0.032271016 -0.021203103 -0.040030587 -0.052848805 -0.05874857 -0.07578312 -0.068755075 -0.07868445
-0.06628182 -0.06793476 -0.03801446 -0.028369363 -0.026643408 -0.03143238 -0.02349928 -0.026306607
-0.020689908 -0.006352862 0.0070032147 0.019851973 0.04116794 0.035058606 0.04338139 0.06560892
0.06519788 0.071759805 0.08155228 0.09267914 0.098201394 0.105993494 0.10556242 0.10784937
0.089003 0.070896864 0.068063386 0.04993745 0.049457606 0.04076843 0.038888905 0.035914578
0.048220254 0.06092728 0.07842073 0.09739633 0.1200571 0.13544612 0.14641376 0.15040253
0.14530587 0.14552677 0.14671946 0.15294585 0.15047048 0.15182723 0.15112568 0.14934978
0.14496803 0.1356798 0.1411023 0.14676781 0.15417011 0.15471843 0.15046161 0.1522547
0.14668433 0.14655493 0.14329039 0.14582461 0.14415988 0.15053749 0.1461068 0.13431165
0.1105699 0.08572306 0.05409017 0.03335986 0.02447125 0.032112334 0.0246377 0.015673859
0.010999904 -0.0005584185 0.00237944 -0.0046584276 0.0024331147 0.010752797 0.012213666 0.01840668
0.033396203 0.033259686 0.018304447 -0.008504697 -0.011251219 -0.014894117 -0.011306541 -0.010002746
00000000: 6d79 873d be32 3e3d fa2f 2a3a 7bd0 df3c
00000010: 3681 003d eb2d 0dbc 2bcd 54bc cb0f 103d
00000020: 5523 8f3c e851 f13c fdf0 f53c 4ea0 103d
00000030: 3fd8 0c3d 2369 2b3d e3ba 983c e651 bb3c
00000040: 624c 193c 40cb 6c3c 6031 343d cc02 1b3d
00000050: 068b 323d 1647 433d d225 a7bb 4092 8539
00000060: 1b78 08bd e4ab 95bc 26ac 8e3b d242 ab3b
00000070: 4337 203c 4ab0 18bc 0713 013b 4fce 3d3a
00000080: 149b 2d3c bede 5d3c 3aa2 33ba f6db 393d
00000090: 1b76 023c 174a 263a c620 8b3c e6b6 833d
000000a0: 5624 003d de5c 243d 0353 75bb 1edb a3bc
000000b0: d46f 94bd 2ca3 1ebd 5078 8fbd d0c7 b7bd
000000c0: d33e 8abd 5404 c8bd b3aa 05be b7f4 f9bd
000000d0: d31a f5bd 1ee9 fbbd c5d9 1cbe 5a00 e2bd
000000e0: 5d72 e8bd e97d c8bd 3c17 9ebd 0db9 6abd
000000f0: a7f3 29bd 11be 4dbd 0fcb 6dbc 1de5 5d3c
00000100: 37f4 473d 6f3e 873d 60db c93d 7c64 0e3e
00000110: 1c9e 1e3e f763 383e 201a 313e e839 483e
00000120: c6cc 513e c63e 423e f83c 423e 8679 223e
00000130: b29a 0a3e 6a34 be3d 1cfb 9e3d e4a1 7b3d
00000140: db78 943d 9a96 683d 88f4 8b3d fada 883d
00000150: 3a42 553d 2cfe 633d c4f2 4c3d e874 043d
00000160: 49e9 0d3d ccb4 803c 1ed2 523c e317 3abc
00000170: edd7 08bd 5cd3 e9bc d263 3cbd ea8b 4dbd
00000180: 4d45 50bd 1cc9 6cbd bf98 4abd 3c37 adbc
00000190: 0997 903b a19d 893c ac7d 173d 31ac eb3c
000001a0: 301a 043d 542a 093d df2f da3c 12dc b73c
000001b0: e77c 063d 6823 a13c c7a5 cc3c eddc 323c
000001c0: bea2 ffbb 8fa8 5d3b 9c1a 973a f3a8 9abb
000001d0: 3a3c 3a3c 4992 bf3c 4a95 5e3d 640c 473d
000001e0: 8ca3 8f3d caf8 af3d e392 f63d e1d9 0f3e
000001f0: 4516 233e 926a 2e3e ae33 333e 8fd3 343e
00000200: d389 093d 401b 433d 05be 833d 7b31 993d
00000210: e00f a53d 5370 d03d 2e0f eb3d 0a19 ca3d
00000220: b8ff db3d 3fd8 ed3d 94d0 d73d 470d aa3d
00000230: 6faf 9a3d 2a06 ac3d cfd1 913d f0a4 b13d
00000240: 542c 753d 3a50 783d 46c3 4a3d 19a6 d83c
00000250: 4454 793c 7ffa c03b 1662 ae3c e76b 78ba
00000260: 2ecd ecbb d72a ef3b 9787 97bc beec 6f39
00000270: b49b acbc 97b4 e7bc 79ed 82bc bb98 cdbc
00000280: 9d2e 04bd 21b2 adbc 1df7 23bd fd77 58bd
00000290: 57a2 70bd 2e34 9bbd 76cf 8cbd 5025 a1bd
000002a0: c3be 87bd 6121 8bbd 0db5 1bbd de66 e8bc
000002b0: 4743 dabc 3dbf 00bd 9081 c0bc f480 d7bc
000002c0: e27d a9bc ab2b d0bb 397b e53b 9ba0 a23c
000002d0: b79f 283d 9d99 0f3d afb0 313d f85d 863d
000002e0: 7786 853d cef6 923d e204 a73d 90ce bd3d
000002f0: d01d c93d 1e13 d93d 1c31 d83d 21e0 dc3d
00000300: 3447 b63d 6032 913d d164 8b3d 368b 4c3d
00000310: 0f94 4a3d ccfc 263d f949 1f3d 2a1b 133d
00000320: 9a82 453d e28e 793d 0c9b a03d ba77 c73d
00000330: 7fe0 f53d 63b2 0a3e 7ded 153e 1f03 1a3e
00000340: 10cb 143e f804 153e a03d 163e d69d 1c3e
00000350: ef14 1a3e 9978 1b3e b1c0 1a3e 26ef 183e
00000360: 8072 143e a5ef 0a3e 1f7d 103e 4d4a 163e
00000370: c5de 1d3e 826e 1e3e 9c12 1a3e a8e8 1b3e
00000380: 6b34 163e 7f12 163e b7ba 123e 0c53 153e
00000390: a69e 133e 8026 1a3e 059d 153e fe88 093e
000003a0: 7972 e23d 928f af3d a78d 5d3d 59a4 083d
000003b0: ee77 c83c 3988 033d 00d5 c93c 7766 803c
000003c0: f138 343c d562 12ba 61f0 1b3b b9a5 98bb
000003d0: e474 1f3b 802c 303c d41b 483c 9bc9 963c
000003e0: 75ca 083d 4f3b 083d 35f3 953c 4957 0bbc
000003f0: 0857 38bc 7406 74bc 123f 39bc 8fe2 23bc

temporal_filtering.conv.bias f4 [8]
-0.23448174 -0.084494 -0.029767742 -0.13572013 -0.092361294 -0.114702396 -0.1438054 -0.023484565
00000000: fb1b 70be 310b adbd 7bdb f3bc 38fa 0abe
00000010: eb27 bdbd 17e9 eabd b941 13be b462 c0bc

temporal_filtering.senet.fc.0.weight f4 [4, 8]
0.48900515 0.42993656 -0.11586667 -0.40738267 -0.468294 0.26640916 -0.029844392 0.18419477
-0.21663684 -0.42104545 0.07449431 0.15940364 0.41668698 -0.22685474 0.007815778 -0.09775405
-0.0321898 -0.12780085 0.0049493113 0.06509791 -0.038774386 -0.033448014 -0.03314027 0.03272431
-0.00017822272 -0.00013966596 0.0012183529 8.368156e-05 -0.00034159687 -0.0007884447 0.0010346983 -0.0014648292
00000000: e25e fa3e a520 dc3e 814b edbd 7694 d0be
00000010: 3bc4 efbe c866 883e 3a7c f4bc 8e9d 3c3e
00000020: 0cd6 5dbe 4593 d7be 7990 983d b53a 233e
00000030: ff57 d53e 9c4c 68be c00d 003c 4633 c8bd
00000040: 74d9 03bd 3ade 02be d52d a23b 0e52 853d
00000050: e4d1 1ebd c900 09bd 17be 07bd ed09 063d
00000060: 4ce1 3ab9 4c73 12b9 24b1 9f3a 327e af38
00000070: 5b18 b3b9 a1af 4eba b79e 873a 83ff bfba

temporal_filtering.senet.fc.2.weight f4 [8, 4]
-0.13646536 -0.28546786 -0.06596337 0.002031918 -0.27444625 -0.30198732 0.010061652 0.000493077
0.022234248 0.18622027 0.1355125 -0.0022503976 -0.289001 -0.44347656 -0.19189794 -0.0008261691
-0.20265579 -0.24142547 0.097392775 0.0006418547 -0.6648066 -0.08514401 -0.035157774 -0.0013335221
0.42148325 -0.30472293 -0.0062946277 0.0038386786 -0.51085424 -0.0820015 0.17272556 -0.0029795489
00000000: 93bd 0bbe d828 92be ce17 87bd ed29 053b
00000010: 3884 8cbe 159e 9abe a1d9 243c d641 013a
00000020: 9924 b63c 87b0 3e3e cac3 0a3e 687b 13bb
00000030: f0f7 93be 5c0f e3be e580 44be 4593 58ba
00000040: 0085 4fbe 3d38 77be dd75 c73d 2442 283a
00000050: c430 2abf fc5f aebd 9901 10bd 94c9 aeba
00000060: a7cc d73e a504 9cbe 2a43 cebb 5792 7b3b
00000070: 58c7 02bf 67f0 a7bd f8de 303e 8944 43bb

temporal_filtering.bn.weight f4 [8]
0.82522184 0.87918097 0.8064392 0.87505317 0.94070274 0.5208571 0.9920451 0.94165295
00000000: bd41 533f 0112 613f cd72 4e3f 7c03 603f
00000010: e5d1 703f e456 053f abf6 7d3f 2b10 713f

temporal_filtering.bn.bias f4 [8]
-0.42051685 0.08327029 -0.05649211 -0.2764925 -0.29043058 0.009637714 -0.1790219 -0.0899496
00000000: fc4d d7be 9d89 aa3d 4564 67bd 6d90 8dbe
00000010: 51b3 94be 81e7 1d3c 8451 37be 7f37 b8bd

temporal_filtering.bn.running_mean f4 [8]
-0.0029094075 -0.0242827 0.029555822 -0.0803706 -0.033414148 -0.11487257 -0.14912648 -0.12402455
00000000: c2ab 3ebb 83ec c6bc 0d1f f23c 5799 a4bd
00000010: 46dd 08bd 4f42 ebbd 9db4 18be 9500 febd

temporal_filtering.bn.running_var f4 [8]
0.5442702 1.265501 2.2771025 0.4118471 1.5500854 0.36299232 1.5800184 0.5929535
00000000: 4b55 0b3f f0fb a13f 0cbc 1140 a0dd d23e
00000010: 3369 c63f 21da b93e 0b3e ca3f cdcb 173f

spatial_filtering.conv.weight f4 [16, 8, 3, 1]
0.107861675 -0.10942537 -0.08823676 -0.0033215345 -0.17158526 -0.048830587 -0.06878153 -0.021901142
-0.10450477 0.21946946 0.19337775 -0.006723705 -0.13195282 -0.18278252 -0.06631174 -0.059415378
0.031246088 -0.011528317 0.008178654 -0.056151334 -0.0653324 -0.008596647 0.010559307 0.06406345
0.11177546 0.057647187 0.23962076 -0.13080436 -0.19088382 -0.12889132 -0.06027738 0.01387451
0.11428363 0.12068428 0.15538709 -0.062527716 -0.050631702 0.01437107 -0.18417971 0.07662995
0.11756231 -0.04823423 0.06931828 0.116748996 -0.06688888 -0.04112207 -0.0047033834 0.14423066
-0.0051433207 0.009758951 0.24716851 0.13150665 -0.042679437 0.07501714 0.057597984 0.08279282
0.048297748 0.046200022 -0.13632701 -0.04814667 0.12605038 0.089914605 0.09348715 -0.026079373
0.012995933 0.06984647 -0.0799209 -0.07894525 -0.24349299 -0.05955118 0.08370551 -0.13320786
-0.055729773 -0.17289193 -0.16719092 -0.0065229363 -0.08768192 -0.040709585 -0.11283373 0.08647043
0.078719266 -0.08926472 -0.19425687 -0.192585 0.018440396 -0.11529294 -0.13419953 -0.053453643
-0.053263396 -0.13065785 0.039392043 -0.030201778 -0.08426836 -0.05069988 0.11442715 -0.08993323
0.073561005 0.05191733 0.067334 -0.078190945 -0.009211471 -0.09374903 -0.14965996 -0.012294866
-0.08617451 0.015203442 0.101093434 -0.05011869 -0.097639695 0.11068137 0.115742 0.13416703
0.11172194 0.014198938 0.14701588 0.072934076 0.17875284 0.16405001 0.12728597 0.031743344
-0.049502328 0.11233944 0.0251732 -0.19819829 -0.05022474 -0.20550029 -0.021938 -0.10602739
-0.06372196 0.060481366 -0.036676466 0.07816939 -0.07535182 -0.09933696 -0.1842958 -0.10712161
-0.10965794 -0.034207087 -0.063936405 -0.17540872 0.061533872 0.1519544 -0.083625786 0.15091014
-0.029599208 0.009474351 -0.033877414 -0.042737238 -0.05863489 -0.045071177 -0.1686836 -0.11208277
-0.12480195 0.0920214 0.08528513 0.09002293 -0.09644398 -0.1502147 -0.040947836 -0.08900963
-0.112763226 -0.08749608 0.011402571 0.02150494 0.03144673 -0.06367125 -0.029337399 -0.07269264
0.015164344 0.13863222 0.011679071 0.09987389 0.08167869 0.07308689 0.046961192 0.05162017
0.048882492 -0.005526366 -0.06631735 0.008708973 0.06079556 0.07055366 0.05470714 -0.10532919
-0.12503397 -0.10998734 -0.16879939 -0.13996926 -0.13355559 -0.03465125 -0.07647185 -0.06703145
-0.013672121 -0.051976718 -0.03837431 0.12446623 -0.013902011 0.014669989 0.06971181 0.019521734
0.039268646 -0.12988055 -0.07171714 -0.047314998 0.0675125 -0.07300141 -0.016798712 -0.021588117
-0.072329946 -0.10623265 0.0037814043 0.0090078665 0.15377325 -0.22460464 -0.21983987 -0.22649117
0.09480071 -0.029349953 -0.063740864 -0.23138607 -0.09084761 -0.10280618 0.07980757 0.12958494
0.023878401 -0.064435154 0.16879502 -0.055235494 -0.1705776 -0.113523364 -0.1604693 -0.01270591
0.1297284 0.05375165 0.091590084 0.012274367 0.12392009 -0.008248714 0.14584194 0.010626675
-0.0044584307 0.03992564 0.09114782 0.11596806 0.051960863 -0.029854888 0.13454556 0.10656079
-0.023704741 0.11540933 -0.115438975 -0.09449535 0.088439554 0.07509288 0.13573879 0.13048996
00000000: 95e6 dc3d 691a e0bd 79b5 b4bd 1aae 59bb
00000010: 0cb4 2fbe 9502 48bd 55dd 8cbd 066a b3bc
00000020: 9906 d6bd 9abc 603e d104 463e 8752 dcbb
00000030: a41e 07be 572b 3bbe 73ce 87bd 8a5d 73bd
00000040: ccf7 ff3c 44e1 3cbc c3ff 053c f1fe 65bd
00000050: fecc 85bd f3d8 0cbc f200 2d3c b333 833d
00000060: 88ea e43d 751f 6c3d 255f 753e 94f1 05be
00000070: 0c77 43be 16fc 03be 6ae5 76bd ea51 633c
00000080: 890d ea3d 5229 f73d cb1d 1f3e 880e 80bd
00000090: 3063 4fbd a374 6b3c 9b99 3cbe 2af0 9c3d
000000a0: 82c4 f03d 4291 45bd bef6 8d3d 191a ef3d
000000b0: 0afd 88bd 9e6f 28bd d71e 9abb 34b1 133e
000000c0: 4d89 a8bb 02e4 1f3c be19 7d3e aea9 063e
000000d0: a2d0 2ebd 96a2 993d ddeb 6b3d 488f a93d
000000e0: dcd3 453d 3c3c 3d3d 4f99 0bbe 7135 45bd
000000f0: 5a13 013e 2625 b83d 3176 bf3d 69a4 d5bc
00000100: e5ec 543c ab0b 8f3d 92ad a3bd 0cae a1bd
00000110: 3a56 79be f0eb 73bd cb6d ab3d a467 08be
00000120: e744 64bd 950a 31be 1934 2bbe 5bbe d5bb
00000130: 9492 b3bd 18bf 26bd 5f15 e7bd 6917 b13d
00000140: 9137 a13d 6cd0 b6bd 46eb 46be 0135 45be
00000150: 5010 973c b41e ecbd 9a6b 09be 35f2 5abd
00000160: b82a 5abd 2ccb 05be 8d59 213d b869 f7bc
00000170: e494 acbd adaa 4fbd c858 ea3d ea2e b8bd
00000180: 27a7 963d 44a7 543d 68e6 893d 9322 a0bd
00000190: b6eb 16bc 7eff bfbd 7640 19be 6870 49bc
000001a0: 437c b0bd dc17 793c 130a cf3d 4149 4dbd
000001b0: 52f7 c7bd eaac e23d 240a ed3d 1563 093e
000001c0: 79ce e43d aaa2 683c 558b 163e 765e 953d
000001d0: fc0a 373e bafc 273e 4157 023e 4f05 023d
000001e0: f4c2 4abd 3812 e63d 0738 ce3c 7ef4 4abe
000001f0: 75b8 4dbd ab6e 52be 52b7 b3bc e324 d9bd
00000200: a980 82bd 4fbb 773d 103a 16bd 4617 a03d
00000210: 0e52 9abd 2d71 cbbd 0ab8 3cbe 9362 dbbd
00000220: 5894 e0bd bb1c 0cbd 17f1 82bd 589e 33be
00000230: f10a 7c3d ef99 1b3e ff43 abbd 3088 1a3e
00000240: 0a7a f2bc 4f3a 1b3c 0bc3 0abd 3e0d 2fbd
00000250: 232b 70bd 8e9c 38bd 65bb 2cbe a78b e5bd
00000260: 2a98 ffbd b775 bc3d f8a9 ae3d f15d b83d
00000270: 6c84 c5bd e2d1 19be ebb8 27bd ae4a b6bd
00000280: 68f0 e6bd 2531 b3bd d9d1 3a3c 212b b03c
00000290: 49ce 003d 1366 82bd fc54 f0bc e1df 94bd
000002a0: de73 783c 9bf5 0d3e 9359 3f3c af8a cc3d
000002b0: 2847 a73d 94ae 953d 615a 403d ac6f 533d
000002c0: 0239 483d 8516 b5bb 64d1 87bd 15b0 0e3c
000002d0: c404 793d 707e 903d 9814 603d d5b6 d7bd
000002e0: e808 00be 0b41 e1bd bfd9 2cbe 1a54 0fbe
000002f0: ccc2 08be 78ee 0dbd 469d 9cbd c947 89bd
00000300: 0801 60bc 8ae5 54bd 612e 1dbd 27e8 fe3d
00000310: 43c5 63bc 655a 703c 11c5 8e3d 0bec 9f3c
00000320: 29d8 203d 68ff 04be 70e0 92bd 5fcd 41bd
00000330: fe43 8a3d c381 95bd 749d 89bc 90d9 b0bc
00000340: b921 94bd 8190 d9bd 70d1 773b bb95 133c
00000350: bc76 1d3e c2fe 65be b41d 61be 4ded 67be
00000360: e026 c23d 506f f0bc 928a 82bd 78f0 6cbe
00000370: 500e babd 0c8c d2bd 2772 a33d eab1 043e
00000380: a39c c33c 94f6 83bd 9ad8 2c3e 9d3e 62bd
00000390: e5ab 2ebe f07e e8bd 1052 24be 732c 50bc
000003a0: 86d7 043e b12a 5c3d 9593 bb3d 6d1a 493c
000003b0: d1c9 fd3d 9d25 07bc 9757 153e 811b 2e3c
000003c0: 0718 92bb 1189 233d b5ab ba3d aa80 ed3d
000003d0: ead4 543d 3d92 f4bc 50c6 093e 8b3c da3d
000003e0: 7230 c2bc ba5b ec3d 456b ecbd c786 c1bd
000003f0: cc1f b53d 4cca 993d 1cff 0a3e 299f 053e

spatial_filtering.conv.bias f4 [16]
-8.94508e-05 -0.00030506807 -0.0005875206 0.0008518745 -0.0009426447 -4.099705e-05 -1.4909025e-05 -1.6476979e-05
0.00025457918 0.00047019127 0.00017456432 -0.00040215373 0.00037170178 0.00014931665 -0.00042228118 -0.0007813567
00000000: 8897 bbb8 8bf1 9fb9 d703 1aba 5450 5f3a
00000010: d11b 77ba 3ff4 2bb8 c621 7ab7 0b38 8ab7
00000020: 0a79 8539 0184 f639 410b 3739 29d8 d2b9
00000030: f8e0 c239 e291 1c39 9f65 ddb9 f6d3 4cba

spatial_filtering.senet.fc.0.weight f4 [8, 16]
-1.324603e-31 -2.284793e-31 -8.9949515e-32 -1.2741798e-31 1.1088617e-31 -2.6463392e-31 -2.0068477e-31 2.5629485e-33
-2.080208e-31 8.099491e-34 1.8552328e-31 -2.4819604e-31 2.6409112e-31 2.0280686e-31 -1.9496461e-31 9.1501356e-32
0.002949602 0.0003520327 -0.0022349325 -0.01275692 0.008089431 -0.0050354833 -0.001756794 -0.0057241046
-0.009062324 -0.0031463169 0.004565139 -0.010344478 0.0044449624 0.0025198366 -0.014516928 0.010265166
-2.5076659e-05 -2.4842066e-05 2.9699477e-05 -1.5017481e-05 -1.4224619e-05 -4.0793973e-05 -2.2655457e-05 2.854441e-05
1.6781529e-05 -2.3786697e-05 1.0482165e-05 -3.506745e-05 5.760931e-06 2.93479e-06 -1.9591203e-05 5.8495452e-06
-5.2797094e-07 -6.7186653e-07 2.0148067e-07 5.6079017e-07 -4.785789e-07 -2.979866e-07 -3.5331666e-07 4.169068e-07
2.0891186e-07 -3.170469e-07 1.6748014e-07 5.2210856e-07 2.856895e-07 5.8738735e-08 2.525448e-07 -6.4634385e-08
-7.7074675e-26 6.5055985e-26 1.8698356e-25 -2.0128041e-25 -3.063509e-26 -2.0538393e-25 -2.8398219e-25 5.990824e-27
-9.86747e-26 -2.6459174e-26 2.692144e-25 -6.800681e-25 3.9922035e-26 3.188788e-26 -2.5116584e-25 3.695209e-25
-0.004470733 -0.0029747924 0.0033239422 -0.0037920405 0.00062462623 -0.0068790475 -0.006965251 0.00021177315
-0.0011124706 -0.0010598748 0.005047543 -0.00812797 0.004069159 0.0025193975 -0.005609159 0.0032938512
1.6028281e-34 -2.5722746e-34 -1.2331543e-34 8.2328594e-35 -1.5860415e-34 -6.9515493e-35 6.7045595e-35 -1.5260053e-34
1.6479258e-34 -4.577568e-36 -1.1271451e-34 1.3003914e-34 9.82522e-35 -1.173489e-35 -3.2402447e-36 -2.4294375e-35
2.267022e-39 8.124803e-39 -6.52873e-40 -2.312836e-39 4.567825e-39 8.6089e-40 1.91434e-40 2.7321e-41
-1.097515e-39 -1.37268e-40 -1.370035e-39 -2.701624e-39 1.39991e-40 9.72721e-40 -2.871098e-39 7.52885e-40
00000000: 7cf1 2b8c a34a 948c b585 e98b e365 258c
00000010: 40f0 0f0c dac1 ab8c 7a40 828c e3eb 5409
00000020: 6203 878c 6d93 8608 afd2 700c a416 a18c
00000030: aa67 ab0c 12a1 830c 1b14 7d8c 158d ed0b
00000040: 1c4e 413b 0791 b839 f277 12bb 6702 51bc
00000050: 8889 043c b200 a5bb 3a44 e6ba 4591 bbbb
00000060: 247a 14bc 7032 4ebb 2997 953b e37b 29bc
00000070: 0ca7 913b d823 253b 69d8 6dbc 3a2f 283c
00000080: b75b d2b7 ee63 d0b7 2423 f937 97f3 7bb7
00000090: 46a6 6eb7 321a 2bb8 390c beb7 a772 ef37
000000a0: 0fc6 8c37 8b89 c7b7 8edc 2f37 6315 13b8
000000b0: 054e c136 4ff3 4436 ca57 a4b7 3647 c436
000000c0: e3b9 0db5 515a 34b5 9656 5834 3589 1635
000000d0: b177 00b5 f7fa 9fb4 79af bdb4 3cd3 df34
000000e0: 4151 6034 9836 aab4 97d4 3334 0727 0c35
000000f0: de60 9934 ec47 7c33 7e95 8734 21cd 8ab3
00000100: e1d3 be95 2112 a115 7579 6716 4f2c 7996
00000110: 97b2 1795 c440 7e96 c6c6 af96 2c52 ed13
00000120: 854e f495 fd04 0395 b9a2 a616 8c78 5297
00000130: 31af 4515 b1e6 1d15 d176 9b96 edb8 e416
00000140: 3a7f 92bb bcf4 42bb 7fd6 593b e283 78bb
00000150: f5bd 233a a269 e1bb c33c e4bb 6c0f 5e39
00000160: 52d0 91ba 7feb 8aba dc65 a53b 2d2b 05bc
00000170: 9456 853b 7a1c 253b 09cd b7bb a7dd 573b
00000180: 6a0d 5507 fcf4 aa87 11ea 2387 f0dd da06
00000190: 32d2 5287 cbcd b886 de3c b206 45d7 4a87
000001a0: 020c 5b07 4db5 c284 c3d2 1587 07da 2c07
000001b0: 7e99 0207 d192 7985 24d3 8984 ca2b 0186
000001c0: 89af 1800 a578 5800 f21b 0780 3f2f 1980
000001d0: 3dbd 3100 d05f 0900 a415 0200 294c 0000
000001e0: 6df3 0b80 a67e 0180 1aeb 0e80 076b 1d80
000001f0: 3d86 0100 8d97 0a00 7443 1f80 bd32 0800

spatial_filtering.senet.fc.2.weight f4 [16, 8]
1.0594349e-31 -0.0019832598 7.948149e-07 2.1504685e-07 -5.6975837e-27 -0.00027468707 2.0333891e-36 -5.01743e-39
-5.1815006e-31 -0.016202377 -2.312301e-05 5.913902e-07 -3.6500616e-25 -0.011173083 1.6635489e-34 8.05214e-40
7.669908e-33 -0.001568903 4.437096e-06 -3.2150223e-07 -2.6950274e-26 -0.0024475546 -4.4390042e-35 4.114715e-39
-6.186768e-32 -0.008317608 -8.346963e-06 4.0235147e-07 -1.679636e-25 -0.0071159704 2.4083046e-34 1.0853827e-38
-1.49003e-31 -0.00987909 3.1562317e-06 8.1047983e-07 -1.6742237e-25 -0.0037036727 3.6691855e-34 -2.614066e-39
1.5085626e-31 -0.001087057 2.3396802e-05 2.2791251e-07 -7.6518306e-26 0.0001839546 -1.9057974e-34 3.677e-39
-7.937498e-32 -0.0011699176 4.9272776e-06 -4.1981585e-07 -5.749941e-25 -0.001910314 3.8105009e-34 1.0843028e-38
-6.068967e-33 -0.004480396 1.1328158e-06 5.7818124e-07 3.0503886e-26 -0.0025673474 -2.2013943e-35 -3.304269e-39
1.2389524e-31 0.009985869 1.7220495e-05 -3.8912972e-07 5.196766e-26 0.0021054999 -1.6772027e-34 -2.288494e-39
1.5439283e-31 0.003912677 -3.624482e-06 3.0291427e-09 1.4293003e-25 0.0019089212 1.6302991e-34 -6.995865e-39
4.344632e-31 0.009430971 4.2721163e-05 -3.6550085e-07 1.2796543e-25 0.0049085338 4.7330362e-35 3.132e-41
-1.9382659e-31 -0.004391545 -1.962434e-05 3.090783e-07 -3.1723494e-25 -0.009019911 4.19098e-34 5.438567e-39
-2.4019008e-31 -0.015598978 -4.9314654e-05 2.7580973e-07 -7.2927065e-25 -0.010514814 3.7217825e-34 1.185077e-39
9.6799797e-32 0.007898979 1.9958326e-05 1.7052106e-07 1.3187808e-25 0.0046043955 7.107191e-35 -3.115653e-39
1.0574674e-31 0.0073393956 -2.7995915e-05 -1.9166401e-07 6.992412e-26 0.0017504141 3.2271843e-35 1.77584e-39
4.4761247e-32 -0.0075384993 1.8464232e-05 6.7944717e-07 -1.0482214e-25 -0.0032435118 -5.0435216e-35 3.449246e-39
00000000: c385 090c 94f9 01bb 445b 5535 a1e7 6634
00000010: 5db4 e193 e003 90b9 4bfb 2c04 8ea2 3680
00000020: 3926 288d d9ba 84bc 49f8 c1b7 06c0 1e35
00000030: 89ed e196 4f0f 37bc a31f 5d07 9cc4 0800
00000040: 3a4c 1f0a a6a3 cdba 5de2 9436 ee9a acb4
00000050: 8873 0595 2767 20bb 9804 6c86 27ce 2c00
00000060: 209e a08b 9446 08bc ef09 0cb7 c402 d834
00000070: caed 4f96 162d e9bb 2e0f a007 0e30 7600
00000080: bd6a 418c e8db 21bc a6cf 5336 c08f 5935
00000090: 4442 4f96 51b9 72bb f5db f307 f476 1c80
000000a0: 97d2 430c 957b 8eba 4044 c437 1db8 7434
000000b0: 3d73 bd95 f0e3 4039 ed52 7d87 fb09 2800
000000c0: b911 ce8b ec57 99ba fe54 a536 0d63 e1b4
000000d0: baf3 3197 8063 faba 5040 fd07 f311 7600
000000e0: 5418 fc89 49d0 92bb 410b 9835 5034 1b35
000000f0: 450c 1715 f140 28bb a717 ea85 f5fa 2380
00000100: 41d3 200c c59b 233c bb74 9037 95e9 d0b4
00000110: 6baa 8015 6dfc 093b 40f0 5e87 64eb 1880
00000120: d169 480c ea35 803b 203c 73b6 3e29 5031
00000130: 56f0 3016 c434 fa3a 34b4 5807 a02d 4c80
00000140: cafd 0c0d 5c84 1a3c 802f 3338 0e3a c4b4
00000150: dd69 1e16 c4d7 a03b c0a6 7b06 4f57 0000
00000160: ef99 7b8c f3e6 8fbb f39e a4b7 66ef a534
00000170: e25b c496 40c8 13bc ea44 0b08 8338 3b00
00000180: 6ce4 9b8c db92 7fbc 35d7 4eb8 0013 9434
00000190: c6b2 6197 5446 2cbc d95a f707 83e7 0c00
000001a0: 804e fb0b b86a 013c 2e6c a737 7918 3734
000001b0: d541 2316 78e0 963b 09f1 bc06 2ced 2180
000001c0: 6244 090c 507f f03b c5d8 eab7 34cc 4db4
000001d0: ad1f ad15 276e e53a 2896 2b06 5256 1300
000001e0: e769 680b 8405 f7bb a3e3 9a37 4163 3635
000001f0: 76c3 0196 1991 54bb 6e14 8686 188f 2500

spatial_filtering.bn.weight f4 [16]
0.5975492 0.7620744 0.6229197 0.95136786 0.68070453 0.68043834 0.71165204 0.6830948
0.6754294 0.6907076 0.79344916 0.94659674 0.5391259 0.6104421 0.6939713 0.6841413
00000000: fcf8 183f 4f17 433f aa77 1f3f d88c 733f
00000010: a742 2e3f 3531 2e3f d42e 363f 4ddf 2e3f
00000020: f1e8 2c3f 37d2 303f 7c1f 4b3f 2a54 723f
00000030: 2804 0a3f ef45 1c3f 1aa8 313f e223 2f3f

spatial_filtering.bn.bias f4 [16]
-0.10594846 -0.15822199 -0.09108806 -0.22058214 -0.15639897 -0.10640439 -0.17870308 -0.13936186
-0.06993125 -0.25324175 -0.18146054 -0.23759775 -0.12061881 -0.20652007 -0.14460298 -0.108035065
00000000: 82fb d8bd f204 22be 608c babd 49e0 61be
00000010: 0d27 20be 8bea d9bd f1fd 36be e0b4 0ebe
00000020: 1d38 8fbd e7a8 81be cbd0 39be d34c 73be
00000030: ff06 f7bd ff79 53be ce12 14be 7d41 ddbd

spatial_filtering.bn.running_mean f4 [16]
-0.021775648 -0.07452999 -0.010528898 0.05094499 -0.029340118 -0.049071234 -0.036099363 -0.008971479
0.00819688 -0.00983645 0.015550397 0.036162373 0.0671672 -0.0045201853 0.007666528 0.0013889262
00000000: d862 b2bc 2ea3 98bd 6681 2cbc b2ab 503d
00000010: b05a f0bc ebfe 48bd eddc 13bd 1cfd 12bc
00000020: 354c 063c 1029 21bc 18c7 7e3c ff1e 143d
00000030: f58e 893d 101e 94bb 8037 fb3b a10c b63a

spatial_filtering.bn.running_var f4 [16]
0.023461599 0.01294086 0.0299223 0.021951564 0.051531248 0.014735978 0.026904812 0.037790686
0.039271288 0.016108898 0.030709418 0.033612736 0.021900102 0.07035437 0.025727542 0.044338167
00000000: 8a32 c03c e705 543c 9c1f f53c c4d3 b33c
00000010: 6e12 533d 2c6f 713c 7b67 dc3c 68ca 1a3d
00000020: eeda 203d cff6 833c 5192 fb3c 82ad 093d
00000030: d867 b33c f415 903d 91c2 d23c f09b 353d

feature_compression.depthwise_conv.weight f4 [16, 1, 1, 32]
-0.08778832 -0.13922866 -0.05048545 -0.001085027 0.07184723 0.011591289 -0.030814985 0.040500533
0.082270704 0.13202648 0.060832433 0.03992045 0.03584209 0.0028525065 -0.014950443 -0.06764981
0.0386283 0.06761887 0.15276003 0.0017082226 0.017751671 0.025352811 -0.16065735 -0.16640599
-0.0465837 0.092425115 0.113759965 0.040850762 -0.083106734 -0.0704683 -0.03912457 0.054554403
0.055949666 -0.004806613 0.02455029 0.03333709 0.01968608 -0.012614006 -0.019162979 -0.021350699
0.04168334 -0.020667914 -0.053905148 0.041513678 0.054267053 0.122037396 0.14709038 0.19418344
-0.06949938 -0.12658735 -0.022929668 0.09900237 -0.11833686 -0.076390095 -0.09484751 -0.2075116
-0.03645552 0.22104602 0.22230813 0.111029886 -0.039786648 -0.11166366 -0.11695317 -0.10633556
0.043409962 0.11100536 0.09598816 -0.029157028 -0.16072983 0.0145720495 0.11421686 -0.009948351
-0.035259664 -0.24011219 -0.050279673 0.11670216 0.17286697 -0.071917094 -0.06872266 -0.06935696
-0.05363293 0.116047755 0.16242494 0.029351851 -0.046074886 -0.1359741 -0.023625677 0.055149913
0.015180179 0.037517812 0.07033937 0.13128637 0.13022128 0.03671234 -0.038112704 -0.18687573
0.20787346 0.20262362 0.07359622 -0.057584304 -0.09179285 -0.076515086 0.1326537 0.06543462
-0.07056874 -0.19434585 -0.19033776 -0.031756923 0.01545018 0.043737322 -0.06556022 -0.042350676
0.0069888476 0.12661669 0.11104268 0.007973722 0.053313393 -0.05949589 -0.22507004 -0.15743577
0.016316036 0.13544773 0.091127664 0.14121623 -0.031456754 -0.05988021 0.026103921 -0.033511292
0.004531459 -0.13819739 -0.094963774 -0.08713686 0.10543704 0.043543093 0.02505177 -0.0197673
0.07627463 0.17324214 0.056314424 -0.07112298 -0.03303964 -0.14650667 -0.16659242 -0.19703597
-0.18079482 -0.001367336 0.041301325 0.034468386 0.11956107 0.14734028 0.07607686 0.01668326
0.03870738 -0.07862494 -0.10319306 -0.05584816 -0.047065604 -0.109125294 -0.1107795 -0.0074128495
-0.15185975 -0.03683819 0.10091926 0.138661 0.06358301 0.08159818 0.09537771 0.05127567
0.03330215 -0.06521091 -0.035933334 -0.08467593 -0.1027231 -0.13765913 -0.1507848 -0.006064671
0.092225015 0.08808757 0.04828416 0.012852664 0.15121552 0.1602245 0.10727059 0.020896511
-0.060539316 0.005257726 0.005701233 -0.019610273 -0.079091825 -0.15308048 -0.11082772 -0.021537239
-0.026498627 -0.08290603 -0.029574044 0.02079531 -0.011244158 -0.046617392 0.0025334624 0.00055162515
-0.021578962 0.096554875 0.033298336 -0.033016503 -0.15784259 -0.1446285 0.005605491 0.089535214
0.1670701 0.1366924 0.028469792 0.01302828 0.004297244 0.0358372 0.06389937 0.0051871813
-0.055250086 -0.17559126 -0.14946905 -0.124939255 -0.037141398 0.012817688 0.06955988 0.028651778
-0.1657777 -0.08949306 -0.05264631 0.035256635 0.18288618 0.19748154 0.22548188 0.02793991
-0.07420996 -0.17926149 -0.16493092 -0.060520027 -0.062294997 -0.015009073 0.06450834 0.06427052
0.16130532 0.0913974 -0.0039000704 -0.08788907 -0.12832528 -0.052965593 -0.01264842 0.092379406
0.024539432 -0.016799938 -0.12594055 -0.11925129 -0.053921893 0.12816729 0.0656025 -0.011189243
00000000: 5dca b3bd f591 0ebe d5c9 4ebd 7737 8eba
00000010: a424 933d 64e9 3d3c b56f fcbc e3e3 253d
00000020: 8b7d a83d f331 073e 6e2b 793d a083 233d
00000030: 28cf 123d 1ef1 3a3b b4f2 74bc fc8b 8abd
00000040: b538 1e3d c37b 8a3d 206d 1c3e 70e6 df3a
00000050: f46b 913c b3b0 cf3c 5c83 24be 5566 2abe
00000060: 8dce 3ebd 6149 bd3d fcfa e83d 2153 273d
00000070: dd33 aabd af51 90bd 1641 20bd 7074 5f3d
00000080: 7a2b 653d cb80 9dbb b11d c93c 798c 083d
00000090: b444 a13c faaa 4ebc aefb 9cbc a9e7 aebc
000000a0: 26bc 2a3d c24f a9bc a5cb 5cbd 3f0a 2a3d
000000b0: 2147 5e3d beee f93d dc9e 163e 06d8 463e
000000c0: b155 8ebd 1da0 01be 00d7 bbbc c1c1 ca3d
000000d0: 985a f2bd 6972 9cbd 693f c2bd ec7d 54be
000000e0: 6252 15bd e359 623e bea4 633e a363 e33d
000000f0: 53f7 22bd ebaf e4bd 2585 efbd 75c6 d9bd
00000100: a5ce 313d c756 e33d 7195 c43d b8da eebc
00000110: 5c96 24be 9bbf 6e3c 87ea e93d 69fe 22bc
00000120: 706c 10bd f8df 75be 0ff2 4dbd 8b01 ef3d
00000130: 0a04 313e 4549 93bd 77be 8cbd 060b 8ebd
00000140: 34ae 5bbd 72aa ed3d b952 263e 4b73 f03c
00000150: 05b9 3cbd cb3c 0bbe a38a c1bc e0e4 613d
00000160: 49b6 783c 47ac 193d 160e 903d ef6f 063e
00000170: ba58 053e ae5f 163d 111c 1cbd 5a5c 3fbe
00000180: c8dc 543e 917c 4f3e 9db9 963d 85dd 6bbd
00000190: e4fd bbbd f1b3 9cbd 5fd6 073e 9602 863d
000001a0: 5886 90bd 9902 47be e7e7 42be 8c13 02bd
000001b0: c022 7d3c e825 333d 7044 86bd e777 2dbd
000001c0: b402 e53b cea7 013e 586a e33d 37a4 023c
000001d0: 255f 5a3d f6b1 73bd c378 66be d836 21be
000001e0: 35a9 853c cfb2 0a3e 24a1 ba3d fd9a 103e
000001f0: ccd8 00bd f344 75bd e4d7 d53c 2343 09bd
00000200: a27c 943b 9e83 0dbe 5e7c c2bd cf74 b2bd
00000210: 60ef d73d 3e5a 323d 5f39 cd3c 08ef a1bc
00000220: e035 9c3d 6366 313e f4a9 663d eda8 91bd
00000230: 9354 07bd d805 16be 3497 2abe ccc3 49be
00000240: 4722 39be 2f38 b3ba 942b 293d b92e 0d3d
00000250: 6fdc f43d 5fe0 163e 2fce 9b3d 55ab 883c
00000260: a18b 1e3d 1d06 a1bd e256 d3bd 0ac1 64bd
00000270: ddc7 40bd 157d dfbd 5de0 e2bd 7de7 f2bb
00000280: 1f81 1bbe a4e3 16bd c2ae ce3d 26fd 0d3e
00000290: cf37 823d f21c a73d 6455 c33d 7006 523d
000002a0: d667 083d 4c8d 85bd d52e 13bd 936a adbd
000002b0: 7d60 d2bd 84f6 0cbe 5567 1abe 26ba c6bb
000002c0: 78e0 bc3d 4267 b43d 9dc5 453d fb93 523c
000002d0: 3ed8 1a3e e411 243e afb0 db3d 292f ab3c
000002e0: 13f8 77bd 0149 ac3b 69d1 ba3b b9a5 a0bc
000002f0: e5fa a1bd 21c1 1cbe a5f9 e2bd dd6e b0bc
00000300: a613 d9bc a3ca a9bd 4445 f2bc ed5a aa3c
00000310: 6b39 38bc e1f1 3ebd 7208 263b f09a 103a
00000320: 5dc6 b0bc 90be c53d d663 083d 503c 07bd
00000330: 7da1 21be 7e19 14be 44ae b73b 3d5e b73d
00000340: 6d14 2b3e 18f9 0b3e 7b39 e93c 9174 553c
00000350: e5cf 8c3b 07ca 123d acdd 823d 3bf9 a93b
00000360: ea4d 62bd 32ce 33be 6a0e 19be 27e0 ffbd
00000370: 9421 18bd 4801 523c 6975 8e3d 22b7 ea3c
00000380: a1c1 29be 2348 b7bd a8a3 57bd 4369 103d
00000390: 8446 3b3e 9a38 4a3e b9e4 663e 3de2 e43c
000003a0: 64fb 97bd 5390 37be a7e3 28be d9e3 77bd
000003b0: 0a29 7fbd 9de8 75bc f31c 843d 43a0 833d
000003c0: 392d 253e 8f2e bb3d 5398 7fbb 2fff b3bd
000003d0: b467 03be 73f2 58bd 523b 4fbc 6a31 bd3d
000003e0: eb06 c93c 06a0 89bc 8ff6 00be 053a f4bd
000003f0: 34dd 5cbd 493e 033e 9b5a 863d 1653 37bc

feature_compression.depthwise_conv.bias f4 [16]
8.150194e-06 1.0088988e-05 5.0519075e-06 1.3854222e-05 1.4942866e-05 4.921005e-05 2.7357755e-05 6.332699e-06
1.4547725e-05 1.7338321e-05 1.0762846e-05 -6.8509758e-06 1.867825e-05 -3.8410717e-06 1.7952816e-05 1.6720189e-05
00000000: d1bc 0837 e043 2937 8e83 a936 6e6f 6837
00000010: 1fb3 7a37 e466 4e38 557e e537 787d d436
00000020: 0112 7437 c371 9137 1292 3437 6fe1 e5b6
00000030: 3daf 9c37 8ee2 80b6 6199 9637 5542 8c37

feature_compression.pointwise_conv.weight f4 [16, 16, 1, 1]
-0.10636009 0.21158633 0.009127712 0.246471 0.027640326 0.05343931 -0.054813128 -0.07244887
-0.037921023 0.02489482 0.047759145 -0.07709899 0.07076589 -0.049546864 0.12484388 -0.016652726
0.05160429 -0.14966775 0.0041392734 -0.025351444 0.25154135 0.026689375 -0.09222023 -0.050203342
-0.16222167 0.0076768375 0.033797935 -0.042932186 -0.14794134 0.053355787 -0.05454087 -0.18819323
-0.14449775 -0.20836614 0.007134985 -0.048725065 0.14580557 0.0146152815 -0.047609095 -0.025005918
-0.19351603 -0.006852922 -0.011842485 -0.15710643 -0.16526508 -0.050220676 0.028288119 -0.10122315
-0.041502357 -0.0077594533 -0.04658776 -0.11222765 0.11863425 -0.020480707 -0.17416416 -0.05266743
-0.26227987 -0.0260919 -0.016800169 0.02898139 0.11891382 0.03216966 0.099810615 0.21411367
0.02184855 0.031172179 -0.05520743 -0.09464959 -0.02111456 0.06910952 0.050733462 -0.25206366
0.0765251 0.0916212 -0.05830451 -0.19894797 -0.1393172 -0.05608766 -0.28202203 0.010625755
0.122930504 0.024824798 0.15484299 0.049141463 0.20761493 0.05079861 -0.0022727055 0.077222906
-0.07682619 -0.11202591 -0.0803615 -0.162203 0.096345425 0.09958617 -0.05744668 0.061189875
0.02563273 -0.19067258 0.052944195 0.10388738 0.11059762 0.15237412 0.13341142 0.0042978
0.06340613 0.1698124 0.15486774 0.096883714 0.024172796 -0.10999495 0.058257036 0.04656022
-0.15681858 0.06642243 -0.121199965 -0.1427234 0.08452871 -0.062136136 -0.0018997936 0.17944376
0.11079453 -0.011175589 -0.09817693 -0.13542719 0.0528861 0.13219449 -0.1291759 0.15718088
-0.046191324 -0.03934371 0.006135309 0.11842861 0.08211855 0.18028644 0.11671712 0.14224924
0.08245585 0.14938998 0.13502847 0.10790098 -0.0792955 0.018462168 0.13191798 0.08500294
-0.07301676 0.004366862 0.10803334 -0.112950124 0.03132523 -0.0064465543 -0.053995818 0.15664847
-0.06064165 0.070605986 -0.13877422 -0.21586718 0.13592169 -0.06052819 0.16268484 0.0046035205
0.030366538 0.06815602 -0.02395525 -0.22215493 -0.02450993 -0.0054434747 0.024236279 -0.13442639
0.013609534 -0.041406043 0.14564042 -0.10270731 -0.1129324 -0.1751366 -0.056864314 0.049767688
0.102167994 0.1090822 -0.046626516 -0.068127275 -0.04844573 0.25156105 -0.058350697 -0.043683246
-0.0717502 -0.10360114 -0.000824539 -0.10732226 -0.024751676 -0.18868302 0.058090016 0.13866866
0.01670055 0.06319424 0.09343175 0.14598268 0.1444142 0.14655162 0.011485582 0.1540049
-0.08854328 -0.09117712 -0.066708975 -0.091622956 0.18524867 0.050837412 0.049688984 0.045226935
-0.15356925 0.11073997 -0.19802395 0.028277189 0.12758663 0.105294846 0.14906831 0.24524271
0.06391247 0.087500386 -0.010129229 0.07090469 -0.112296306 0.12262055 -0.006310786 0.0061943
-0.10960937 0.032949734 -0.33999577 0.09593498 -0.072973035 -0.17394464 -0.049840663 -0.0070749195
0.011635564 -0.0026207324 -0.01756832 0.07449339 -0.10688956 -0.035052657 -0.05506602 0.13400877
0.061039977 0.098612875 -0.03615057 0.14828826 -0.012427237 0.026599582 -0.07443994 0.0010067498
-0.011766094 0.19136436 0.18110526 -0.11589678 0.16635637 -0.14593926 0.060973484 -0.1004692
00000000: 52d3 d9bd 16aa 583e 668c 153c e562 7c3e
00000010: f76d e23c 2ee3 5a3d bb83 60bd 1360 94bd
00000020: 1353 1bbd 39f0 cb3c 189f 433d 13e6 9dbd
00000030: b5ed 903d a7f1 4abd 26ae ff3d 4c6b 88bc
00000040: 055f 533d 8142 19be bea2 873b d5ad cfbc
00000050: 07ca 803e ada3 da3c f6dd bcbd 05a2 4dbd
00000060: 701d 26be fb8d fb3b b46f 0a3d a9d9 2fbd
00000070: ef7d 17be 998b 5a3d 3f66 5fbd bab5 40be
00000080: 38f7 13be ef5d 55be 98cc e93b ef93 47bd
00000090: 0e4e 153e ef74 6f3c c101 43bd 36d9 ccbc
000000a0: 1129 46be 7a8e e0bb fb06 42bc 82e0 20be
000000b0: 403b 29be 32b4 4dbd 7cbc e73c 154e cfbd
000000c0: 60fe 29bd 0343 febb cfd2 3ebd 9cd7 e5bd
000000d0: 83f6 f23d 28c7 a7bc 1758 32be ceb9 57bd
000000e0: 8c49 86be aebe d5bc 82a0 89bc 616a ed3c
000000f0: 1789 f33d 55c4 033d 8269 cc3d 9d40 5b3e
00000100: bbfb b23c cc5c ff3c 3021 62bd a5d7 c1bd
00000110: 71f8 acbc 4b89 8d3d e4cd 4f3d 7d0e 81be
00000120: 31b9 9c3d e5a3 bb3d b6d0 6ebd 04b9 4bbe
00000130: 2ba9 0ebe 2dbc 65bd 3165 90be a617 2e3c
00000140: fdc2 fb3d 605d cb3c 298f 1e3e 8f48 493d
00000150: 0299 543e 3412 503d acf1 14bb 0b27 9e3d
00000160: 0d57 9dbd d76d e5bd 9294 a4bd 8b18 26be
00000170: c050 c53d d5f3 cb3d 364d 6bbd 3ca2 7a3d
00000180: bbfb d13c ac3f 43be 03dc 583d e8c2 d43d
00000190: 0181 e23d f607 1c3e 019d 083e 8fd4 8c3b
000001a0: 13db 813d 4de3 2d3e a695 1e3e f86a c63d
000001b0: 0706 c63c 0845 e1bd ee9e 6e3d eeb5 3e3d
000001c0: 0d95 20be 7c08 883d b037 f8bd 1526 12be
000001d0: 631d ad3d 7682 7ebd 7f02 f9ba 1bc0 373e
000001e0: 3ee8 e23d d119 37bc fc10 c9bd 6dad 0abe
000001f0: 189f 583d fe5d 073e b046 04be 06f4 203e
00000200: 1d33 3dbd df26 21bd b40a c93b b38a f23d
00000210: c52d a83d 029d 383e 6309 ef3d c9a9 113e
00000220: 9dde a83d b0f9 183e e744 0a3e 30fb dc3d
00000230: ae65 a2bd f93d 973c 8215 073e 0516 ae3d
00000240: d089 95bd e517 8f3b 9540 dd3d 6552 e7bd
00000250: e24e 003d 9e3d d3bb b82a 5dbd 7568 203e
00000260: 6163 78bd df99 903d d41a 0ebe 490c 5dbe
00000270: 0e2f 0b3e 68ec 77bd db96 263e 21d9 963b
00000280: 3fc3 f83c 6295 8b3d cd3d c4bc 957c 63be
00000290: 0cc9 c8bc 2d5f b2bb 298b c63c 12a7 09be
000002a0: 86fa 5e3c 6299 29bd c322 153e 3658 d2bd
000002b0: 1a49 e7bd 0257 33be 8eea 68bd 34d9 4b3d
000002c0: 743d d13d 7d66 df3d 72fb 3ebd 5086 8bbd
000002d0: 086f 46bd 9ccc 803e 2401 6fbd 34ed 32bd
000002e0: c5f1 92bd d62c d4bd e025 58ba c6cb dbbd
000002f0: 07c4 cabc 1f36 41be ccef 6d3d 28ff 0d3e
00000300: 98cf 883c fb6b 813d 2559 bf3d 7c7c 153e
00000310: 51e1 133e a111 163e 062e 3c3c 76b3 1d3e
00000320: 2e56 b5bd 12bb babd b79e 88bd d1a4 bbbd
00000330: d4b1 3d3e e43a 503d ad86 4b3d e13f 393d
00000340: 4241 1dbe a3cb e23d cac6 4abe 90a5 e73c
00000350: 12a6 023e d3a4 d73d 5da5 183e e820 7b3e
00000360: 8be4 823d 6733 b33d 11f5 25bc 7a36 913d
00000370: 9bfb e5bd 7c20 fb3d b6ca cebb 8ef9 ca3b
00000380: e17a e0bd 4df6 063d ed13 aebe 8f79 c43d
00000390: e372 95bd 8b1e 32be b925 4cbd bad4 e7bb
000003a0: 18a3 3e3c 98c0 2bbb 70eb 8fbc fe8f 983d
000003b0: eae8 dabd 6093 0fbd e88c 61bd 9839 093e
000003c0: 0e05 7a3d 8cf5 c93d 9f12 14bd e1d8 173e
000003d0: 9c9b 4bbc 5ee7 d93c f873 98bd ebf4 833a
000003e0: 93c6 40bc 05f5 433e a873 393e 4a5b edbd
000003f0: 5359 2a3e 1a71 15be 55bf 793d ccc2 cdbd

feature_compression.pointwise_conv.bias f4 [16]
-1.3678316e-05 4.304943e-05 -6.3205254e-05 -1.8335855e-05 7.120525e-05 -1.8745504e-05 4.1809813e-05 8.728418e-06
5.2482956e-05 -4.2257684e-06 3.3710476e-05 -1.2705045e-06 2.1636177e-05 -2.9258148e-05 8.5134325e-06 -1.436754e-05
00000000: eb7b 65b7 f98f 3438 108d 84b8 f3cf 99b7
00000010: 0754 9538 aa3f 9db7 f25c 2f38 4570 1237
00000020: 2521 5c38 13cb 8db6 5964 0d38 3486 aab5
00000030: 567f b537 656f f5b7 ead4 0e37 1d0c 71b7

feature_compression.senet.fc.0.weight f4 [8, 16]
-1.562407e-39 1.5536005e-38 -2.2737648e-37 1.0535127e-37 -8.4426557e-38 2.3734353e-38 5.5453943e-38 8.537925e-38
-2.1698678e-38 8.403409e-39 -3.6588794e-38 1.176581e-37 -9.083968e-38 4.7813514e-38 -2.9999432e-38 -5.454496e-38
6.36e-43 4.127e-42 3.915e-42 -2.633e-42 -4.651e-42 -4.568e-42 -1.3584e-41 -3.53e-43
-4.64e-42 -6.943e-42 -9.994e-42 -8.27e-43 1.0238e-41 5.509e-42 2.915e-42 -3.387e-42
-2.162e-42 3.883e-42 -5.48e-43 -2.431e-42 -2.591e-42 -6.135e-42 -2.087e-42 5.454e-42
3.231e-42 -6.167e-42 3.63e-43 -5.022e-42 -7.6e-42 3.171e-42 -2.98e-43 5.335e-42
-4.584e-42 -2.061e-42 2.616e-42 1.798e-42 -7.475e-42 -7.79e-43 -3.331e-42 -3.544e-42
-1.1e-44 -3.956e-42 -2.833e-42 -1.718e-42 -1.197e-42 4.79e-43 1.299e-42 2.043e-42
-2.563e-42 2.378e-42 3.391e-42 5.307e-42 5.783e-42 9.295e-42 6.037e-42 -1.955e-42
2.894e-42 -1.711e-42 2.744e-42 6.487e-42 7.38e-43 -6.122e-42 2.01e-42 3.698e-42
-5.849e-42 2.775e-42 5.58e-43 2.402e-42 3.388e-42 -5.591e-42 3.73e-42 1.134e-42
-2.015e-42 -4.522e-42 5.27e-43 6.044e-42 -3.297e-42 2.56e-42 1.233e-42 -4.428e-42
-6e-42 -5.509e-42 -1.466e-42 4.111e-42 5.071e-42 -1.3936e-41 2.1427e-41 1.197e-42
1.2287e-41 -5.162e-42 -1.3282e-41 -1.145e-42 -6.757e-42 -6.38e-43 6.014e-42 -4.785e-42
5.647e-42 7.74e-43 2.138e-42 5.119e-42 2.178e-42 1.42e-43 -3.57e-43 -3.573e-42
1.044e-42 -3.025e-42 4.103e-42 4.518e-42 -3.45e-43 -5.1e-42 8.3e-43 -3.203e-42
00000000: 5b03 1180 102c a900 92be 9a82 8f65 0f02
00000010: b9d4 e581 dc38 0101 c2f5 9601 a76c e801
00000020: 1647 ec80 4981 5b00 5635 4781 dd25 2002
00000030: 044a f781 2829 8201 1b55 2381 4a7c 9481
00000040: c601 0000 810b 0000 ea0a 0000 5707 0080
00000050: f70c 0080 bc0c 0080 de25 0080 fc00 0080
00000060: ef0c 0080 5b13 0080 dc1b 0080 4e02 0080
00000070: 8a1c 0000 5b0f 0000 2008 0000 7109 0080
00000080: 0706 0080 d30a 0000 8701 0080 c706 0080
00000090: 3907 0080 1a11 0080 d105 0080 340f 0000
000000a0: 0209 0000 3111 0080 0301 0000 000e 0080
000000b0: 3015 0080 d708 0000 d500 0080 df0e 0000
000000c0: c70c 0080 bf05 0080 4b07 0000 0305 0000
000000d0: d614 0080 2c02 0080 4909 0080 e109 0080
000000e0: 0800 0080 070b 0080 e607 0080 ca04 0080
000000f0: 5603 0080 5601 0000 9f03 0000 b205 0000
00000100: 2507 0080 a106 0000 7409 0000 cb0e 0000
00000110: 1f10 0000 e919 0000 d410 0000 7305 0080
00000120: 1108 0000 c504 0080 a607 0000 1512 0000
00000130: 0f02 0000 1111 0080 9a05 0000 4f0a 0000
00000140: 4e10 0080 bc07 0000 8e01 0000 b206 0000
00000150: 7209 0000 960f 0080 660a 0000 2903 0000
00000160: 9e05 0080 9b0c 0080 7801 0000 d910 0000
00000170: 3109 0080 2307 0000 7003 0000 580c 0080
00000180: ba10 0080 5b0f 0080 1604 0080 760b 0000
00000190: 230e 0000 d926 0080 bb3b 0000 5603 0000
000001a0: 4022 0000 640e 0080 0625 0080 3103 0080
000001b0: d612 0080 c701 0080 c410 0000 570d 0080
000001c0: be0f 0000 2802 0000 f605 0000 450e 0000
000001d0: 1206 0000 6500 0000 ff00 0080 f609 0080
000001e0: e902 0000 6f08 0080 700b 0000 980c 0000
000001f0: f600 0080 370e 0080 5002 0000 ee08 0080

feature_compression.senet.fc.2.weight f4 [16, 8]
3.7985135e-38 -1.1447e-41 -2.752e-42 4.183e-42 5.76e-43 2.641e-42 9.96e-43 -3.217e-42
-1.0325014e-37 -9.58e-43 -4.965e-42 4.502e-42 -8.378e-42 4.561e-42 4.75e-43 1.903e-42
1.1789041e-37 3.22e-42 -2.836e-42 -4.181e-42 -5.531e-42 -5.856e-42 -7.81e-42 -2.09e-42
-1.6197709e-37 5.887e-42 6.64e-43 -1.04e-43 6.04e-42 5.134e-42 -5.133e-42 1.634e-42
4.5987405e-37 9.085e-42 -2.8e-42 8.83e-43 7.109e-42 -3.88e-43 4.141e-42 1.57e-42
-1.1109105e-38 -2.221e-42 -6.041e-42 2.41e-43 3.209e-42 -1.19e-43 -2.737e-42 -2.295e-42
6.7711964e-38 7.318e-42 -3.84e-43 -9.1e-43 -2.039e-42 4.59e-42 -1.61e-43 -1.352e-42
3.8362827e-38 5.256e-42 1.418e-42 5.223e-42 -8.45e-43 3.048e-42 3.847e-42 3.097e-42
1.3485591e-37 -1.13e-42 -3.405e-42 3.516e-42 -1.87e-42 -2.567e-42 -2.124e-42 -4.97e-43
-2.2938935e-37 -3.386e-42 2.581e-42 3.7e-42 -5.637e-42 5.153e-42 9.37e-43 -5.11e-43
-8.177607e-38 2.194e-42 -4.39e-43 -5.25e-42 -2.16e-43 -5.91e-43 5.83e-42 3.34e-43
4.323191e-38 9.43e-42 -3.116e-42 -3.157e-42 -2.962e-42 -3.582e-42 -1.3e-43 -2.8e-43
-5.5293595e-38 -3.453e-42 3.348e-42 1.282e-42 -5.99e-42 4.242e-42 3.812e-42 1.738e-42
-1.6081765e-37 -8.25e-43 4.006e-42 -3.78e-43 1.282e-42 1.087e-42 5.022e-42 -7.61e-43
2.543966e-38 2.576e-42 -5.3e-44 -8e-43 -1.686e-42 2.58e-43 3.289e-42 -2.66e-43
2.5407075e-37 5.416e-42 -8.19e-42 3.579e-42 5.84e-43 -4.94e-42 -6.83e-42 -3.705e-42
00000000: 8dcf 4e01 e91f 0080 ac07 0080 a90b 0000
00000010: 9b01 0000 5d07 0000 c702 0000 f808 0080
00000020: 6c89 0c82 ac02 0080 d70d 0080 8d0c 0000
00000030: 5b17 0080 b70c 0000 5301 0000 4e05 0000
00000040: d076 2002 fa08 0000 e807 0080 a80b 0080
00000050: 6b0f 0080 5310 0080 c515 0080 d305 0080
00000060: c778 5c82 6910 0000 da01 0000 4a00 0080
00000070: d610 0000 500e 0000 4f0e 0080 8e04 0000
00000080: ae7c 1c03 5319 0000 ce07 0080 7602 0000
00000090: d113 0000 1501 0080 8b0b 0000 6004 0000
000000a0: aaf7 7880 3106 0080 d710 0080 ac00 0000
000000b0: f208 0000 5500 0080 a107 0080 6606 0080
000000c0: 5a54 b801 6614 0000 1201 0080 8902 0080
000000d0: af05 0080 cc0c 0000 7300 0080 c503 0080
000000e0: fadd 5001 a70e 0000 f403 0000 8f0e 0000
000000f0: 5b02 0080 7f08 0000 b90a 0000 a208 0000
00000100: 6d8e 3702 2603 0080 7e09 0080 cd09 0000
00000110: 3605 0080 2807 0080 ec05 0080 6301 0080
00000120: 431d 9c82 7009 0080 3207 0000 500a 0000
00000130: b70f 0080 5d0e 0000 9d02 0000 6d01 0080
00000140: 9a9d de81 1e06 0000 3901 0080 a30e 0080
00000150: 9a00 0080 a601 0080 4010 0000 ee00 0000
00000160: 7d60 6b01 491a 0000 b008 0080 cd08 0080
00000170: 4208 0080 fc09 0080 5d00 0080 c800 0080
00000180: 0386 9681 a009 0080 5509 0000 9303 0000
00000190: b310 0080 d30b 0000 a00a 0000 d804 0000
000001a0: c6e4 5a82 4d02 0080 2b0b 0000 0e01 0080
000001b0: 9303 0000 0803 0000 000e 0000 1f02 0080
000001c0: b681 0a01 2e07 0000 2600 0080 3b02 0080
000001d0: b304 0080 b800 0000 2b09 0000 be00 0080
000001e0: 5ee9 ac02 190f 0000 d516 0080 fa09 0000
000001f0: a101 0000 c50d 0080 0a13 0080 540a 0080

feature_compression.bn.weight f4 [16]
0.9228834 0.97808945 1.1270512 0.9821388 1.1206211 0.8496463 1.1221685 0.900154
1.0679307 0.90173817 0.99388754 1.0583593 0.89247555 0.99337524 1.0610744 0.8199855
00000000: 1642 6c3f 1264 7a3f 3743 903f 736d 7b3f
00000010: 8370 8f3f 6b82 593f 38a3 8f3f 7e70 663f
00000020: f4b1 883f 50d8 663f 6a6f 7e3f 5178 873f
00000030: 4779 643f d74d 7e3f 49d1 873f 92ea 513f

feature_compression.bn.bias f4 [16]
-0.17225169 -0.18961014 -0.26786566 -0.22647217 -0.25552636 -0.17342617 -0.2805654 -0.1730513
-0.25224283 -0.16165787 -0.19376525 -0.24806365 -0.181375 -0.2018065 -0.23479688 -0.1665383
00000000: bf62 30be 2929 42be b025 89be 52e8 67be
00000010: 5ad4 82be a196 31be 45a6 8fbe 5c34 31be
00000020: f925 81be a489 25be 666a 46be 6604 7ebe
00000030: 5eba 39be 5da6 4ebe 986e 70be 0489 2abe

feature_compression.bn.running_mean f4 [16]
0.0016563842 0.0018712693 0.004122176 -0.0016604019 0.004890119 -0.0037415156 0.011378237 -0.0022372191
0.006841974 0.0045834156 0.0040794597 0.0016352199 -0.0026699484 0.0033796325 0.00065756764 0.0076269372
00000000: 081b d93a 6145 f53a 5213 873b d8a1 d9ba
00000010: 4b3d a03b 3734 75bb c96b 3a3c 4f9e 12bb
00000020: a332 e03b 7a30 963b fdac 853b e054 d63a
00000030: 4dfa 2ebb d37c 5d3b 9e60 2c3a 63eb f93b

feature_compression.bn.running_var f4 [16]
0.0058614975 0.008724104 0.008654279 0.0047104633 0.009291017 0.009490637 0.008370029 0.0116493665
0.0074962336 0.0075064935 0.009355042 0.007870099 0.009428954 0.009741226 0.00674333 0.0041200393
00000000: ce11 c03b 8bef 0e3c adca 0d3c 3b5a 9a3b
00000010: 5a39 183c 9e7e 1b3c 7222 093c fcdc 3e3c
00000020: f7a2 f53b 08f9 f53b e445 193c 96f1 003c
00000030: e67b 1a3c aa99 1f3c 27f7 dc3b 6501 873b
