logs/sscl_01171235/best_w.pth (torch, 51736 bytes, 30 tensors)

temporal_filtering.conv.weight f4 [8, 1, 1, 128]
0.0037019064 0.064087294 0.10250478 0.103005074 0.112179436 0.0374473 0.084549524 0.11371919
0.09167451 0.083437346 0.10174789 0.1225806 0.057129934 0.113839485 0.057346996 0.12846905
0.07291361 0.06846437 0.0917892 0.13560814 0.07011533 0.07114533 0.09253038 0.085238464
0.07644361 0.0969784 0.119572245 0.11046471 0.1178013 0.07627232 0.113016926 0.09810152
0.044113696 0.042707294 0.049047954 0.06259234 0.037570316 0.08448665 0.06827256 0.04300078
0.019178519 0.05069156 0.07901235 0.041877035 0.056357656 0.003854427 0.032519847 -0.006044783
0.055737667 0.038782552 0.030650394 0.044465996 0.029323287 0.042237777 -0.003684776 -0.020254262
0.001796161 -0.014846893 0.041230634 0.03830755 0.028616648 -0.0038239742 -0.034698017 0.036441017
-0.028010314 -0.021811238 0.03090755 -0.02779072 0.022469163 -0.037758477 -0.024160918 -0.02262909
-0.01701045 0.023274248 0.032829087 -0.005598966 0.037040394 0.010741984 -0.021156449 0.014110514
0.030274047 -0.006740518 0.06991133 0.059507985 0.08215414 0.052714005 0.06346798 0.06998499
0.02917485 0.09285658 0.106180675 0.08753486 0.06540135 0.035321455 0.08953706 0.11466219
0.060469624 0.101556495 0.096057504 0.041235927 0.031243226 0.085755475 0.07377366 0.054474633
0.07227949 0.034518253 0.08620522 0.059429616 0.0009340117 0.040811814 0.050233286 0.06071193
0.066597246 -0.002208734 0.0073017464 0.010785181 0.049633574 -0.028693175 -0.026170045 -0.040253416
-0.00067268155 -0.019362744 -0.03198398 0.0043406673 -0.036474314 0.00067774864 -0.05557887 -0.021233626
-0.052014735 0.004391947 -0.0920046 -0.0009075019 0.0014477978 -0.050389986 -0.09919797 -0.052936174
0.019651573 0.0017198751 -0.047660008 -0.0049710083 0.031770054 -0.034514803 -0.015339955 -0.07478042
-0.0266614 0.014474147 -0.04489158 -0.011100553 0.047295578 -0.0130094215 -0.0059955274 -0.04367332
-0.040225677 0.03704722 -0.054995734 -0.028505076 -0.028525157 0.01961354 -0.03190171 0.040809896
-0.05253461 -0.015188372 0.017754769 -0.064955965 0.036029413 -0.057945125 -0.026029117 -0.037264843
0.023245625 -0.030874792 0.026499525 -0.036161087 0.025431938 -0.012333709 -0.04081873 -0.0051244306
-0.029175304 0.013778951 -0.02330923 -0.04045814 -0.034507 0.010438962 0.0032718317 -0.02818811
-0.055127807 -0.0130577115 -0.032202523 -0.06445091 -0.02619088 -0.04458556 -0.035698134 -0.047148257
0.0062969546 -0.06410361 -0.03009006 -0.053259626 0.005272158 -0.027214175 -0.052362505 -0.025682678
0.012357104 -0.045001876 -0.056596383 -0.033642735 -0.047815826 -0.041125797 -0.053747874 -0.05338356
-0.051142514 -0.011773142 -0.018530045 -0.058789104 -0.028590515 -0.020002116 -0.032397676 -0.001580854
-0.051623408 -0.025652507 -0.046603706 -0.02766295 -0.032302808 -0.026627082 -0.017813396 -0.032664794
-0.026556209 0.018177075 -0.031157501 -0.022994155 -0.0060047256 -0.05174435 -0.026147313 0.026705991
-0.04149316 -0.046385515 -0.03915372 0.041579146 0.0074325865 -0.04713442 -0.04485186 0.0148548875
-0.049886372 -0.037945718 -0.006663717 -0.013482518 -0.06517978 -0.02987946 0.0001646799 -0.074249156
-0.0061354423 -0.034005046 -0.04218166 -0.0484246 -0.09083095 -0.040407453 -0.06596982 -0.072106145
00000000: af9b 723b 3340 833d 07ee d13d 53f4 d23d
00000010: 55be e53d 5762 193d 4d28 ad3d 9be5 e83d
00000020: d8bf bb3d 33e1 aa3d 3361 d03d 8a0b fb3d
00000030: 1401 6a3d ad24 e93d afe4 6a3d 648d 033e
00000040: bb53 953d 0c37 8c3d fafb bb3d dcdc 0a3e
00000050: a098 8f3d a5b4 913d 9180 bd3d 8191 ae3d
00000060: 788e 9c3d 9d9c c63d 4be2 f43d 523b e23d
00000070: cf41 f13d a934 9c3d 6b75 e73d 73e9 c83d
00000080: 90b0 343d d8ed 2e3d 82e6 483d 6a30 803d
00000090: 55e3 193d 5607 ad3d 7cd2 8b3d 9621 303d
000000a0: 451c 9d3c f4a1 4f3d 3ad1 a13d 4187 2b3d
000000b0: 49d7 663d 8e9a 7c3b 8833 053d 5113 c6bb
000000c0: 2e4d 643d 74da 1e3d 8916 fb3c fa21 363d
000000d0: 6437 f03c 8501 2d3d 487c 71bb 44ec a5bc
000000e0: 2a6d eb3a 6240 73bc 74e1 283d 61e8 1c3d
000000f0: 766d ea3c a49b 7abb 821f 0ebd 2d43 153d
00000100: e375 e5bc 7bad b2bc d531 fd3c 5da9 e3bc
00000110: 4011 b83c a2a8 1abd 1eed c5bc a460 b9bc
00000120: 8059 8bbc a3a9 be3c cb77 063d 8877 b7bb
00000130: abb7 173d 25ff 2f3c 4a50 adbc c92f 673c
00000140: 4701 f83c 90df dcbb ac2d 8f3d a5be 733d
00000150: 6e40 a83d a4ea 573d 80fb 813d 4a54 8f3d
00000160: 1800 ef3c 972b be3d 4175 d93d 7a45 b33d
00000170: 25f1 853d 3bad 103d 355f b73d 03d4 ea3d
00000180: ffae 773d dafc cf3d ccb9 c43d 01e7 283d
00000190: cbf1 ff3c 91a0 af3d a516 973d cb20 5f3d
000001a0: 4507 943d 0363 0d3d 5d8c b03d 786c 733d
000001b0: 77d8 743a 4a2a 273d 6bc1 4d3d 13ad 783d
000001c0: 2364 883d 68c0 10bb 7d43 ef3b 54b4 303c
000001d0: 934c 4b3d f30d ebbc 9062 d6bc c4e0 24bd
000001e0: e556 30ba 9e9e 9ebc a201 03bd 283c 8e3b
000001f0: 1766 15bd f1aa 313a aba6 63bd 24f2 adbc
00000200: 670d 55bd 52ea 8f3b e86c bcbd 6ce5 6dba
00000210: 08c4 bd3a bb65 4ebd 4e28 cbbd 9ad3 58bd
00000220: 56fc a03c 6f6d e13a 2437 43bd d7e3 a2bb
00000230: 5121 023d 655f 0dbd 6f54 7bbc 7a26 99bd
00000240: 0269 dabc f924 6d3c 3ce0 37bd 18df 35bc
00000250: 02b9 413d 7825 55bc 2176 c4bb cce2 32bd
00000260: aec3 24bd d3be 173d 3543 61bd 7a83 e9bc
00000270: 97ad e9bc 93ac a03c 5eab 02bd 4728 273d
00000280: 882e 57bd a6d8 78bc 7372 913c a207 85bd
00000290: 9493 133d de57 6dbd 043b d5bc 05a3 18bd
000002a0: 9c6d be3c 22ed fcbc 8815 d93c a61d 14bd
000002b0: a456 d03c 5313 4abc 8a31 27bd d7ea a7bb
000002c0: 0c01 efbc 1cc1 613c 00f3 bebc 6fb7 25bd
000002d0: 3657 0dbd 2e08 2b3c 3a6c 563b c0ea e6bc
000002e0: b2cd 61bd 03f0 55bc cbe6 03bd d7fe 83bd
000002f0: 428e d6bc 599f 36bd 3538 12bd 881e 41bd
00000300: af56 ce3b c148 83bd 6e7f f6bc c426 5abd
00000310: 11c2 ac3b 43f0 debc 117a 56bd 7b64 d2bc
00000320: 7375 4a3c e353 38bd 9cd1 67bd f7cc 09bd
00000330: 87da 43bd 8673 28bd bb26 5cbd b8a8 5abd
00000340: d07a 51bd 23e4 40bc 52cc 97bc d8cc 70bd
00000350: a836 eabc 7adb a3bc 6db3 04bd a834 cfba
00000360: 1173 53bd 3525 d2bc 87e3 3ebd 699d e2bc
00000370: f34f 04bd 0a21 dabc 66ed 91bc 85cb 05bd
00000380: 688c d9bc 17e8 943c 043e ffbc 3d5e bcbc
00000390: 4ac3 c4bb e2f1 53bd e432 d6bc 86c6 da3c
000003a0: bbf4 29bd bdfe 3dbd a75f 20bd e54e 2a3d
000003b0: 0e8d f33b 0610 41bd 95b6 37bd ea61 733c
000003c0: a755 4cbd f86c 1bbd 4f5b dabb c7e5 5cbc
000003d0: fa7c 85bd c5c5 f4bc edad 2c39 f10f 98bd
000003e0: d20b c9bb e048 0bbd adc6 2cbd e058 46bd
000003f0: 9405 babd 4982 25bd 2f1b 87bd 63ac 93bd

temporal_filtering.conv.bias f4 [8]
-0.09748824 0.067728 0.045445435 0.05313758 -0.011793742 0.096505426 -0.043042246 -0.015973045
00000000: eaa7 c7bd fab4 8a3d fe24 3a3d cba6 593d
00000010: 8a3a 41bc a3a4 c53d 114d 30bd e7d9 82bc

temporal_filtering.senet.fc.0.weight f4 [4, 8]
0.37580395 -0.010700896 0.16673075 -0.20925431 -0.011585232 -0.066213585 -0.08247034 0.04381892
-0.062017515 -0.11936225 0.023758465 0.024293413 0.0073420783 -6.114751e-05 0.01641819 0.008954942
-0.2911851 0.107139975 -0.024163624 -0.08491548 -0.052959807 0.029942192 -0.038693864 -0.05774321
-0.028562302 0.21719982 -0.0462948 -0.04751698 -0.002549577 0.0005639921 -0.017722748 0.019245366
00000000: 6069 c03e d052 2fbc 77bb 2a3e c346 56be
00000010: fccf 3dbc fd9a 87bd 36e6 a8bd 787b 333d
00000020: 1406 7ebd 3274 f4bd 1da1 c23c fb02 c73c
00000030: d195 f03b 523c 80b8 717f 863c c0b7 123c
00000040: 3716 95be 346c db3d cbf2 c5bc 2be8 adbd
00000050: 62ec 58bd 5449 f53c 757d 1ebd 2584 6cbd
00000060: 7dfb e9bc a169 5e3e 9e9f 3dbd 2aa1 42bd
00000070: ce16 27bb ded8 133a 4c2f 91bc 75a8 9d3c

temporal_filtering.senet.fc.2.weight f4 [8, 4]
-0.24823096 0.044650305 -0.19411151 0.083946 0.058824107 -0.0074282666 0.11190571 0.09707576
-0.3237706 0.0006210796 0.089911595 0.03515564 0.094498545 0.035971373 -0.09154396 -0.042898424
0.32861128 -0.058204606 0.17894608 0.071392 0.065683015 0.0045600412 0.14712119 0.21037748
0.21585792 -0.052465398 0.07487933 0.060438372 0.026880112 0.028817121 0.08111978 0.13032047
00000000: 4230 7ebe 3de3 363d 2bc5 46be e1eb ab3d
00000010: 8cf1 703d d168 f3bb d22e e53d a8cf c63d
00000020: 43c5 a5be f2cf 223a 9223 b83d 5cff 0f3d
00000030: 7488 c13d b856 133d 667b bbbd 42b6 2fbd
00000040: bd3f a83e f467 6ebd a43d 373e f835 923d
00000050: d184 863d 666c 953b f0a6 163e 326d 573e
00000060: dc09 5d3e f5e5 56bd 565a 993d 3a8e 773d
00000070: ae33 dc3c e211 ec3c 2122 a63d bb72 053e

temporal_filtering.bn.weight f4 [8]
0.9687693 0.85854983 0.92642635 0.8182303 0.9430556 0.7543481 0.78159326 0.7625613
00000000: 4401 783f ecc9 5b3f 472a 6d3f 8a77 513f
00000010: 186c 713f f51c 413f 7f16 483f 3837 433f

temporal_filtering.bn.bias f4 [8]
-0.061076026 -0.13614501 -0.08252799 -0.13265152 -0.09734791 -0.08780972 -0.11284659 -0.16983561
00000000: db2a 7abd 9969 0bbe 6f04 a9bd cdd5 07be
00000010: 575e c7bd 95d5 b3bd 1d1c e7bd 63e9 2dbe

temporal_filtering.bn.running_mean f4 [8]
-0.09848486 0.032440968 -0.0051930766 -0.05595277 0.010717809 0.05760899 -0.026567116 -0.0057553803
00000000: 6eb2 c9bd d2e0 043d af2a aabb bb2e 65bd
00000010: c099 2f3c 68f7 6b3d 48a3 d9bc a197 bcbb

temporal_filtering.bn.running_var f4 [8]
2.6356466 1.7561928 0.34100416 0.9876772 0.6737524 0.51034904 0.26798707 0.37148854
00000000: 6fae 2840 edca e03f 1998 ae3e 6ad8 7c3f
00000010: 0a7b 2c3f 3ca6 023f 9a35 893e bf33 be3e

spatial_filtering.conv.weight f4 [16, 8, 3, 1]
-0.06960497 -0.15893607 0.14441958 0.014477798 -0.054226834 0.015060756 0.10369157 0.09001401
0.052780587 -0.04470736 0.09936683 -0.08986916 0.08531472 -0.019807268 0.07497414 0.012487944
0.23560861 0.044794116 0.06063173 0.07325067 -0.11517506 0.028372638 -0.031551994 0.0034181892
-0.088342085 0.03169064 -0.07007178 -0.015818132 -0.06391533 -0.067452595 0.013904489 0.048094656
0.08211185 -0.1263513 0.0087266015 -0.08216321 -0.112145595 0.021662146 0.0936474 0.10957527
-0.017001444 0.112819076 -0.0486628 0.09248415 -0.038066495 -0.052768692 -0.017544711 0.06907895
0.031341504 0.021857167 -0.08329744 0.102847934 -0.12006969 -0.04738603 0.062404636 -0.15689428
0.06773661 -0.12971829 -0.009299014 0.086740464 -0.10835975 0.041808028 -0.10445489 0.09113005
-0.01590126 0.20475268 0.11167268 0.031898994 0.11827106 0.13126224 -0.015178754 0.06641672
0.12962045 0.005310843 -0.052925438 -0.05795922 -0.0106922 0.012340434 -0.10506382 0.16153641
0.095490485 0.048744917 0.0012522409 0.10187884 -0.01792509 0.09712666 -0.06803724 -0.044878136
-0.021939341 0.0041913884 0.21000935 0.08527651 0.08590394 0.03572899 0.11165684 -0.04356561
-0.06834645 0.080086835 0.1881369 0.012293068 0.11873085 0.029702397 0.043255325 0.044196658
-0.104152516 0.084362954 0.07279739 -0.106232196 -0.111989014 0.052793387 -0.0155558735 0.014738408
0.098334916 -0.009117492 -0.10532576 0.03328882 -0.029899893 0.12490587 0.19264697 0.06883316
0.06396654 0.2308243 -0.0017095684 0.019327667 0.009960141 0.08694796 0.16129538 0.040972378
0.024616195 0.12932363 -0.11986587 0.14118549 -0.1093345 0.19059417 -0.054746807 -0.10691919
0.1202281 -0.121232726 0.005732182 -0.072222084 0.06460231 0.16957241 -0.08560571 -0.07232384
0.069872096 -0.04907564 -0.08318604 0.063011445 -0.0831116 0.077460766 0.17129749 0.16321251
0.11452601 -0.13590194 0.06939814 0.058858532 0.03815521 -0.016036779 -0.017164009 0.055361178
-0.0052504526 0.08661098 0.0824689 0.10179536 -0.043145392 0.07263055 -0.11975044 0.004015595
0.025005193 -0.012709158 0.047796 -0.03302526 0.057542324 -0.045943342 -0.01579696 0.07367084
-0.014738442 0.039294213 0.03485027 -0.050102286 0.036627203 0.03839631 -0.03313533 0.04579407
0.068208456 -0.044118885 0.12426441 0.1229746 0.12536336 -0.066967085 0.021303821 -0.0066269306
0.05732856 -0.17610824 -0.0042221704 -0.07429226 0.11873038 0.053292044 -0.004772374 -0.11542374
-0.054607227 0.008831789 -0.0984148 -0.10727291 0.13075466 0.11387868 0.034440458 -0.14502884
-0.07014604 0.040215373 -0.018008288 -0.08341083 0.098607585 -0.016877368 -0.055945553 0.01575182
-0.10367379 -0.0008408082 -0.02296428 0.06973535 -0.009382188 -0.011646454 -0.027020594 -0.06530394
-0.06263568 -0.08376134 0.124107175 0.028437492 0.12677066 -0.037683114 0.034222517 -0.116233565
-0.04102512 -0.043885853 0.042316336 -0.036841135 0.07206678 -0.044936724 0.005077757 -0.051792152
-0.07086576 -0.032272678 -0.066492565 0.014508286 -0.0794908 0.008487391 -0.009557298 -0.10079739
0.0468667 -0.029227516 -0.03429887 -0.09080311 -0.058723852 -0.072620735 -0.08342205 -0.021123454
00000000: 0d8d 8ebd 23c0 22be bae2 133e 4934 6d3c
00000010: f51c 5ebd 64c1 763c 3f5c d43d 4459 b83d
00000020: 7530 583d 111f 37bd d680 cb3d 520d b8bd
00000030: 7cb9 ae3d da42 a2bc 0b8c 993d 3c9a 4c3c
00000040: 6243 713e 097a 373d fa58 783d 7304 963d
00000050: e7e0 ebbd bc6d e83c aa3c 01bd b303 603b
00000060: b2ec b4bd 0bce 013d cb81 8fbd 0795 81bc
00000070: 0ae6 82bd 9624 8abd a7cf 633c e7fe 443d
00000080: 422a a83d 3c62 01be 05fa 0e3c 2f45 a8bd
00000090: 97ac e5bd d074 b13c 35ca bf3d 0069 e03d
000000a0: 9d46 8bbc b00d e73d a552 47bd 5468 bd3d
000000b0: 9deb 1bbd fc23 58bd edb9 8fbc 4479 8d3d
000000c0: f35f 003d cd0d b33c d997 aabd f0a1 d23d
000000d0: 19e7 f5bd db17 42bd 019c 7f3d e5a8 20be
000000e0: 7eb9 8a3d dfd4 04be e45a 18bc fca4 b13d
000000f0: b7eb ddbd e53e 2b3d 72ec d5bd 64a2 ba3d
00000100: 5c43 82bc b0aa 513e a5b4 e43d 85a8 023d
00000110: 1938 f23d 9c69 063e 4fb0 78bc 7d05 883d
00000120: 39bb 043e 9406 ae3b 58c8 58bd a666 6dbd
00000130: 562e 2fbc 882f 4a3c b32b d7bd cd69 253e
00000140: 8490 c33d c0a8 473d 3b22 a43a daa5 d03d
00000150: a3d7 92bc 58ea c63d 1c57 8bbd 23d2 37bd
00000160: 22ba b3bc ea57 893b b10c 573e 73a5 ae3d
00000170: 68ee af3d 9058 123d 57ac e43d da71 32bd
00000180: 39f9 8bbd 9104 a43d f6a6 403e dd68 493c
00000190: 2929 f33d 7152 f33c 7f2c 313d 8e07 353d
000001a0: ea4d d5bd 7cc6 ac3d cc16 953d 4490 d9bd
000001b0: 7f5a e5bd e13d 583d 10de 7ebc 5d79 713c
000001c0: d163 c93d 8861 15bc 08b5 d7bd dc59 083d
000001d0: 9ff0 f4bc a6ce ff3d 3f45 453e 66f8 8c3d
000001e0: e400 833d 355d 6c3e 9913 e0ba 0e55 9e3c
000001f0: dc2f 233c c611 b23d 9e2a 253e a7d2 273d
00000200: e7a7 c93c 6a6d 043e 3d7c f5bd ee92 103e
00000210: c4ea dfbd 1e2b 433e 303e 60bd 73f8 dabd
00000220: 263a f63d dd48 f8bd 07d5 bb3b 2ce9 93bd
00000230: 374e 843d 64a4 2d3e 0c52 afbd 851e 94bd
00000240: 1a19 8f3d 8a03 49bd 715d aabd 250c 813d
00000250: 6a36 aabd c0a3 9e3d 9c68 2f3e 2e21 273e
00000260: 9d8c ea3d e129 0bbe 9d20 8e3d a515 713d
00000270: a348 1c3d 905f 83bc 899b 8cbc 67c2 623d
00000280: fd0b acbb 1961 b13d 74e5 a83d 167a d03d
00000290: 39b9 30bd 53bf 943d b83f f5bd 4195 833b
000002a0: b1d7 cc3c 123a 50bc bdc5 433d 7f45 07bd
000002b0: 80b1 6b3d 162f 3cbd a068 81bc bde0 963d
000002c0: 8279 71bc f8f2 203d 28bf 0e3d 0e38 4dbd
000002d0: 6806 163d 7345 1d3d e9b8 07bd 9092 3b3d
000002e0: e0b0 8b3d 01b6 34bd 577e fe3d 1bda fb3d
000002f0: 415f 003e 0a26 89bd 5a85 ae3c b926 d9bb
00000300: 5ad1 6a3d b855 34be 225a 8abb 8a26 98bd
00000310: ea28 f33d c248 5a3d 9361 9cbb 4863 ecbd
00000320: d4ab 5fbd 35b3 103c b38d c9bd e6b1 dbbd
00000330: 8de4 053e 3a39 e93d 7011 0d3d 7182 14be
00000340: baa8 8fbd e0b8 243d 1e86 93bc 4cd3 aabd
00000350: c6f2 c93d 6842 8abc 2a27 65bd f609 813c
00000360: ed52 d4bd af69 5cba 961f bcbc 68d1 8e3d
00000370: c0b7 19bc c5d0 3ebc 4b5a ddbc 12be 85bd
00000380: 2347 80bd 118b abbd e72b fe3d bef5 e83c
00000390: 2bd0 013e 9c59 1abd e92c 0c3d dd0b eebd
000003a0: f509 28bd a7c1 33bd e553 2d3d bbe6 16bd
000003b0: bf97 933d 920f 38bd 5063 a63b 0224 54bd
000003c0: 1122 91bd 5b30 04bd 412d 88bd 29b4 6d3c
000003d0: 13cc a2bd b30e 0b3c 3796 1cbc dd6e cebd
000003e0: 4cf7 3f3d 8b6e efbc f97c 0cbd fbf6 b9bd
000003f0: 6c88 70bd 2eba 94bd 2ed9 aabd 180b adbc

spatial_filtering.conv.bias f4 [16]
0.00013200413 -0.000836937 5.4004347e-05 4.719098e-05 0.00027445765 0.002043174 0.00014425218 0.00012173779
-0.00011170138 0.00017090351 4.4336604e-05 0.0070726713 -0.00014896058 0.000318002 -0.00019604809 0.0010855872
00000000: 976a 0a39 e465 5bba ba82 6238 eeee 4538
00000010: 15e5 8f39 c6e6 053b 6642 1739 7a4d ff38
00000020: 3941 eab8 9034 3339 11f6 3938 dec1 e73b
00000030: 4d32 1cb9 82b9 a639 4292 4db9 434a 8e3a

spatial_filtering.senet.fc.0.weight f4 [8, 16]
0.00087005657 0.0002724551 9.203561e-05 -0.00025990506 -6.3985404e-05 -1.1577729e-05 -0.00011667825 -9.164849e-05
-0.0008930642 -0.0021047415 -0.0025155789 0.00028748834 -0.0001790291 0.0005418589 -0.00018548407 0.0004851489
-5.0324124e-05 2.4943038e-05 -0.00030366099 -6.0071536e-05 3.490308e-05 3.0337782e-05 -5.8385525e-05 -6.578754e-05
0.00018694761 -8.3731924e-05 -0.003173932 9.4799376e-05 0.00031758397 -0.0003846274 3.5826375e-05 6.104414e-05
-8.699751e-06 -7.903819e-05 -3.3724137e-07 9.426283e-06 -8.3481e-06 -2.892129e-05 0.00014134326 1.548585e-05
-4.0317045e-05 3.5606226e-05 -4.4488388e-07 -1.4130401e-05 5.6169596e-05 5.4499087e-05 -2.0269636e-05 -0.00013299526
-9.841061e-06 2.8745833e-07 2.5823852e-05 -5.2152154e-05 -4.1990425e-05 -0.00010471652 -2.7850083e-05 -6.614939e-05
4.0640738e-05 7.5862015e-05 0.00014056552 -4.205078e-05 4.1895255e-06 2.1885198e-06 -0.00010107505 9.727845e-05
-4.4413035e-05 5.442578e-06 -4.0631163e-05 -2.9517754e-05 -0.000120582175 -5.136962e-05 -7.0468894e-05 -2.5072459e-05
3.5252222e-05 -2.32451e-05 9.3357754e-05 -5.207576e-05 -5.5363238e-05 -7.1315735e-05 0.00012590736 2.886941e-06
8.884268e-08 8.3791923e-07 1.8730736e-07 -5.225494e-07 -4.782651e-07 -7.1605785e-07 -1.0782268e-07 1.9793824e-09
-5.285481e-07 -5.9420125e-07 -1.0874599e-07 3.7906602e-07 -7.5033824e-07 -1.5165665e-07 3.4413577e-07 -6.712748e-07
0.0042127324 -0.024336442 0.0017986185 0.00091280404 0.007920066 0.006033756 0.00451229 0.0026421256
-0.002399798 0.0053686975 -0.00049506896 0.0013757631 -0.0017108697 0.0064056693 -0.0051776655 -0.022751935
0.0002960023 0.0015134888 -1.0596305e-05 0.0004238284 -0.00052054424 0.00030357533 0.0001257164 -0.005402556
-0.00030055924 -0.0026122543 -0.004174976 0.0004801296 5.022445e-07 -0.00022640568 5.7955884e-05 0.0011618509
00000000: 8214 643a 4ed8 8e39 3e03 c138 de43 88b9
00000010: e72f 86b8 f83d 42b7 29b1 f4b8 6933 c0b8
00000020: 861c 6aba b4ef 09bb 69dc 24bb 08ba 9639
00000030: c2b9 3bb9 890b 0e3a 807e 42b9 955b fe39
00000040: 1e13 53b8 c43c d137 b034 9fb9 52f5 7bb8
00000050: e664 1238 e47d fe37 fbe2 74b8 6bf7 89b8
00000060: 5e07 4439 3c99 afb8 be01 50bb 07cf c638
00000070: 6681 a639 d1a7 c9b9 4744 1638 d304 8038
00000080: 25f5 11b7 4ec1 a5b8 1a0e b5b4 9425 1e37
00000090: d10e 0cb7 ff9b f2b7 8b35 1439 9ce7 8137
000000a0: 191a 29b8 e557 1538 60d8 eeb4 9c11 6db7
000000b0: a597 6b38 f395 6438 b608 aab7 a574 0bb9
000000c0: 091b 25b7 f953 9a34 4da0 d837 f3bd 5ab8
000000d0: e01e 30b8 419b dbb8 999f e9b7 afb9 8ab8
000000e0: a975 2a38 1c18 9f38 c564 1339 ae5f 30b8
000000f0: c093 8c36 7cde 1236 41f8 d3b8 f801 cc38
00000100: 2248 3ab8 649f b636 616b 2ab8 e59c f7b7
00000110: 10e1 fcb8 b675 57b8 b3c8 93b8 b252 d2b7
00000120: c9db 1338 79fe c2b7 10c9 c338 ec6b 5ab8
00000130: d335 68b8 588f 95b8 0006 0439 45bd 4136
00000140: c8c9 be33 5fed 6035 a81e 4934 5245 0cb5
00000150: 2162 00b5 1f37 40b5 258c e7b3 aa05 0831
00000160: 8de1 0db5 3381 1fb5 be87 e9b3 7082 cb34
00000170: da6a 49b5 10d7 22b4 a9c1 b834 a731 34b5
00000180: f60a 8a3b 385d c7bc 9fbf eb3a 3e49 6f3a
00000190: 2ac3 013c d0b6 c53b d5db 933b 8327 2d3b
000001a0: ee45 1dbb e6eb af3b 84c7 01ba f352 b43a
000001b0: 433f e0ba a6e6 d13b 68a9 a9bb 4462 babc
000001c0: c230 9b39 4260 c63a c9c6 31b7 4935 de39
000001d0: 2275 08ba 3129 9f39 bdd2 0339 ed07 b1bb
000001e0: 6194 9db9 5b32 2bbb 3dce 88bb e7b9 fb39
000001f0: fbd1 0635 5067 6db9 a815 7338 3f49 983a

spatial_filtering.senet.fc.2.weight f4 [16, 8]
-1.14759205e-05 0.0073746955 1.13877e-05 -3.083624e-05 1.1780103e-06 -1.798936e-05 0.002678645 3.338878e-05
-5.525382e-06 1.5567979e-05 -7.2036282e-06 1.4873623e-09 3.716502e-07 -9.586749e-08 -0.0006409727 3.312897e-08
-0.00017101447 -2.7638532e-06 1.8106326e-05 1.9081046e-05 -2.1265407e-05 1.3806257e-07 0.0023462179 -0.00033411206
0.00012779246 0.00012946058 2.9010487e-05 -0.0023725529 8.982812e-06 4.3404658e-08 0.0030670438 6.5456596e-05
0.00016400692 -3.1143572e-05 7.2286275e-06 3.0813917e-05 1.9643832e-05 2.1755805e-07 0.009534677 0.0002426227
0.024187956 0.00013469234 0.00021550697 0.0022814043 -0.0034795327 -1.3739415e-07 0.027000679 -0.010637273
-1.763483e-05 3.0111858e-05 -0.0006981415 -0.001044731 2.3067867e-06 -8.3385935e-08 0.001316195 1.6677435e-05
-7.279032e-05 -4.9360606e-05 0.0008892519 -9.3155766e-05 -0.0043148906 -2.3812724e-08 -0.0032213998 -5.857357e-05
-5.694936e-05 -8.126867e-06 -3.9763843e-05 6.2697977e-06 -4.5802763e-06 -1.7902601e-06 -0.007865231 0.00013975933
-0.00010114596 2.1666427e-05 1.4138834e-05 -1.0125776e-06 8.760956e-06 -1.9572636e-07 0.0005798414 -9.78291e-06
-1.766154e-05 -7.998967e-06 -5.2327783e-07 8.5379884e-07 3.6831766e-06 -4.4027164e-08 -9.538368e-05 3.923602e-06
-0.022379758 -0.001136088 7.9793295e-05 -2.3072264e-06 -0.00062697125 -3.8919758e-08 0.021460155 -0.014453999
7.60505e-05 -0.00038373977 -2.1484348e-05 0.0022053183 8.540627e-05 -7.88163e-09 0.00094368344 0.0013211763
-0.0001242869 -5.4400036e-05 -1.7331706e-05 -0.00013515439 -7.3827237e-06 8.65648e-08 -0.0036959986 -9.254501e-06
-5.2939076e-06 -6.748866e-06 -1.6039949e-06 -5.049262e-07 1.2089131e-05 -5.133657e-08 -0.00016650348 -0.00028798272
0.0030753275 -0.0004055527 -2.5671201e-05 1.1943668e-05 0.00064319384 -3.0839954e-07 -0.026972143 -0.00057729066
00000000: b488 40b7 6ea7 f13b cd0d 3f37 2956 01b8
00000010: 201c 9e35 dbe7 96b7 358c 2f3b ee0a 0c38
00000020: ac66 b9b6 fb97 8237 b2b6 f1b6 e96b cc30
00000030: 3787 c734 b6df cdb3 f306 28ba b049 0e33
00000040: 5952 33b9 a37a 39b6 0ae3 9737 3c10 a037
00000050: 1d63 b2b7 5a3e 1434 01c3 193b c32b afb9
00000060: 0700 0639 cfbf 0739 8c5b f337 d57c 1bbb
00000070: e2b4 1637 ed6b 3a33 7500 493b be45 8938
00000080: 46f9 2b39 28a0 02b8 708d f236 313e 0138
00000090: cfc8 a437 e799 6934 5537 1c3c 8968 7e39
000000a0: d225 c63c 333c 0d39 b6f9 6139 9d83 153b
000000b0: df08 64bb 9e86 13b4 8730 dd3c f547 2ebc
000000c0: 82ee 93b7 b998 fc37 7c03 37ba 5bef 88ba
000000d0: 4bce 1a36 e711 b3b3 2d84 ac3a 85e6 8b37
000000e0: 01a7 98b8 8c08 4fb8 af1c 693a 9f5c c3b8
000000f0: ed63 8dbb bc8c ccb2 1f1e 53bb e4ac 75b8
00000100: e9dc 6eb8 a158 08b7 1ac8 26b8 2761 d236
00000110: 46b0 99b6 de48 f0b5 2bdd 00bc 5c8c 1239
00000120: 531e d4b8 4cc0 b537 d435 6d37 e7e7 87b5
00000130: 05fc 1237 da28 52b4 7f00 183a 4721 24b7
00000140: de27 94b7 4d33 06b7 6177 0cb5 9c30 6535
00000150: 7e2c 7736 6118 3db3 b908 c8b8 7ca7 8336
00000160: c155 b7bc cae8 94ba b356 a738 d9d5 1ab6
00000170: 545b 24ba ba28 27b3 35cd af3c 77d0 6cbc
00000180: 4d7d 9f38 ae30 c9b9 4939 b4b7 1a87 103b
00000190: 241c b338 c667 07b2 8661 773a 522b ad3a
000001a0: 0353 02b9 982b 64b8 8e63 91b7 3bb8 0db9
000001b0: 1db9 f7b6 81e5 b933 9138 72bb c743 1bb7
000001c0: 52a2 b1b6 5174 e2b6 d848 d7b5 448a 07b5
000001d0: 6cd2 4a37 287d 5cb3 7097 2eb9 63fc 96b9
000001e0: 6f8b 493b 5da0 d4b9 7c58 d7b7 aa61 4837
000001f0: 029c 283a 1c92 a5b4 aff4 dcbc 5255 17ba

spatial_filtering.bn.weight f4 [16]
0.7170935 0.5643427 0.7745521 0.6589499 0.78687394 0.8033205 0.64747924 0.56195724
0.78329635 0.61116135 0.56364244 0.76709485 0.86600053 0.6124614 0.45470017 0.9053677
00000000: 7193 373f c378 103f 0c49 463f f1b0 283f
00000010: 9270 493f 6aa6 4d3f 33c1 253f 6edc 0f3f
00000020: 1c86 483f 1275 1c3f df4a 103f 5460 443f
00000030: 36b2 5d3f 45ca 1c3f 76ce e83e 2dc6 673f

spatial_filtering.bn.bias f4 [16]
-0.14150737 0.0028073105 -0.03262169 -0.055822026 -0.16943562 -0.06081245 -0.039562624 -0.040225036
-0.05815237 -0.040856276 -0.07250333 -0.09917733 -0.11705405 -0.09244026 -0.002784078 -0.12164404
00000000: 4fe7 10be dbfa 373b 529e 05bd a3a5 64bd
00000010: 8880 2dbe 7a16 79bd 6b0c 22bd 02c3 24bd
00000020: 2e31 6ebd e958 27bd a07c 94bd 7c1d cbbd
00000030: 09ba efbd 5251 bdbd 1475 36bb 8320 f9bd

spatial_filtering.bn.running_mean f4 [16]
0.01048457 -0.0021332295 -0.0073186685 0.010283355 0.002445275 0.026472522 0.015596571 0.010053085
-0.007268385 -0.008934495 -0.015135525 0.014442707 0.004193249 0.00043194497 -0.0068545043 -0.017462123
00000000: 79c7 2b3c a7cd 0bbb 71d1 efbb 847b 283c
00000010: e840 203b e7dc d83c c388 7f3c b2b5 243c
00000020: a22b eebb fd61 12bc fefa 77bc 1ba1 6c3c
00000030: 8667 893b ac76 e239 c09b e0bb ba0c 8fbc

spatial_filtering.bn.running_var f4 [16]
0.018674126 0.0133668 0.021577327 0.00900866 0.020333841 0.00993363 0.023350501 0.012553918
0.026096195 0.021070018 0.011864303 0.011695213 0.00773675 0.010915986 0.010213089 0.024068102
00000000: 7bfa 983c 6c00 5b3c efc2 b03c 0f99 133c
00000010: 2893 a63c aac0 223c 8d49 bf3c f3ae 4d3c
00000020: b0c7 d53c 089b ac3c 7e62 423c 479d 3f3c
00000030: 9084 fd3b f7d8 323c cd54 273c 782a c53c

feature_compression.depthwise_conv.weight f4 [16, 1, 1, 32]
0.110512726 0.08655326 0.07323439 -0.095197946 -0.14195924 -0.17281829 -0.15047446 0.03815173
0.014763074 -0.066283666 0.089318216 -0.0072370707 -0.024957817 0.051275775 0.08021588 0.012434041
-0.024780933 -0.10176489 -0.053853836 0.018999228 0.15315346 0.15166683 0.0033390839 0.13116926
-0.072983176 0.09188792 0.03472719 0.0614418 -0.0018403806 0.044286273 -0.01174046 0.06637545
0.10867219 0.110673875 0.055187847 0.08175845 0.044736806 -0.11333351 -0.06306345 -0.08541544
0.060417123 0.04836626 0.10455662 -0.043759473 -0.0027782053 -0.102361225 -0.06737235 -0.05434721
-0.008134189 0.0634624 -0.095802695 0.046467956 -0.07084361 0.0947413 -0.01061619 0.09363831
0.02404679 -0.05277152 -0.08865459 0.0964737 0.12008908 0.09849081 0.12048821 -0.0961402
0.042548247 0.08547187 0.09615891 -0.1463674 -0.13957112 -0.11977901 0.017548664 0.06030255
-0.14760423 -0.13895477 -0.10033091 -0.11261774 -0.038002703 0.018415958 0.02350122 0.09162558
0.06722352 0.09416456 0.054004364 0.018523391 -0.02237612 0.11549762 -0.13202642 0.035783187
0.047464073 0.032413073 0.14169607 0.061856147 0.06266298 0.04721516 0.054142542 -0.13212986
-0.119048685 -0.03507261 -0.042587813 0.06368389 0.034637865 -0.01725144 -0.14318222 -0.058803216
-0.115683146 -0.061919894 0.011282008 -0.14183515 -0.040316265 -0.106383495 0.01101013 0.012522415
-0.07361144 0.010899094 0.026127692 0.070663646 0.059669472 -0.035632614 0.049301345 0.048029307
0.11785461 -0.042833444 -0.03946036 0.013218865 0.109341145 0.11987366 -0.050061114 0.01961509
0.017119896 0.12792446 0.15708293 0.09723162 -0.0058300444 -0.0035857854 -0.08068911 0.111232206
-0.07361162 0.0017889998 -0.02568585 -0.014631327 -0.0086996965 -0.049913347 -0.047287323 -0.047954906
-0.021528887 -0.07631509 -0.07085185 -0.16929424 -0.0131935105 0.07665977 -0.09442403 0.0017938839
0.008946844 0.10787732 0.12798612 0.15226832 0.055238955 0.121498525 0.03309026 0.024237528
0.017756624 0.07700381 0.08566224 -0.01769602 -0.07798176 -0.106094316 -0.12823378 -0.15387715
-0.023975736 -0.025543155 0.027863912 0.008973933 -0.074088044 0.019651214 -0.075301185 -0.023094824
-0.11054085 -0.15698022 -0.06822327 0.04300512 -0.06629696 -0.032476738 0.12470289 0.13334386
-0.08753343 -0.09280129 -0.09849748 0.07401629 0.11875708 0.008742992 0.045945853 0.13504495
-0.07930375 0.05047634 -0.13734627 -0.107269615 0.010757623 0.015314625 0.043936834 0.09015328
0.001612907 0.02088288 0.0033987167 0.030942442 -0.10959743 -0.054402124 -0.028093329 -0.09984496
0.06824761 0.06606341 -0.0042188903 -0.114323564 -0.08566379 -0.09345746 0.047941722 0.107602105
-0.014858852 0.08895238 0.088605955 0.019857176 -0.12361602 -0.08788376 0.033278067 0.021160414
0.1322653 0.001651041 -0.050738417 0.09920366 0.08045591 -0.0046029417 -0.03384213 -0.013565659
0.05052497 -0.07932446 0.024798322 0.045980655 0.028975766 0.16552283 -0.06260599 0.105668984
-0.051491182 -0.08201815 0.010771924 -0.0834904 0.038266774 -0.02583896 -0.035895176 -0.08164768
0.057924986 0.025322616 0.045059714 0.08016948 -0.027723016 -0.13236257 -0.053520307 -0.11966894
00000000: 7f54 e23d d642 b13d e9fb 953d 24f7 c2bd
00000010: c35d 11be 47f7 30be fa15 1abe fd44 1c3d
00000020: d2e0 713c bbbf 87bd 78ec b63d f324 edbb
00000030: 5674 ccbc 8c06 523d 3948 a43d 26b8 4b3c
00000040: 6201 cbbc 1c6a d0bd d795 5cbd 45a4 9b3c
00000050: 43d4 1c3e 8d4e 1b3e 88d4 5a3b 3c51 063e
00000060: 3478 95bd bc2f bc3d 193e 0e3d 66aa 7b3d
00000070: ed38 f1ba 8665 353d 0f5b 40bc daef 873d
00000080: 868f de3d fca8 e23d a70c 623d f970 a73d
00000090: f13d 373d 661b e8bd 6927 81bd 4aee aebd
000000a0: f277 773d b31b 463d c821 d63d 223d 33bd
000000b0: 8d12 36bb c3a2 d1bd 84fa 89bd 2e9b 5ebd
000000c0: 4345 05bc 93f8 813d 3434 c4bd 2f55 3e3d
000000d0: 7416 91bd ba07 c23d 87ef 2dbc 71c5 bf3d
000000e0: c6fd c43c f326 58bd 8a90 b5bd 0194 c53d
000000f0: 43f1 f53d 8db5 c93d 86c2 f63d 27e5 c4bd
00000100: 1247 2e3d e00b af3d f6ee c43d 56e1 15be
00000110: bbeb 0ebe b34e f5bd 37c2 8f3c cfff 763d
00000120: 9025 17be 294a 0ebe 4b7a cdbd 21a4 e6bd
00000130: b9a8 1bbd 10dd 963c a185 c03c 31a6 bb3d
00000140: 7cac 893d 59d9 c03d ae33 5d3d 5ebe 973c
00000150: 204e b7bc 048a ec3d ef31 07be 6491 123d
00000160: b069 423d 92c3 043d c618 113e df5c 7d3d
00000170: 7355 803d af64 413d 92c4 5d3d 0d4d 07be
00000180: cccf f3bd 4ca8 0fbd 8f70 2ebd b36c 823d
00000190: 6fe0 0d3d e452 8dbc 5c9e 12be a4db 70bd
000001a0: 49eb ecbd b79f 7dbd 2cd8 383c 3c3d 11be
000001b0: ab22 25bd 97df d9bd d563 343c d12a 4d3c
000001c0: 98c1 96bd 1d92 323c be09 d63c 1ab8 903d
000001d0: fa67 743d 81f3 11bd 35f0 493d 61ba 443d
000001e0: c25d f13d 1f72 2fbd 30a1 21bd f093 583c
000001f0: 40ee df3d 5280 f53d e20c 4dbd d3af a03c
00000200: 063f 8c3c a1fe 023e 59da 203e 5f21 c73d
00000210: f509 bfbb 7fff 6abb 5540 a5bd b6cd e33d
00000220: b0c1 96bd df7c ea3a 226b d2bc 3cb8 6fbc
00000230: 2c89 0ebc f071 4cbd 5ab0 41bd 5d6c 44bd
00000240: 595d b0bc 164b 9cbd c61a 91bd 785b 2dbe
00000250: 9829 58bc ccff 9c3d 6361 c1bd c120 eb3a
00000260: c995 123c c9ee dc3d cb0e 033e 3aec 1b3e
00000270: 3e42 623d 38d4 f83d a789 073d c88d c63c
00000280: 5776 913c 2cb4 9d3d af6f af3d 3ef7 90bc
00000290: e7b4 9fbd fa47 d9bd b74f 03be f991 1dbe
000002a0: c368 c4bc e13f d1bc dc42 e43c 6707 133c
000002b0: 79bb 97bd 95fb a03c 8237 9abd 5b31 bdbc
000002c0: 3e63 e2bd 6cbf 20be a4b8 8bbd 2326 303d
000002d0: b3c6 87bd 5406 05bd 3b64 ff3d 4b8b 083e
000002e0: ba44 b3bd 9a0e bebd 0cb9 c9bd da95 973d
000002f0: e936 f33d c43e 0f3c b831 3c3d 3949 0a3e
00000300: 016a a2bd 47c0 4e3d 80a4 0cbe 2cb0 dbbd
00000310: be40 303c 31ea 7a3c 1cf7 333d 48a2 b83d
00000320: 2e68 d33a 9312 ab3c 01bd 5e3b 017b fd3c
00000330: 9e74 e0bd c3d4 5ebd fb23 e6bc 847b ccbd
00000340: 67c5 8b3d 414c 873d 9e3e 8abb 7922 eabd
00000350: 7f70 afbd a066 bfbd 8a5e 443d 7e5e dc3d
00000360: 8b72 73bc aa2c b63d 0a77 b53d 84ab a23c
00000370: 652a fdbd 67fc b3bd 954e 083d 9b58 ad3c
00000380: 8e70 073e be67 d83a 16d3 4fbd 4a2b cb3d
00000390: 11c6 a43d 46d4 96bb 0c9e 0abd 7f42 5ebc
000003a0: 45f3 4e3d dd74 a2bd da25 cb3c 3656 3c3d
000003b0: 965e ed3c d17e 293e 9237 80bd fb68 d83d
000003c0: 6be8 52bd 22f9 a7bd b97c 303c 04fd aabd
000003d0: 9fbd 1c3d 3aac d3bc d206 13bd e636 a7bd
000003e0: c042 6d3d 6071 cf3c 8990 383d e52f a43d
000003f0: 611b e3bc 0e8a 07be 1c38 5bbd fd14 f5bd

feature_compression.depthwise_conv.bias f4 [16]
-1.6525354e-06 5.0271742e-09 9.4747645e-07 7.1651243e-07 3.6450808e-07 -1.7001173e-07 1.0498652e-06 7.3767396e-08
-1.9420196e-07 -5.521943e-07 2.0994873e-08 5.7879726e-07 -3.258081e-07 6.4735946e-07 3.535155e-07 -3.7557737e-07
00000000: afcc ddb5 7ebb ac31 1656 7e35 5c56 4035
00000010: 9cb1 c334 788c 36b4 18e9 8c35 0e6a 9e33
00000020: d485 50b4 813a 14b5 3758 b432 a55e 1b35
00000030: b9ea aeb4 34c6 2d35 cdca bd34 f6a2 c9b4

feature_compression.pointwise_conv.weight f4 [16, 16, 1, 1]
0.110349335 -0.14662266 -0.16770868 -0.116257265 0.01519769 -0.092368126 -0.0040521966 0.0008371443
-0.117143854 0.077856824 -0.20184456 0.15625393 -0.13328914 -0.013146388 -0.032597117 -0.047841083
0.0456135 0.05155364 -0.033162776 0.15895806 0.18941069 -0.19490863 0.12867239 0.073061034
0.1956184 0.12020494 -0.06591785 0.046443924 -0.21531549 0.031425804 -0.008597124 0.007014521
-0.121944994 -0.05765603 0.09424386 0.0038838969 0.0826345 -0.0800302 -0.063420594 -0.04263275
0.024432927 0.0351793 0.057977498 0.015791055 0.17830713 -0.03126984 0.09440898 -0.20098396
0.110569246 0.06051802 -0.12432668 -0.10639431 -0.14342377 -0.10959869 -0.10850439 0.06348341
0.07536077 -0.10540003 -0.02347769 0.13943309 -0.00887424 -0.04542491 0.033712994 0.19297034
0.066457026 0.0997601 0.16056208 -0.0061045396 0.08339386 0.061661888 -0.17411868 0.08762886
0.08864488 -0.048476767 0.039616343 -0.005129773 0.011235425 0.121964745 0.052968457 -0.2524892
0.015595475 -0.077505015 -0.16303714 -0.02446343 -0.14152128 -0.09495447 -0.06055447 -0.108457424
0.06431722 -0.039442882 0.014693935 0.10901756 0.1611413 -0.088337116 0.013315807 -0.23287833
0.16833931 -0.0041432977 0.06328973 -0.073948875 -0.107088804 -0.01845882 0.011055973 0.10468334
-0.12152063 -0.103443176 -0.016675327 0.10836516 -0.06758237 0.13513741 0.021179754 0.08029033
-0.06685025 -0.025827048 0.16970871 0.028945943 0.0969348 -0.17246448 0.07945474 0.0027690532
-0.032034 0.077640414 0.039046023 -0.12386391 -0.04597153 0.11052194 0.12790316 0.23809832
0.04999993 -0.0066780783 -0.09665287 -0.053593446 -0.1557849 -0.08608007 -0.014873152 0.14404161
0.06309232 -0.019678844 -0.0014411558 0.025617847 -0.02485611 -0.03827752 -0.036664296 0.118737265
0.10912005 0.15438381 0.18086076 -0.1711073 -0.06985901 0.037342276 -0.14508423 -0.058077678
-0.16841057 -0.053526133 -0.11634885 0.034048524 0.15012662 0.05408177 0.028752884 -0.10824015
0.09843017 0.14435428 0.11919185 -0.01858199 -0.13883933 -0.08853226 -0.06264614 -0.06853669
-0.1765339 -0.09788231 -0.0149569465 0.15518409 0.1400831 0.20906857 0.09280563 0.101772636
-0.045112755 0.07059535 0.19558701 0.031050619 0.14335668 -0.0713306 -0.09197277 -0.0694471
-0.18538912 -0.089968294 -0.122273654 -0.07474844 0.16670394 0.0025689458 0.03539743 -0.19593392
0.10521089 0.13287087 0.09865042 0.12464297 0.046367016 0.09877309 -0.14544319 -0.13962537
0.19561945 0.1029566 0.102309994 0.07947006 -0.1765379 0.10586737 0.10153338 0.006692044
0.022301707 -0.0067137578 -0.16317107 -0.109946065 -0.18361482 -0.22527538 0.09569364 0.11900902
0.032753907 0.014289671 0.053827673 -0.039341006 0.15773296 -0.023616662 0.063785024 0.08542343
-0.070949934 -0.03536452 -0.03263598 -0.03591025 -0.023615075 -0.043867208 0.09279562 0.09432034
0.22139542 0.1739582 0.07136481 0.20748454 -0.26260096 1.3472107e-05 0.08680255 0.12861069
0.22503857 -0.06475407 0.17110737 -0.07875565 0.05290687 -0.1534657 -0.22006448 0.08659448
-0.15553688 -0.18929173 -0.1264978 -0.012625446 0.13169898 0.019510867 -0.062012136 0.11170244
00000000: d5fe e13d 4024 16be d3bb 2bbe 4a18 eebd
00000010: bbff 783c 802b bdbd 4ac8 84bb ce73 5b3a
00000020: 1ee9 efbd 6673 9f3d 57b0 4ebe 0801 203e
00000030: f37c 08be f363 57bc 8e84 05bd 03f5 43bd
00000040: 39d5 3a3d e929 533d b1d5 07bd e7c5 223e
00000050: e0f4 413e 2196 47be b2c2 033e 06a1 953d
00000060: 3150 483e 022e f63d f0ff 86bd fc3b 3e3d
00000070: aa7b 5cbe 58b8 003d f4da 0cbc 11da e53b
00000080: 4cbe f9bd bb28 6cbd ed02 c13d fa88 7e3b
00000090: 473c a93d e0e6 a3bd a8e2 81bd ae9f 2ebd
000000a0: 9027 c83c 2b18 103d d079 6d3d 3e5c 813c
000000b0: 2596 363e ce14 00bd 7f59 c13d bdce 4dbe
000000c0: 2172 e23d bee1 773d fd9e febd 43e5 d9bd
000000d0: aedd 12be 4775 e0bd 8d37 debd 9703 823d
000000e0: bf56 9a3d f9db d7bd 4954 c0bc 8cc7 0e3e
000000f0: 4365 11bc 780f 3abd a316 0a3d 049a 453e
00000100: 9f1a 883d 064f cc3d 636a 243e 9708 c8bb
00000110: 66ca aa3d 2d91 7c3d 2b4c 32be c276 b33d
00000120: 728b b53d 938f 46bd bf44 223d a817 a8bb
00000130: ca14 383c a7c8 f93d 74f5 583d 4446 81be
00000140: 2a84 7f3c f3ba 9ebd 35f3 26be 8867 c8bc
00000150: f4ea 10be 7d77 c2bd f707 78bd ed1e debd
00000160: bfb8 833d dc8e 21bd d5be 703c 9944 df3d
00000170: 3a02 253e 17ea b4bd 8b2a 5a3c a877 6ebe
00000180: 2461 2c3e 80c4 87bb 0c9e 813d 8272 97bd
00000190: 6051 dbbd f436 97bc 1d24 353c 3864 d63d
000001a0: cfdf f8bd 04da d3bd b29a 88bc 8eee dd3d
000001b0: a068 8abd 7661 0a3e 2a81 ad3c 426f a43d
000001c0: c9e8 88bd 3f93 d3bc 1fc8 2d3e 0b20 ed3c
000001d0: c185 c63d 879a 30be 2bb9 a23d 0179 353b
000001e0: 1536 03bd f001 9f3d b9ee 1f3d 5dac fdbd
000001f0: a54c 3cbd 5459 e23d 0cf9 023e 0cd0 733e
00000200: bacc 4c3d c8d3 dabb f1f1 c5bd cd84 5bbd
00000210: 1486 1fbe bf4a b0bd 85ae 73bc a57f 133e
00000220: 8c36 813d 8735 a1bc 2ae5 bcba 85dc d13c
00000230: 0a9f cbbc e4c8 1cbd 4d2d 16bd 862c f33d
00000240: 557a df3d ca16 1e3e 9033 393e c136 2fbe
00000250: 3e12 8fbd 37f4 183d f690 14be dce2 6dbd
00000260: d273 2cbe 383e 5bbd 4e48 eebd 7776 0b3d
00000270: cbba 193e d984 5d3d 2b8b eb3c 03ad ddbd
00000280: c295 c93d 9cd1 133e db1a f43d 4239 98bc
00000290: e62b 0ebe 6750 b5bd 9f4c 80bd f75c 8cbd
000002a0: 4dc5 34be 8576 c8bd fb0d 75bc 94e8 1e3e
000002b0: f271 0f3e 1216 563e e110 be3d 2c6e d03d
000002c0: 27c8 38bd 4b94 903d f647 483e de5d fe3c
000002d0: 18cc 123e c715 92bd 385c bcbd 483a 8ebd
000002e0: a5d6 3dbe 4c41 b8bd 9c6a fabd b615 99bd
000002f0: 70b4 2a3e c25b 283b e5fc 103d e7a2 48be
00000300: cf78 d73d 4d0f 083e 3b09 ca3d d044 ff3d
00000310: 57eb 3d3d 8c49 ca3d 0fef 14be f4f9 0ebe
00000320: 7750 483e e9da d23d e787 d13d 33c1 a23d
00000330: 5ac6 34be fed0 d83d bcf0 cf3d ef48 db3b
00000340: 12b2 b63c 15ff dbbb 5116 27be 672b e1bd
00000350: 8605 3cbe 97ae 66be 07fb c33d 00bb f33d
00000360: f628 063d 391f 6a3c 687a 5c3d 0924 21bd
00000370: c084 213e bb77 c1bc b9a1 823d 7bf2 ae3d
00000380: 334e 91bd 63da 10bd 4ead 05bd a016 13bd
00000390: 6774 c1bc 1aae 33bd a10b be3d 062b c13d
000003a0: 7bb5 623e 1922 323e b727 923d d476 543e
000003b0: a273 86be 4206 6237 89c5 b13d 85b2 033e
000003c0: 8370 663e c89d 84bd c536 2f3e a44a a1bd
000003d0: e0b4 583d 1d26 1dbe 9558 61be 7258 b13d
000003e0: 0f45 1fbe b1d5 41be a488 01be f5da 4ebc
000003f0: 19dc 063e 41d5 9f3c 7000 7ebd 40c4 e43d

feature_compression.pointwise_conv.bias f4 [16]
5.453596e-07 -0.0005177086 1.0911727e-06 5.8916426e-06 -0.0001351123 -5.970431e-08 3.8009827e-07 4.4065633e-05
-0.0008082526 -1.2920336e-06 2.1864425e-06 -1.0719534e-07 -3.81398e-07 -0.00017994564 -7.6565533e-07 4.616541e-06
00000000: d464 1235 d6b6 07ba 6974 9235 d3b0 c536
00000010: efac 0db9 cb36 80b3 4f10 cc34 1dd3 3838
00000020: eae0 53ba f069 adb5 ccba 1236 4333 e6b3
00000030: f1c2 ccb4 caaf 3cb9 6f87 4db5 c9e7 9a36

feature_compression.senet.fc.0.weight f4 [8, 16]
-6.1027996e-09 -1.0922925e-08 1.6306758e-09 1.3235701e-09 -3.690176e-09 4.1160892e-09 4.907826e-10 -3.964589e-09
-4.4496437e-10 4.5145498e-10 3.144174e-09 3.4643252e-10 -6.002681e-09 1.8167732e-09 -1.0787498e-08 2.296188e-09
-3.0480764e-05 -3.6464357e-05 -4.9985283e-06 -2.3777555e-05 -1.0484601e-05 8.860766e-06 -1.7787494e-05 -2.4899608e-05
-3.6899783e-06 -1.3663387e-06 8.348801e-06 -1.2408826e-05 -8.536816e-06 -1.8546802e-05 -9.133846e-06 3.0529052e-05
2.977863e-06 1.4504667e-06 7.3077774e-07 4.8176565e-07 3.5736634e-06 9.463739e-07 -9.673291e-07 1.4728198e-07
-1.4069482e-07 -1.2356763e-06 -3.4731947e-06 -9.1777304e-07 2.9510204e-06 -5.6465615e-07 6.0091825e-06 3.6832284e-07
-6.0725806e-06 -4.755948e-05 2.506854e-05 3.3160309e-06 -1.569592e-05 -2.5594768e-06 3.0024855e-06 0.002078487
3.8969592e-06 -3.394592e-06 1.4586439e-05 -6.6335105e-07 -5.827357e-06 8.449586e-06 -3.7775974e-06 1.0492802e-06
-5.5508575e-05 -3.190678e-05 0.000100375044 -7.5500575e-05 0.00011122673 0.00038949732 -0.00013193389 -0.0002986262
-3.9673745e-05 -6.9156784e-05 0.00032476883 -1.895754e-06 4.854626e-05 -2.3500694e-05 -0.00023327468 0.0027193376
-1.3091773e-06 1.5348207e-05 3.1529198e-06 5.038739e-06 -2.0628588e-05 -2.9849132e-05 -1.4593049e-05 0.00015549886
8.198349e-06 -3.6024037e-05 -1.4155296e-05 -2.4471135e-05 6.922498e-06 1.5117561e-05 3.0919327e-05 0.00014514236
3.482043e-08 -1.5212137e-08 -1.4155814e-08 4.504145e-08 -1.4585327e-08 1.2498434e-08 -3.9206647e-09 -2.6702413e-10
-2.2868536e-08 1.1742015e-08 2.3027633e-09 2.6294808e-08 -2.1241421e-08 -3.0394983e-08 2.2084425e-09 4.2720142e-08
1.8980525e-12 6.762588e-12 3.0733337e-13 9.838522e-13 -1.788181e-12 -4.2937364e-12 -4.707334e-13 1.2838046e-12
1.6986774e-12 -2.8686504e-12 -4.374782e-12 -2.442891e-12 2.6582298e-13 -3.2667048e-12 -9.421e-12 5.6624844e-13
00000000: cbb0 d1b1 88a7 3bb2 4e1e e030 fce8 b530
00000010: 4396 7db1 816d 8d31 c1e7 0630 e538 88b1
00000020: 2b9f f4af a430 f82f e510 5831 0b74 be2f
00000030: 2440 ceb1 06b2 f930 eb53 39b2 f7ca 1d31
00000040: f1b0 ffb7 4ef1 18b8 08b9 a7b6 e975 c7b7
00000050: 05e7 2fb7 b3a8 1437 5a36 95b7 80df d0b7
00000060: 58a1 77b6 0a63 b7b5 d411 0c37 802f 50b7
00000070: 5839 0fb7 f494 9bb7 923d 19b7 520c 0038
00000080: 4cd7 4736 a8ad c235 aa2a 4435 af52 0135
00000090: 12d3 6f36 520a 7e35 2dd5 81b5 9024 1e34
000000a0: e611 17b4 84d9 a5b5 0815 69b6 e25c 76b5
000000b0: 250a 4636 e092 17b5 7ca2 c936 e8bd c534
000000c0: 12c3 cbb6 9a7a 47b8 484a d237 fa88 5e36
000000d0: bbaa 83b7 7ac3 2bb6 4f7e 4936 3a37 083b
000000e0: a0c2 8236 a6ce 63b6 47b8 7437 2311 32b5
000000f0: 9e88 c3b6 b2c2 0d37 a182 7db6 fed4 8c35
00000100: e1d1 68b8 a5d3 05b8 7180 d238 1056 9eb8
00000110: 6542 e938 7235 cc39 bc57 0ab9 ee90 9cb9
00000120: 5c67 26b8 4408 91b8 bc45 aa39 9d71 feb5
00000130: 269e 4b38 5b23 c5b7 329b 74b9 ea36 323b
00000140: fdb6 afb5 06c0 8037 c096 5336 7012 a936
00000150: 8e0b adb7 8664 fab7 abd4 74b7 680d 2339
00000160: a48b 0937 8418 17b8 897c 6db7 5d47 cdb7
00000170: ce47 e836 6ea1 7d37 60af 0138 5b31 1839
00000180: 788d 1533 d8ab 82b2 ee31 73b2 9973 4133
00000190: f292 7ab2 b2b8 5632 88b6 86b1 4ecc 92af
000001a0: 7170 c4b2 eeb9 4932 a43e 1e31 e5de e132
000001b0: 6176 b6b2 a38b 02b3 55c3 1731 4b7b 3733
000001c0: 4690 052c faef ed2c 6803 ad2a 0377 8a2b
000001d0: 03aa fbab 8a12 97ac eb7f 04ab efad b42b
000001e0: 4e11 ef2b 03dd 49ac 88ec 99ac 36e7 2bac
000001f0: 21a5 952a b9df 65ac 69bc 25ad 8062 1f2b

feature_compression.senet.fc.2.weight f4 [16, 8]
4.41399e-10 -3.3038017e-07 7.4741095e-08 0.00012152007 2.6409469e-05 0.00015912925 -9.821045e-09 -1.314173e-12
-1.1896473e-09 3.4379403e-07 -1.74252e-07 -9.1621565e-05 -0.0075498754 -0.00015148238 1.7050976e-08 5.840581e-14
-7.154022e-10 -0.00010330482 -1.4138682e-07 8.105707e-06 2.8361126e-05 2.2014926e-06 2.844584e-09 -2.831045e-12
-1.6134279e-10 6.2669045e-07 -1.1470262e-05 7.065665e-05 0.000102940096 3.6708007e-05 1.2703505e-08 3.3325247e-13
6.6776024e-10 -0.00011274559 -6.596441e-08 -2.2315322e-05 -0.0006964752 -1.3087897e-06 -3.8317305e-09 -6.6947667e-12
4.858239e-08 -6.267073e-07 -1.4510834e-08 4.7042545e-06 -2.98882e-05 -7.5679513e-06 -1.2391806e-08 -3.5472287e-12
1.08681245e-10 5.7385463e-08 1.7805808e-08 7.6232245e-05 2.8426246e-05 1.3504821e-05 -3.3440688e-11 -1.1827621e-12
2.315934e-09 0.0006836361 1.0135841e-08 -0.00014205535 0.004313148 -4.059079e-05 -4.033773e-09 -1.6846019e-12
3.4270803e-10 1.0195936e-06 4.1533454e-05 -0.0003191436 -0.0010456605 7.432435e-06 -9.0200514e-11 7.0403687e-13
3.9025625e-08 2.2575475e-07 4.198245e-05 3.6338493e-05 4.5563756e-05 1.268891e-06 1.084652e-09 -1.3391823e-14
1.9132105e-09 -2.6525408e-06 1.808211e-07 -1.4247592e-05 -0.00012530954 -7.794348e-06 -5.3727035e-07 1.0140722e-11
-4.1711062e-10 -0.00013065882 -3.582665e-05 3.4117016e-05 -7.522928e-05 -1.660215e-05 5.3384075e-10 -3.3539705e-12
1.5416584e-09 3.6803127e-07 -1.0187138e-06 3.36151e-05 -3.3436812e-05 -8.223661e-06 -6.5312506e-08 -2.4680915e-12
-1.9137064e-10 0.00029755785 -4.9540407e-08 8.863025e-05 4.2596104e-05 0.00024396296 2.5388422e-08 1.468223e-13
-7.689589e-11 1.6173091e-07 2.9640143e-08 2.3360508e-06 6.77828e-06 1.1036657e-06 -6.948625e-07 -4.058842e-13
-1.807301e-10 0.00020248404 -7.50631e-08 -3.6231388e-05 0.00027661124 0.0006220359 1.369024e-08 8.9634246e-13
00000000: 63a9 f22f 1b5f b1b4 5a81 a033 97d8 fe38
00000010: e789 dd37 efdb 2639 6ab9 28b2 12f4 b8ab
00000020: fe80 a3b0 b192 b834 061a 3bb4 f424 c0b8
00000030: f264 f7bb 3ed7 1eb9 7e77 9232 a884 8329
00000040: f4a5 44b0 5aa5 d8b8 1dd0 17b4 bffd 0737
00000050: 0ee9 ed37 5bbd 1336 737a 4331 9337 47ac
00000060: f565 31af d739 2835 6670 40b7 802d 9438
00000070: 8be1 d738 ecf6 1938 9b3e 5a32 be9a bb2a
00000080: 738d 3730 d471 ecb8 51a8 8db3 ca31 bbb7
00000090: a993 36ba aca9 afb5 42a8 83b1 198d ebac
000000a0: e7a8 5033 ff3a 28b5 534b 79b2 3dd9 9d36
000000b0: 6cb8 fab7 35f0 fdb6 bde3 54b2 319d 79ac
000000c0: 1afe ee2e fc77 7633 63f3 9832 e0de 9f38
000000d0: e674 ee37 c492 6237 de12 13ae 7f75 a6ab
000000e0: 5726 1f31 0b36 333a e621 2e32 b1f4 14b9
000000f0: 4f55 8d3b 0740 2ab8 7199 8ab1 2e16 edab
00000100: de67 bc2f f8d8 8835 3534 2e38 bb52 a7b9
00000110: 8b0e 89ba 2164 f936 605a c6ae 342b 462b
00000120: 219d 2733 fe66 7234 5016 3038 296a 1838
00000130: b61b 3f38 c34e aa35 cd12 9530 e23e 71a8
00000140: 8e79 0331 4e02 32b6 ba27 4234 f108 6fb7
00000150: 8665 03b9 78c4 02b7 f038 10b5 c065 322d
00000160: 1a4f e5af 7601 09b9 9344 16b8 de18 0f38
00000170: 6ac4 9db8 d844 8bb7 b4bd 1230 c303 6cac
00000180: 48e2 d330 d595 c534 bdba 88b5 f0fd 0c38
00000190: 813e 0cb8 5bf8 09b7 ee41 8cb3 2fad 2dac
000001a0: 0c6a 52af 8a01 9c39 41c6 54b3 01df b938
000001b0: 38a9 3238 4fd0 7f39 bb15 da32 a64e 252a
000001c0: 8a18 a9ae 41a8 2d34 5d9b fe32 0cc5 1c36
000001d0: fb70 e336 aa21 9435 9686 3ab5 147e e4aa
000001e0: 00b7 46af e551 5439 6032 a1b3 28f7 17b8
000001f0: 2206 9139 1f10 233a 5032 6b32 484c 7c2b

feature_compression.bn.weight f4 [16]
0.84791505 0.7760027 0.79614466 0.81472194 0.80421203 0.82490754 0.73371613 0.7932636
0.7655991 0.8568537 0.81790835 0.79940677 0.83508515 0.8315519 0.78586346 0.7896132
00000000: f610 593f 1da8 463f 23d0 4b3f 9e91 503f
00000010: d7e0 4d3f 242d 533f d2d4 3b3f 5313 4b3f
00000020: 4dfe 433f c45a 5b3f 7162 513f eca5 4c3f
00000030: 24c8 553f 96e0 543f 592e 493f 1724 4a3f

feature_compression.bn.bias f4 [16]
-0.008848415 -0.09068272 -0.07371512 -0.10274545 -0.06883514 -0.10698921 -0.12456031 -0.10024525
-0.10273653 -0.07994828 -0.04873902 -0.05266085 -0.09426372 -0.09978813 -0.06065196 -0.07159403
00000000: f1f8 10bc ddb7 b9bd f4f7 96bd 356c d2bd
00000010: 70f9 8cbd 291d dbbd 7a19 ffbd 624d cdbd
00000020: 8867 d2bd ecbb a3bd 91a2 47bd e7b2 57bd
00000030: 560d c1bd b85d ccbd 316e 78bd e49f 92bd

feature_compression.bn.running_mean f4 [16]
-0.0011174879 0.0050612423 0.0052485056 0.00020396787 0.006787619 0.006160989 -0.0034198286 -0.0024383317
3.4360306e-05 0.0012902828 -0.001499293 0.001117995 0.004984807 0.0020307596 0.0048014573 -0.005847612
00000000: ac78 92ba c7d8 a53b a8fb ab3b 35e0 5539
00000010: ad6a de3b 1fe2 c93b 341f 60bb 6bcc 1fbb
00000020: 191e 1038 b51e a93a ed83 c4ba b089 923a
00000030: 9857 a33b 7e16 053b 8b55 9d3b 539d bfbb

feature_compression.bn.running_var f4 [16]
0.0105211595 0.01705129 0.00927498 0.0114572225 0.009990608 0.013179825 0.014778966 0.009594853
0.006467316 0.0147826625 0.01827842 0.012845011 0.010288626 0.013695703 0.017205732 0.017273609
00000000: f160 2c3c 26af 8b3c 16f6 173c 13b7 3b3c
00000010: a6af 233c 31f0 573c 7a23 723c bb33 1d3c
00000020: c7eb d33b fb32 723c a0bc 953c e273 523c
00000030: a091 283c f163 603c 09f3 8c3c 6281 8d3c
