logs/sscl_01171235/latest_w.pth (torch, 51736 bytes, 30 tensors)

temporal_filtering.conv.weight f4 [8, 1, 1, 128]
000000 e5 f1 0c bd 72 48 56 3c fc 3b 3e 3d 10 26 75 3d
       -0.034410376 0.013078796 0.046443924 0.059850752
000010 d1 c0 91 3d e3 a6 5b 3d 8c 85 9c 3d 00 18 c6 3d
       0.07116855 0.053625952 0.076426595 0.096725464
000020 e1 24 d5 3d 79 4b ec 3d 24 71 05 3e be 42 0d 3e
       0.10407425 0.11537833 0.13031441 0.13794991
000030 6f c0 f1 3d fe 9b ff 3d 6a cc d4 3d 77 a5 e9 3d
       0.11804282 0.12480925 0.103905514 0.11408513
000040 a0 2e cc 3d 8e 8d cb 3d 1d b0 df 3d 19 38 00 3e
       0.099698305 0.09939109 0.10922263 0.125214
000050 ee 11 fc 3d 29 69 0d 3e d1 f0 24 3e d1 94 37 3e
       0.12308107 0.13809647 0.16107489 0.17927863
000060 8f 16 4a 3e 84 af 5d 3e 27 df 6a 3e f5 b7 69 3e
       0.19735168 0.21648985 0.22936688 0.2282408
000070 d6 f2 65 3e b5 6b 53 3e e0 6f 50 3e 46 ab 40 3e
       0.22455916 0.20646556 0.20355177 0.18815336
000080 2f a9 29 3e 3e 82 1e 3e 5a 05 15 3e d9 0b 0e 3e
       0.16568445 0.15479371 0.14552823 0.13871707
000090 74 18 fb 3d be 51 03 3e c5 ab ea 3d 96 20 c3 3d
       0.122605234 0.12824151 0.11458544 0.095277
0000a0 0e 1e a0 3d f7 d3 9f 3d 7b d0 9f 3d c1 b6 6a 3d
       0.078182325 0.07804101 0.07803436 0.057303194
0000b0 03 c0 6a 3d 83 c3 16 3d 06 c1 2e 3d 4e 39 9c 3c
       0.057312023 0.03680755 0.04266455 0.019070294
0000c0 1d 6a 0c 3d 55 7c 8b 3c 95 42 ed 39 2e d9 b9 bb
       0.034280885 0.01702706 0.0004525377 -0.005671642
0000d0 b9 db 86 bc 95 db 06 bc 7b 22 a6 bc 71 93 9d bc
       -0.016462194 -0.008231063 -0.020280113 -0.019235345
0000e0 76 f6 48 bb f1 65 f4 bb 90 b3 84 3c de ab 56 3c
       -0.003066448 -0.0074584414 0.016198903 0.0131025
0000f0 e1 bb 55 3c e6 41 ce 3b ec f7 0b 3b 84 66 2d 3d
       0.013045282 0.006294477 0.002135749 0.042334095
000100 6b f2 64 3c ab 7b 63 3c e0 bf fd 3c 70 6a a3 bb
       0.013973813 0.013884465 0.030975282 -0.0049870536
000110 43 2d 38 3c 15 57 a9 bc aa 26 71 bc cb 15 44 bc
       0.01124126 -0.020671407 -0.014718691 -0.0119680865
000120 ef 63 f4 bb 5b 83 5e 3c 27 e8 a9 3c de 27 a4 3b
       -0.007458202 0.013581122 0.020740582 0.0050096354
000130 92 97 c3 3c 4f 51 3a 3c 7c 89 5c ba 4f af a1 3c
       0.023875985 0.011371925 -0.0008412821 0.019736914
000140 57 c1 0d 3d 63 41 f8 3c 9d 48 9f 3d 67 0e b5 3d
       0.03460821 0.030304616 0.07777522 0.08840638
000150 0b 64 e3 3d 05 47 d9 3d 85 64 ee 3d c3 85 fd 3d
       0.11103066 0.10609249 0.11640266 0.12379029
000160 fb e5 df 3d 18 7e 10 3e 26 9f 1b 3e db 5f 18 3e
       0.10932537 0.14110601 0.15197429 0.14880316
000170 26 a0 0e 3e 59 7f f7 3d 5f 4f 0c 3e da 94 0b 3e
       0.1392828 0.120848365 0.13702153 0.13631001
000180 90 3f c5 3d 03 f8 cd 3d 30 c0 ae 3d b3 0c 4b 3d
       0.09631264 0.1005707 0.085327506 0.049572658
000190 f1 d6 10 3d b9 18 58 3d 8f 12 18 3d e6 bd 8d 3c
       0.035361234 0.052757952 0.037127074 0.017302465
0001a0 2f 68 84 3c ff 84 23 bc 81 21 4f 3c 3a 64 d5 b8
       0.01616296 -0.009980439 0.012642265 -0.000101753
0001b0 f8 28 ec bc d2 2d 16 bc 07 bb d3 bb 86 9f 97 bb
       -0.02882813 -0.009166198 -0.0064615044 -0.004627171
0001c0 e9 ad 87 bb fd d3 1e bd a5 5f f1 bc 76 5b 9e bc
       -0.0041406048 -0.038776387 -0.029464552 -0.019330721
0001d0 c1 4e 31 3c 31 fe 9f bc f6 ab 27 bc 81 f7 62 bc
       0.010821999 -0.019530388 -0.01023387 -0.013852955
0001e0 39 9e c9 3b 7f 6a b6 bb 90 43 7d bc d0 7d 20 3a
       0.006152895 -0.0055668945 -0.015458003 0.0006122263
0001f0 ac d2 cc bc 34 7b 5f bc c9 86 68 bd a5 87 69 bd
       -0.0250028 -0.013640214 -0.056769166 -0.057014126
000200 32 1b 28 be 0a ef 00 be c7 a5 15 be 2b 40 c6 bd
       -0.16416624 -0.12591186 -0.1461402 -0.09680208
000210 36 3e aa bd a9 03 b7 bd 6a 62 c1 bd 05 f8 83 bd
       -0.08312647 -0.08936245 -0.09442599 -0.0644379
000220 52 ee eb bc 4d c3 df bc b0 2f 18 bd 87 2d 95 bc
       -0.028800163 -0.027314806 -0.037154853 -0.018210186
000230 7b f4 f6 bb 0f 02 0b bd a5 b8 09 bd 20 7f 6e bd
       -0.0075364686 -0.03393751 -0.033623356 -0.058226705
000240 d7 8b 4a bd 46 43 23 bd cc 08 67 bd f5 a6 23 bd
       -0.049449768 -0.03985908 -0.056404874 -0.039954145
000250 43 bb 85 bc 2e 43 e1 bc 31 8e 9f bc aa db d4 bc
       -0.016324645 -0.027497854 -0.019476982 -0.02598365
000260 45 c9 af bc ca 07 94 3b eb bf bb bc c6 e6 8b bc
       -0.021458277 0.00451753 -0.022918662 -0.017077815
000270 a5 64 c6 bc b1 31 a6 bc 51 0e 4d bd b8 b6 31 bd
       -0.024217913 -0.020287367 -0.05006248 -0.043387145
000280 6f 58 a9 bd 23 ef a2 bd 85 fa 99 bd 52 03 d0 bd
       -0.082688205 -0.07955768 -0.07518486 -0.10156883
000290 24 06 92 bd 48 c1 c7 bd 61 67 b8 bd 4f 2c c7 bd
       -0.071300775 -0.09753662 -0.09004093 -0.09725248
0002a0 6c 21 a8 bd 99 98 ca bd 14 89 ab bd 84 35 d0 bd
       -0.082095 -0.09892387 -0.08375755 -0.10166457
0002b0 fa 25 a7 bd 93 c6 b4 bd b3 32 c4 bd 73 56 ba bd
       -0.0816154 -0.088269375 -0.095799826 -0.0909852
0002c0 b1 08 cb bd 9c 61 bb bd 1d e7 dc bd 9a 20 f5 bd
       -0.09913767 -0.09149477 -0.10786269 -0.11969109
0002d0 ea 7a f8 bd c0 6d e1 bd 46 73 e2 bd d8 1a f3 bd
       -0.12132819 -0.11007261 -0.11057143 -0.118703544
0002e0 d2 c3 fa bd 6e 52 e9 bd b9 7a fc bd e2 89 0b be
       -0.12244381 -0.11392675 -0.12328095 -0.13626817
0002f0 94 5f fe bd ff 9b f4 bd 82 7a d5 bd 3d f3 bf bd
       -0.12420574 -0.119438164 -0.10423757 -0.09372566
000300 d2 31 99 bd de 82 b5 bd 84 7c aa bd be 94 bf bd
       -0.074802056 -0.088628516 -0.08324531 -0.09354542
000310 77 d2 a3 bd 71 a1 ad bd 1e 61 ac bd a0 3a 90 bd
       -0.07999127 -0.08478058 -0.08416961 -0.07042432
000320 2b ab 57 bd 61 5f 70 bd 83 90 5c bd 9f 49 23 bd
       -0.052653473 -0.05868471 -0.053848755 -0.039865132
000330 52 aa 09 bd fe c6 af bc f3 d5 45 bc b3 56 c2 ba
       -0.033609696 -0.021457192 -0.012074935 -0.0014826864
000340 d1 5b f1 3b f1 ef be 3c ef 5a d0 3c 7a 99 89 3c
       0.0073656817 0.023307772 0.025433986 0.016796816
000350 ac 84 d9 3c fe d3 e5 3c 5b 42 c6 3c 59 b9 02 3d
       0.02655252 0.028055187 0.024201563 0.031915043
000360 d3 e0 68 3c 09 48 a5 3c 1f 1e 5c 3c 73 9f a5 3c
       0.0142137585 0.02017595 0.013434916 0.020217633
000370 1f 11 8f 3c d8 ae 7a 3c a4 6e 5f 3c da 29 0b 3b
       0.017464219 0.015300475 0.013637219 0.0021234662
000380 f8 d5 87 bb 6c d1 3b 3b 34 e5 9d bc 1f 95 a0 bc
       -0.00414538 0.002865876 -0.019274332 -0.019602356
000390 42 a0 91 bc 82 3f 1e bd 61 83 10 bd 03 e2 bf bc
       -0.017776612 -0.038634785 -0.035281543 -0.0234232
0003a0 a9 bb 61 bd 2d 47 82 bd 51 c6 86 bd c2 38 26 bd
       -0.055110607 -0.06361232 -0.065807946 -0.040581472
0003b0 3e 70 6e bd 8a bf ae bd f9 5c ba bd 4e 55 99 bd
       -0.05821251 -0.08532627 -0.090997644 -0.07486974
0003c0 78 c4 d1 bd a4 ef c9 bd 9b 5f a9 bd 28 c8 9c bd
       -0.102425516 -0.09860161 -0.082701884 -0.07655364
0003d0 f2 c2 ae bd 6d b8 7a bd 89 c2 28 bd 39 e9 82 bd
       -0.085332766 -0.06121104 -0.04120115 -0.0639214
0003e0 b5 ff 15 bd 8e ac 45 bd 96 af 5d bd 10 c7 78 bd
       -0.036620814 -0.048260264 -0.05412253 -0.060736716
0003f0 db 78 ac bd c1 48 9d bd c8 ab d6 bd e3 e5 03 be
       -0.08421489 -0.07679892 -0.104819834 -0.12880664

temporal_filtering.conv.bias f4 [8]
000000 2c 23 ce be a8 85 43 3d 60 bf 0f bd 6b 2e 7b 3d
       -0.4026121 0.047734886 -0.03509462 0.061323564
000010 66 71 31 3d 97 9e 85 bd 03 05 3e be e2 64 47 be
       0.043321036 -0.06524389 -0.185566 -0.19472077

temporal_filtering.senet.fc.0.weight f4 [4, 8]
000000 55 72 1a 3f a2 f1 9f be 8a bf 28 3e e7 2c d6 be
       0.60330707 -0.3123904 0.16479316 -0.41831133
000010 96 06 af bc a4 00 8f bd 4a cf 2b 3e 1e e8 1b 3e
       -0.021365445 -0.06982544 0.16778293 0.15225264
000020 b3 43 8d be cd ca 65 3e 8f 0a aa bd 17 8e 74 3e
       -0.27590713 0.22440644 -0.08302795 0.23882328
000030 a2 18 9b 3a ef ca 36 3d 58 e5 27 bd cd 53 04 bd
       0.0011832903 0.044627126 -0.040990204 -0.03230648
000040 f9 71 b7 be df a4 70 3e 65 59 b2 bd 05 8a 01 3e
       -0.35829142 0.23500393 -0.08708457 0.12650307
000050 d6 7d 85 3c 9a 5a 23 3d 11 74 07 bd e1 00 6a bd
       0.016295355 0.039881326 -0.033069674 -0.057129744
000060 bd 77 0a be e7 c7 53 3e ea e5 29 bd a1 6b c2 3d
       -0.13522239 0.20681725 -0.04147903 0.09493185
000070 f2 2a 81 3c 40 fc 24 3c 54 7c 03 bd 1d a1 19 bd
       0.015767548 0.010069907 -0.03210099 -0.037507165

temporal_filtering.senet.fc.2.weight f4 [8, 4]
000000 f4 90 87 be 35 91 5b be 0a 56 9f be 45 82 ef bd
       -0.26477778 -0.21442111 -0.3112033 -0.11694769
000010 1c 5d 53 be f4 0e 47 be c0 3a 18 be 3c 82 0c be
       -0.20640987 -0.19439298 -0.14866161 -0.13721555
000020 86 bb 0d bf 1b af 91 bd c7 cb 1a bc 70 00 30 bd
       -0.55364263 -0.07113477 -0.009447998 -0.042969167
000030 da b0 b8 be dc 8e fd bd 15 a0 5b be a7 fa 17 be
       -0.36072427 -0.12380764 -0.21447785 -0.1484171
000040 6e e5 c4 3c 0a a3 08 be 98 63 71 bc 0e a4 b3 bd
       0.024035182 -0.13343444 -0.014733218 -0.08771525
000050 f4 bb 91 3e ef ac ab bd e4 9e 60 3d 4c 93 cb 3c
       0.2846371 -0.08382594 0.05483903 0.02485051
000060 c7 e4 74 3c 3f 98 37 be 04 24 23 be ca 8a 10 be
       0.014947123 -0.17929171 -0.15931708 -0.14115444
000070 62 db c6 3e 54 b7 89 3d 85 d0 18 3e ff 74 e4 3d
       0.3883925 0.0672442 0.14923294 0.11155128

temporal_filtering.bn.weight f4 [8]
000000 dd 20 6f 3f c5 2f 36 3f 47 ce 7a 3f 5a ed 62 3f
       0.9340952 0.7116664 0.97971004 0.8864342
000010 15 7b 71 3f fa 52 42 3f 1d 4e 4f 3f 74 b6 5c 3f
       0.94328433 0.7590786 0.80978566 0.862159

temporal_filtering.bn.bias f4 [8]
000000 ba f6 13 3b 5a f2 75 be dd 33 bb be a4 8f 91 be
       0.002257748 -0.24018231 -0.36563006 -0.28429902
000010 05 5e 25 be bd 68 e8 be cd d4 ab be 4b 5d 1c bf
       -0.16149147 -0.4539241 -0.33560792 -0.61079854

temporal_filtering.bn.running_mean f4 [8]
000000 7a 79 47 bb 08 15 78 bd 55 7c 05 be 41 75 89 3d
       -0.0030437396 -0.060566932 -0.1303571 0.067118175
000010 7c d9 0d 3d 82 d4 aa bd f2 61 07 bd 2a 5f 08 be
       0.034631237 -0.08341314 -0.033052392 -0.13317552

temporal_filtering.bn.running_var f4 [8]
000000 92 f3 a0 3f 9e 45 98 3f 88 36 05 3f cd 82 4a 3f
       1.2574332 1.1896245 0.52036333 0.79105836
000010 8b 89 88 3f 28 88 e2 3f 25 3a d2 3e 5e ab 28 40
       1.0666975 1.7697802 0.41059986 2.6354594

spatial_filtering.conv.weight f4 [16, 8, 3, 1]
000000 c0 10 4d 3c 77 5f 4f bd c8 eb 21 3e e7 ce c5 3d
       0.012516201 -0.05062815 0.158126 0.09658604
000010 d4 10 6d 3d 46 83 cb 3d d7 27 7e 3d db 0b 64 3d
       0.057877377 0.09937148 0.062049713 0.05567537
000020 3f b3 e6 3c d9 99 13 bd 67 da 46 3d 9d 05 76 bd
       0.028161643 -0.036035392 0.04854813 -0.060063947
000030 1c 91 43 3d b6 0c e7 bc 0c 0c 26 3d 76 1b fd 3d
       0.04774581 -0.028204303 0.040538833 0.123587534
000040 df 1f 61 3e 50 5f 11 3e 71 f0 00 3e d6 4a 03 3e
       0.21984814 0.14196515 0.12591721 0.12821516
000050 90 3b f7 3c 84 d8 c9 3a 27 0a 18 bd 09 e4 86 bc
       0.030179769 0.001539961 -0.037119057 -0.016466158
000060 3b ba 0f be 5b 1a 6d bd c0 51 02 be 1c 51 58 bd
       -0.14035885 -0.057886463 -0.12726498 -0.052811727
000070 5b 1d a9 bd be 4b ae bd 11 e3 16 bc 80 47 03 3c
       -0.08257552 -0.085105404 -0.00920941 0.008012652
000080 cb ed fb 3c 4c 2e d2 bd a8 75 83 bc 9f ef 9b bd
       0.030753037 -0.10262737 -0.016047314 -0.076140635
000090 a6 93 f5 bd 66 e0 f8 bc 92 b8 7b 3c 55 c6 57 3c
       -0.11991052 -0.030380439 0.015363829 0.013169845
0000a0 63 d3 5d bd 18 6f 80 3c 64 9a f1 bd 85 12 3c bd
       -0.054156672 0.015677974 -0.11797026 -0.0459161
0000b0 83 42 e5 bd 5e c2 16 be 9a 3d 06 be df d3 aa bd
       -0.11194327 -0.14722583 -0.13109437 -0.083411925
0000c0 99 f0 04 3d 4a ed c9 3c a0 a6 66 bd 21 99 93 3d
       0.032456014 0.024649281 -0.05631125 0.072069414
0000d0 10 92 b8 bd 69 74 0f bd 45 52 6f 3d 26 a6 d3 bd
       -0.09012234 -0.035023127 0.058428068 -0.10334425
0000e0 0e c9 86 3d 16 42 76 3a fb 6f b9 3d b1 04 2a 3e
       0.06581317 0.0009394003 0.09054562 0.16603352
0000f0 d8 44 22 be 1f d4 4c bd 59 7c 20 be 01 ad 3f 3d
       -0.15846574 -0.050006982 -0.15672435 0.04679585
000100 e1 48 8e bc 21 07 07 3e 12 61 0d 3e 54 6e 98 3d
       -0.017368736 0.13186313 0.1380656 0.074429184
000110 7d 5c 0c 3e 25 66 12 3e 24 b1 44 3d 1f fe cf 3d
       0.13707156 0.14296778 0.048020497 0.101558916
000120 36 7a 88 3d c8 56 14 bd d7 3c 90 bd 64 23 02 bd
       0.06663935 -0.036215574 -0.07042854 -0.031772032
000130 57 f7 dd 3b f8 52 78 3c 13 8a 8c bb 69 7e 40 3e
       0.00677387 0.0151565 -0.0042889207 0.18798222
000140 c0 b7 14 3e 09 a8 39 3d 67 2b 61 3c 9b ef a3 3d
       0.1452322 0.045326266 0.013743258 0.080046855
000150 5f 45 eb 3a fa 37 9c 3d 09 ed 18 bd 89 6e c1 3c
       0.0017949751 0.07627864 -0.03733543 0.023612278
000160 94 5c 35 3d 08 4d 76 3d d9 54 84 3e 52 40 34 3e
       0.044277743 0.060132056 0.25845984 0.17602661
000170 a0 81 31 3e 33 35 98 3c 1a cf 99 3d 67 11 d9 bc
       0.17334604 0.018580055 0.075102046 -0.026497556
000180 11 6a 4d bd 39 41 8c 3d c4 dd 29 3e 1e ec dc bc
       -0.05014998 0.06848378 0.16588503 -0.026968058
000190 27 fa 70 3d d6 81 52 bc 5d a2 26 bd ce 96 18 bd
       0.058832314 -0.012848338 -0.040682185 -0.037253194
0001a0 c7 db 18 be ec 58 e3 3d 42 01 d5 3d ad 38 21 bd
       -0.14927588 0.11100945 0.104006305 -0.03936069
0001b0 38 63 9d bd 4a a0 47 3d d4 10 c7 bb 36 7f 3a bd
       -0.0768494 0.048736848 -0.006075004 -0.045531474
0001c0 d3 1a 9e 3c 9b 62 87 bd 8c c3 ea bd de 42 be bc
       0.0192999 -0.066106044 -0.11463079 -0.023225244
0001d0 1e d7 90 bd 58 cf 4e 3e 68 d3 7c 3e b8 d6 2f 3e
       -0.0707228 0.20196283 0.2469002 0.17171752
0001e0 7c 3c 5b bd b9 b1 ad 3d 32 52 cc bd 74 46 92 bd
       -0.05352448 0.084811635 -0.09976615 -0.07142344
0001f0 c8 b9 a4 bd 82 a2 b2 bc e6 25 54 3e a7 8e 05 3e
       -0.080432475 -0.021806005 0.20717582 0.13042699
000200 7e 70 f0 3d a1 ff 19 3e bc 12 53 bd 4c 65 1f 3e
       0.11740206 0.15038921 -0.05153154 0.15565985
000210 e6 00 93 bd a7 55 1c 3e cd fb ec bc 7a a3 12 be
       -0.07177906 0.15267049 -0.028928662 -0.14320174
000220 6b 88 b3 3c 29 56 1a be c5 bf 8a bd 93 dd 00 be
       0.021915635 -0.1507193 -0.067748584 -0.12584524
000230 67 04 13 bd 9c 8b fc 3d af 8f 46 bd 8e 66 2b bd
       -0.03589287 0.12331316 -0.04847687 -0.04184585
000240 d3 74 32 bc 25 d9 a3 bd c9 1b ca bd ad 41 35 bb
       -0.010892111 -0.080004014 -0.09868581 -0.0027657554
000250 fe b4 94 bd eb 7f bf 3b 41 20 40 3e 25 b5 41 3e
       -0.07261084 0.0058441064 0.18762304 0.18916757
000260 e8 24 33 3e 24 7c 1c bd 65 28 92 3d ba 9f 80 3d
       0.17494547 -0.038204327 0.07136611 0.062804654
000270 b2 32 f6 3b 5e 1f a4 bc 0d 21 9b bc da 95 b6 3c
       0.0075133676 -0.020034488 -0.018936658 0.022288252
000280 fa 5a 3b b9 9c cc 10 3d 6b 1b 78 3d 04 7b 87 3d
       -0.00017867601 0.03535138 0.060573023 0.0661526
000290 6e 25 ef 3a 06 45 26 3c bb 6f 92 bd b1 ff 9a bc
       0.0018245408 0.010148292 -0.07150217 -0.018920751
0002a0 64 4e 1c 3d e3 e6 d5 3b 16 dd 49 3d 98 9e 0e be
       0.038160697 0.006527768 0.04928311 -0.13927686
0002b0 3e 6d 93 bd 56 81 15 be 33 85 cb bd b5 90 0f bd
       -0.07198571 -0.14600119 -0.09937515 -0.035050113
0002c0 f9 e8 c8 bd 7f 5a d4 3d 7d 22 d5 3d 5e a7 29 3d
       -0.09810061 0.10368823 0.10406969 0.04141938
0002d0 4c 1c b4 bd ef 8c b5 bd 2c 55 13 be 63 c6 cf 3d
       -0.0879446 -0.088647716 -0.14387959 0.10145261
0002e0 fe 8b 01 3e 43 cf 3e 3d 8b cd e9 bb 3c 77 8b bc
       0.12651059 0.04658438 -0.0071350983 -0.017024629
0002f0 05 bc 45 bc 34 b4 0e be a2 a2 a7 bd 0c 79 c5 bd
       -0.012068753 -0.1393593 -0.081853166 -0.096422285
000300 4e 6d c1 ba 83 3e 46 be ed 27 4f bd 3e 08 a4 bd
       -0.0014757307 -0.19359784 -0.050575186 -0.080093846
000310 ac d7 92 3d 51 57 7a 3c c8 1f 9f 3d fc 85 5f 3c
       0.071700424 0.015279607 0.07769734 0.013642784
000320 cb cf 4e 3d 57 05 ec 3d fe d0 12 3d 66 7e be 3c
       0.050491136 0.11524456 0.03584384 0.02325363
000330 e6 9f 32 3e 8e e4 25 3e 4f 1b e8 3d 66 b9 10 be
       0.17443809 0.16200468 0.11333334 -0.14133224
000340 18 89 cb bd 31 5e 23 bd 4c 3e 57 bc 02 0a 51 bd
       -0.09938258 -0.03988475 -0.013137411 -0.051034935
000350 b9 ce 6b 3d 51 bc 0a 3d a0 d2 bd 3c 0a 01 45 3d
       0.057570193 0.033871 0.023171723 0.048096694
000360 2c a9 c9 bd ad ce 12 bd 1b fb 3c bd 5e 4d 24 bc
       -0.0984672 -0.035841633 -0.04613791 -0.010028211
000370 82 2e 56 bd d8 f0 6d bd f8 76 6e 3d 32 3c 4c 3d
       -0.052290447 -0.058091015 0.058218926 0.049862094
000380 2a 51 56 3d a6 59 13 bd 93 a1 b6 3d 6d d8 e6 3c
       0.052323498 -0.035974167 0.089175366 0.028179372
000390 b2 9f 26 3e f3 d4 d2 3d a5 38 04 3e 27 9a c4 bd
       0.16271856 0.10294523 0.12912233 -0.09599715
0003a0 3a 43 73 bd d0 56 84 bd 5a 75 61 bd e4 1f a8 bd
       -0.059390284 -0.06461871 -0.055043556 -0.08209208
0003b0 61 e8 28 bd 10 83 c1 3d d2 1b eb 3d c1 82 c6 3d
       -0.04123724 0.09448826 0.11479916 0.09692908
0003c0 b1 e2 eb bc 5f 59 bb ba 1c 1a d7 bc 41 02 06 3c
       -0.028794618 -0.0014293602 -0.026257567 0.008179248
0003d0 53 dc 81 bd 90 ab 3a 3b 46 49 e4 3c 6e 9c 10 bd
       -0.06340852 0.0028483607 0.02786697 -0.035305433
0003e0 1d db 83 3d 3a 2d 60 3c e1 4a 05 3c 76 db 09 bd
       0.06438277 0.013682658 0.008135528 -0.03365656
0003f0 77 39 23 be 27 aa 33 be 14 85 37 be 74 23 e9 3d
       -0.1593989 -0.17545377 -0.17921859 0.11383715

spatial_filtering.conv.bias f4 [16]
000000 45 58 2f 39 3d f6 da b9 d5 7f 74 39 48 61 c1 b9
       0.00016722183 -0.00041763662 0.00023317274 -0.0003688431
000010 fb 80 a7 39 ab 53 3b 39 73 88 d7 38 df 2f f0 b9
       0.0003194882 0.00017864878 0.000102774145 -0.00045812034
000020 fb 2a 62 ba 5e 31 60 ba dc f9 a2 39 c9 79 a3 38
       -0.00086276204 -0.0008552278 0.00031085208 7.79513e-05
000030 20 94 ad b9 56 f0 a7 39 c5 22 a3 ba 20 a7 80 b9
       -0.00033107493 0.00032031786 -0.0012446275 -0.0002453858

spatial_filtering.senet.fc.0.weight f4 [8, 16]
000000 72 ce e5 17 57 d8 24 18 70 10 54 99 e9 39 f3 19
       1.4850892e-24 2.1305727e-24 -1.0963463e-23 2.5149001e-23
000010 a6 0a 84 99 4a bb 75 19 a3 9e 79 19 97 c6 00 99
       -1.3652781e-23 1.2704026e-23 1.2905035e-23 -6.65755e-24
000020 ca a2 cd 97 38 aa 02 18 99 de f8 17 e6 20 4a 99
       -1.3288908e-24 1.6888045e-24 1.6082816e-24 -1.0449799e-23
000030 8a 98 07 19 b2 ce 0c 19 37 79 b1 99 ee 8e b9 19
       7.0101414e-24 7.279572e-24 -1.835033e-23 1.918628e-23
000040 60 c3 4a bb 89 78 86 3b 4e 38 69 bb c3 94 a9 bb
       -0.0030939206 0.0041037244 -0.0035586539 -0.0051752045
000050 cf fe 7b 3b 4e 9a 9d bb 79 ea 9c bb 78 36 8e 3a
       0.0038451438 -0.0048096543 -0.0047886935 0.0010849973
000060 82 21 b4 bb a6 8a bc ba 46 52 bc ba 94 ea 17 ba
       -0.0054971585 -0.0014384582 -0.0014367781 -0.0005795148
000070 6f 6c 67 bb 50 b9 a1 bb 6c 55 ee 3b b6 71 70 3b
       -0.0035312434 -0.004935421 0.0072733667 0.003668887
000080 c1 34 e2 2c 11 fa 4f ad e1 fe 1e 2d 37 30 bc 2d
       6.429163e-12 -1.1822114e-11 9.037855e-12 2.1394537e-11
000090 2d 50 c6 ac e0 69 5d 2d 26 d0 03 2d b2 b2 94 ad
       -5.6363998e-12 1.25859045e-11 7.492706e-12 -1.6905009e-11
0000a0 10 84 4e 2d 68 b9 62 2d 60 20 7a ad 31 69 4c 2d
       1.1739068e-11 1.2887781e-11 -1.4218043e-11 1.1619415e-11
0000b0 56 32 e0 ad d2 50 95 2d 24 b8 99 ad 93 e2 dc 2c
       -2.5488205e-11 1.697523e-11 -1.7475861e-11 6.277931e-12
0000c0 84 3b e6 a0 a0 a2 04 21 84 fe a2 a0 4b b6 08 a1
       -3.90029e-19 4.493857e-19 -2.7612292e-19 -4.6319855e-19
0000d0 c5 c1 05 20 7a 99 4a 20 f9 2a 2f a0 bb 3a e0 1f
       1.1329651e-19 1.7160847e-19 -1.4837295e-19 9.496485e-20
0000e0 53 d9 3f 22 20 02 07 9f 1f 30 7a a0 a3 04 c3 20
       2.6000377e-18 -2.858912e-20 -2.1191746e-19 3.3037353e-19
0000f0 fa d8 53 21 36 c1 0b a1 83 de c5 20 1d dc a6 9e
       7.1776747e-19 -4.7350744e-19 3.3520344e-19 -1.766697e-20
000100 f1 69 5e a4 2c 28 40 23 7e c5 84 a4 2e ea c9 24
       -4.8228312e-17 1.04168476e-17 -5.758044e-17 8.756657e-17
000110 91 50 9d a4 7f 1b b0 24 13 a4 ab 24 e2 b1 95 a4
       -6.822438e-17 7.637441e-17 7.443738e-17 -6.4919795e-17
000120 c9 65 94 24 8a 02 f5 23 75 81 a4 a3 22 51 a5 a4
       6.43572e-17 2.6564029e-17 -1.7835743e-17 -7.169479e-17
000130 38 5b c8 23 1d b6 88 a3 d6 55 6e a4 7a 20 11 25
       2.1722676e-17 -1.4822278e-17 -5.168073e-17 1.2587749e-16
000140 db af d5 19 a2 1d 1b 19 42 13 9b 1a 37 d5 2c 18
       2.2094711e-23 8.0192965e-24 6.413761e-23 2.2338125e-24
000150 81 dc 04 1a 7b b6 88 19 4a e9 63 19 4d a2 94 19
       2.7475082e-23 1.4135774e-23 1.1782737e-23 1.5368394e-23
000160 49 0b 53 17 77 78 2f 17 76 bb 51 1a 32 b8 cd 19
       6.819202e-25 5.66976e-25 4.3371617e-23 2.1270899e-23
000170 85 1e 39 1a 0c 95 12 1a f6 6c a1 99 d2 65 91 17
       3.8281757e-23 3.031249e-23 -1.6691019e-23 9.396108e-25
000180 74 b3 00 00 3c db 00 00 ef 5e 06 80 03 94 03 00
       6.4376e-41 7.8646e-41 -5.85069e-40 3.28603e-40
000190 a9 ff 09 80 da 5b 10 00 d0 24 0b 00 e1 07 04 80
       -9.18233e-40 1.502318e-39 1.023396e-39 -3.70168e-40
0001a0 8e b6 18 00 a5 0a 00 00 d8 2f 02 80 12 11 06 80
       2.26954e-39 3.819e-42 -2.00834e-40 -5.57137e-40
0001b0 1c d2 0c 00 20 d7 0e 80 4f 39 0b 80 e2 ed 06 80
       1.177399e-39 -1.362869e-39 -1.030749e-39 -6.36349e-40
0001c0 fa 50 ac 9e f5 38 88 9f 8b e6 2b a0 6e 93 ee 1f
       -1.82447e-20 -5.769247e-20 -1.4560544e-19 1.0104082e-19
0001d0 03 ea 2a 9d b2 5d 37 9e 7b f0 40 1e 6e 20 e2 9e
       -2.2620294e-21 -9.707315e-21 1.02141256e-20 -2.3942093e-20
0001e0 a4 46 94 a0 3c 3b 12 1f 95 50 0c 9f 17 ce 03 1e
       -2.511892e-19 3.09657e-20 -2.971281e-20 6.977701e-21
0001f0 cf 65 96 9d f9 d7 08 20 10 b0 33 9e 37 d6 15 20
       -3.9809937e-21 1.1591107e-19 -9.51259e-21 1.2691669e-19

spatial_filtering.senet.fc.2.weight f4 [16, 8]
000000 e3 49 97 17 e7 88 25 bc 8c a8 94 2d 61 e7 56 a1
       9.776798e-25 -0.010103441 1.6900502e-11 -7.281225e-19
000010 a4 6c bb a3 b6 ff 61 98 09 23 04 00 1a c5 04 20
       -2.0320592e-17 -2.920967e-24 3.7991e-40 1.124605e-19
000020 97 a0 55 99 47 99 da 3b b3 08 be 2b f8 c5 47 21
       -1.1044273e-23 0.006671104 1.3502726e-12 6.768583e-19
000030 9e 9d 2f a5 e4 3c 3d 1a c6 de 04 80 51 ef ae a0
       -1.5232233e-16 3.913347e-23 -4.47258e-40 -2.9635113e-19
000040 82 27 95 19 f0 9e 2c 3c cd 67 77 aa 2a be 09 22
       1.5422196e-23 0.0105359405 -2.197402e-13 1.8667634e-18
000050 0c 69 3f 24 8e 6a 86 9a 47 9a 03 00 b4 bc 4a 1f
       4.15055e-17 -5.559325e-23 3.30851e-40 4.2931255e-20
000060 26 68 8e 99 3b a9 37 3c 4b 35 b6 ad 9f 03 8f a0
       -1.4724521e-23 0.011209781 -2.0714671e-11 -2.4227539e-19
000070 bc 4c a1 23 a5 7c 08 1a e4 33 0e 80 d7 17 71 a0
       1.7488153e-17 2.8224828e-23 -1.304312e-39 -2.0421382e-19
000080 52 9d 0c 99 9a 34 0f bc 17 e6 ce 2d 6e ab 9f a1
       -7.269601e-24 -0.0087405685 2.3521669e-11 -1.0819636e-18
000090 ec fc 90 a4 42 2b ed 99 e3 dc 03 00 4b 34 17 1f
       -6.287851e-17 -2.4522697e-23 3.54746e-40 3.201875e-20
0000a0 64 4a 3b 98 14 e3 b3 bb 6c 9e 40 ad 4f 3b 1b 21
       -2.4206741e-24 -0.0054897163 -1.0949113e-11 5.2594537e-19
0000b0 d9 04 f9 a3 4e 21 99 19 91 1c 00 80 39 3f 4d 1e
       -2.6998687e-17 1.5833281e-23 -1.0248e-41 1.0865684e-20
0000c0 47 9f 0b 99 6c 1a a9 ba a6 b0 5c ad 1f c3 21 a1
       -7.218297e-24 -0.0012901551 -1.2544776e-11 -5.480716e-19
0000d0 f2 cc c0 a4 0c b9 11 99 ed e8 03 00 13 79 d4 1f
       -8.361392e-17 -7.533694e-24 3.59065e-40 8.998579e-20
0000e0 53 53 33 99 5e 81 25 bc db 2f 08 2d 95 7f 26 a0
       -9.27091e-24 -0.010101644 7.741331e-12 -1.410296e-19
0000f0 7a 3e cc a3 06 96 0e 1a f3 8a 00 80 18 6c d5 9a
       -2.2144184e-17 2.94861e-23 -4.9846e-41 -8.826937e-23
000100 98 5c 00 96 8b 40 4e bc 49 36 4b 2d ac 84 48 a1
       -1.0368975e-25 -0.01258863 1.1551268e-11 -6.7938226e-19
000110 af db 86 a2 23 39 df 16 a0 66 02 80 f3 b3 26 a0
       -3.655337e-18 3.6063651e-25 -2.20486e-40 -1.4120287e-19
000120 86 c4 55 99 ec 1e 06 3c ec de 1d ae 68 dd 25 22
       -1.10515295e-23 0.008186083 -3.589566e-11 2.2478881e-18
000130 ee 4a 86 a4 d6 10 d5 99 0d 53 03 80 39 68 7a 9f
       -5.824017e-17 -2.2030484e-23 -3.053e-40 -5.302577e-20
000140 eb 23 d9 18 96 10 ee 3b a6 53 8e ac 2b 51 66 20
       5.6129453e-24 0.007265161 -4.0451696e-12 1.9508614e-19
000150 cd 67 d2 a4 b1 f0 78 98 d4 38 17 80 b9 a6 02 1f
       -9.124883e-17 -3.2174767e-24 -2.132603e-39 2.766648e-20
000160 eb 69 b2 98 72 ba 3a 38 84 c2 05 2d 6b 40 ff a0
       -4.611887e-24 4.4519496e-05 7.603366e-12 -4.3241309e-19
000170 92 15 1b a3 10 46 04 1a 94 eb 05 80 65 4e e8 9e
       -8.4071345e-18 2.7353556e-23 -5.43687e-40 -2.4596379e-20
000180 13 dd 62 98 50 1e f1 3b a4 60 e6 ac 55 25 99 21
       -2.932143e-24 0.00735835 -6.5477224e-12 1.0377565e-18
000190 7d d1 8a 24 c1 0b 98 19 c9 8c 02 80 30 b3 86 9f
       6.020285e-17 1.5721179e-23 -2.34175e-40 -5.704765e-20
0001a0 b6 fb 01 99 ed f7 97 3a 22 4b 9d 2d 51 4c 66 9f
       -6.719976e-24 0.0011594273 1.78822e-11 -4.8767522e-20
0001b0 b2 3b e0 a4 72 5c c0 98 3a 09 07 80 12 79 af 9e
       -9.724564e-17 -4.9724183e-24 -6.46158e-40 -1.857892e-20
0001c0 c6 d0 54 19 5e 93 96 3c fc a5 b2 ac 68 c0 02 a2
       1.10023046e-23 0.018380817 -5.0774922e-12 -1.7720144e-18
0001d0 c0 e0 23 a3 15 fb 06 9a 94 11 0a 80 95 44 02 9e
       -8.88384e-18 -2.7913373e-23 -9.24661e-40 -6.896325e-21
0001e0 a0 93 0a 97 f9 cd 34 3c 09 cc 9e 2b c3 83 4a a1
       -4.4776534e-25 0.011035436 1.1283206e-12 -6.8614647e-19
0001f0 1a e7 2b 24 5c ce 30 98 2e 86 01 80 b6 9d e4 1e
       3.7275465e-17 -2.2851652e-24 -1.3997e-40 2.4205667e-20

spatial_filtering.bn.weight f4 [16]
000000 2c 43 08 3f bd 65 09 3f f6 61 29 3f 50 68 11 3f
       0.53227496 0.53670865 0.661651 0.56799793
000010 be cc 2d 3f 89 ce 05 3f 35 ed e4 3e e1 5c 43 3f
       0.67890537 0.5226827 0.44712225 0.76313597
000020 cf cb 08 3f 34 58 d5 3e 07 e5 4b 3f 42 73 ef 3e
       0.5343599 0.41668856 0.79646343 0.46767622
000030 4e 46 5c 3f e8 c4 fd 3e c2 07 64 3f a0 82 71 3f
       0.86044776 0.4956429 0.8907434 0.9433994

spatial_filtering.bn.bias f4 [16]
000000 a7 18 48 be cb e0 e7 bd 59 f7 9f bd 85 ee 54 bc
       -0.19540654 -0.11322173 -0.0781085 -0.012996321
000010 9e e2 23 be 88 42 3b bd 48 df af bd 6f c7 06 be
       -0.16004416 -0.045717746 -0.085875094 -0.13162015
000020 6a cf 54 be f5 28 9e ba 03 f5 26 be ca da e3 bc
       -0.20782247 -0.001206665 -0.16304402 -0.027814288
000030 06 63 22 be 5e 10 4f bd e3 8f 87 be e0 3e ad be
       -0.15858087 -0.05055272 -0.26476964 -0.33837032

spatial_filtering.bn.running_mean f4 [16]
000000 17 8b a9 bd e0 09 9b 3d c3 8a d5 bd cc 8a cd bd
       -0.082784824 0.07570243 -0.10426857 -0.10036239
000010 eb 29 56 bd 32 08 1a 3c 59 60 50 bd c4 87 37 3d
       -0.05228607 0.009401368 -0.050873134 0.04480721
000020 c7 84 47 bc f0 a7 d0 bc 47 1a 54 bc 0f 7c 8a bd
       -0.012177653 -0.025470704 -0.012945718 -0.067619435
000030 29 66 a0 bc a5 35 0c be 9b 27 bf 3d cc 8d 9f bc
       -0.019579964 -0.13692339 0.09333726 -0.019476794

spatial_filtering.bn.running_var f4 [16]
000000 6a 96 83 3c 19 e6 9e 3c 38 18 1e 3d 50 7b e1 3c
       0.016062934 0.019396828 0.038597316 0.02752462
000010 18 89 d4 3c 8b 30 a7 3c 9a 1f b7 3c 37 47 4d 3c
       0.025944278 0.02040889 0.022353936 0.012529186
000020 37 1e e2 3c 47 6b 34 3c 8f d6 b1 3c 76 ac f4 3c
       0.027602298 0.011011905 0.021708755 0.029867392
000030 d6 01 4b 3c 29 35 e7 3c f4 87 f8 3c c0 f0 fd 3c
       0.012390574 0.02822359 0.030338265 0.030998588

feature_compression.depthwise_conv.weight f4 [16, 1, 1, 32]
000000 cd 68 83 3d 20 4e 22 3e 54 48 f3 3d bf b9 89 bd
       0.064164735 0.15850115 0.1187903 -0.067248814
000010 20 c7 1c be ef ce 48 be 2b 49 32 be 6c 5d a0 bc
       -0.15310335 -0.19610189 -0.17410724 -0.019575797
000020 4f 3b 51 3c 49 20 20 bd 30 36 98 3c d0 e1 2e 3d
       0.012770488 -0.03909329 0.018580526 0.04269582
000030 af bf e6 3d f9 f2 d7 3d 80 5f 84 3d a5 51 3b 3d
       0.112670295 0.1054439 0.06463528 0.04573216
000040 7e 0f 05 bd 44 1e 07 be 4d ad d7 bd 94 e9 88 bc
       -0.032485478 -0.13195139 -0.105311014 -0.016712941
000050 a4 3f ae 3d b2 49 a8 3d 49 93 a3 bc e7 4b 52 3d
       0.08508232 0.08217181 -0.019967692 0.051341917
000060 58 11 2a bd 74 e0 6c 3d 9b 13 39 3a 66 c2 05 3d
       -0.041520447 0.057831243 0.00070601114 0.032656096
000070 4e df b1 3b 00 1c a3 37 7a aa 64 bd ec 34 9e bd
       0.0054282313 1.9444153e-05 -0.05582664 -0.07724938
000080 ce dc 9e 3d 88 82 05 3e 6c df 47 3d 4a 35 55 bc
       0.07756959 0.13038075 0.048797056 -0.013013193
000090 5d 21 ff bc 8d fb a4 bd 90 e8 3e bd 7f 32 77 bd
       -0.031143839 -0.08055792 -0.046608508 -0.06035089
0000a0 cb a8 a7 3c e5 be d4 3d a2 41 5d 3e 6f f6 2c 3e
       0.020466229 0.10387973 0.21607068 0.16890882
0000b0 9d 20 ca 3d 62 60 9d bd 4c a8 6e bd 12 28 8b bd
       0.09869502 -0.07684399 -0.05826597 -0.06794752
0000c0 23 12 16 be c8 21 fb bd 45 18 ed bd 52 9a 3a 3b
       -0.14655356 -0.12262303 -0.11576895 0.002847333
0000d0 57 17 01 bd 5d f0 15 3d 83 ce ab bd 1f 74 cf bd
       -0.0315164 0.03660618 -0.08388998 -0.1012957
0000e0 5a fc 5c bd a5 36 1b 3d c5 8a 17 3d 17 b6 64 3d
       -0.0539516 0.03789391 0.036997575 0.055837717
0000f0 64 41 fb 3c c4 f1 5a 3c 30 0f a5 3d 0e ae a1 3c
       0.03067083 0.0133633055 0.080595374 0.019736316
000100 f9 2e 0c 3e cf 7d 14 3e 5b 5b d0 3d 06 cf ee bc
       0.13689794 0.14501117 0.10173675 -0.02915145
000110 43 c9 e4 bd 99 c2 f2 bd a0 3e 2c 3a 7a 5d 61 3d
       -0.111712 -0.11853523 0.0006570611 0.055020787
000120 74 58 a9 b9 f7 3f 7f bd b2 1c 22 be 36 c1 c5 bd
       -0.00032300095 -0.06231686 -0.15831259 -0.09655993
000130 85 54 c6 3d 29 14 27 3e 3f 65 e0 3d 35 0c 46 3d
       0.096840896 0.16316284 0.10956811 0.048351485
000140 ad be 81 bc 30 86 87 3d cf c1 81 3d 97 81 16 3d
       -0.015837992 0.06617391 0.06335794 0.03674468
000150 75 69 a7 3a e8 78 a1 bc 62 b3 69 be 20 46 8c bd
       0.0012772518 -0.019710973 -0.22822335 -0.06849313
000160 34 57 3a bd f5 ef 19 3c f0 44 26 3e c9 ac 10 3e
       -0.04549332 0.009395589 0.16237235 0.14128412
000170 08 87 22 3d 51 02 0d 3c ad e0 86 3c 43 42 2c be
       0.039679557 0.008606509 0.016464556 -0.16822152
000180 5a 5d 9a 3b a4 1a 24 3d 46 cd a6 bd fd 91 33 3a
       0.0047108354 0.04006447 -0.081446216 0.0006850062
000190 83 b2 20 3e bf 0c 1d 3e 8c 69 cb bc 9d b9 f1 bd
       0.15693097 0.15336893 -0.024830602 -0.11802981
0001a0 59 aa 24 be fa 80 02 be 25 09 aa 3c a6 b5 87 3d
       -0.16080607 -0.12744513 0.020756314 0.066264436
0001b0 96 31 32 3d f3 47 a2 bd 5d 66 5b bb e3 d5 ee 3c
       0.04350432 -0.079238795 -0.0033477761 0.029154724
0001c0 23 d8 6b 3d 27 71 86 bb 93 56 01 bd 8e 23 aa 3d
       0.05757917 -0.0041028443 -0.031576704 0.08307563
0001d0 0e a5 87 3d 41 f8 01 bc c8 40 bc 3d 3c fb fe 3d
       0.066232786 -0.0079327235 0.091920435 0.12450263
0001e0 9e c9 c5 3c 93 ec 0d be e5 dd 35 be 0e f5 48 be
       0.02414399 -0.13859777 -0.17760427 -0.19624731
0001f0 a3 9a f1 bd a4 e0 fc 3d 60 be 3c 3e a5 f6 70 3e
       -0.11797073 0.12347534 0.18431997 0.23531587
000200 92 76 a0 bd 08 23 62 3d 97 43 c4 3d 1e 49 84 3d
       -0.078351155 0.05520919 0.09583204 0.064592585
000210 8b ab 6e bd 0a de b6 bd ea d4 e0 bd f5 98 f6 3d
       -0.058269065 -0.08929069 -0.1097811 0.12040893
000220 e4 26 97 3d 3a 34 a0 3d cd a5 c5 bc 9b 95 f6 bd
       0.07380465 0.078224614 -0.024126912 -0.12040254
000230 1b 76 0a be 4c d8 9b bc 75 45 f1 3d 7d 63 11 3e
       -0.13521616 -0.019024037 0.11780826 0.14198108
000240 29 2f 08 3c 09 20 ea bd 97 36 ef bd 97 13 37 be
       0.008312025 -0.114318915 -0.11680334 -0.17878567
000250 8b 4d a6 bc 07 09 dd 3d be 1a 62 3d 09 5a 29 3d
       -0.020300647 0.107927375 0.055201285 0.04134563
000260 a5 b8 b2 3d c8 11 22 3e 2e 1e e4 3d c4 13 bf 3a
       0.087266244 0.15827096 0.11138569 0.0014578034
000270 2a a0 14 be 6b 48 d4 bd c0 86 2a bd ba 71 f6 3d
       -0.14514223 -0.10365375 -0.041632414 0.1203341
000280 ef 72 07 bd 9e 8c af 3d cf 6a 17 3e 18 3e a5 3d
       -0.033068594 0.085717425 0.14786838 0.08068484
000290 ca 16 3e bc a3 bd d9 3c 20 53 5c 3c e3 23 b2 bd
       -0.011602113 0.026579684 0.013447553 -0.08698251
0002a0 19 09 b1 bd 71 5b 9d bc b9 0a f2 3b 95 f9 e9 bd
       -0.08644313 -0.019208642 0.007386532 -0.11424557
0002b0 1c 9d 9e bd 3d ba ba 3d 27 d9 20 bc e7 06 8b bd
       -0.0774481 0.091175534 -0.009817398 -0.06788426
0002c0 84 cd 11 be ad b2 c5 bd af ab 71 3d 61 db 25 3e
       -0.14238554 -0.0965322 0.05900162 0.16196968
0002d0 80 53 24 3d 4b 04 3a bc 64 4e 99 3d c0 9a 66 3d
       0.040118694 -0.011353563 0.07485655 0.056299925
0002e0 77 29 b9 bd 04 2f 00 be 73 fd 32 be 1a 8e 31 bd
       -0.09041112 -0.12517935 -0.17479496 -0.04334841
0002f0 f6 32 65 3d 70 64 3f 3d 8a 9f a3 3d 85 7e 3c 3e
       0.055956803 0.046726644 0.07989414 0.18407638
000300 e4 d8 a6 bc 52 2e eb 3b c1 8b 67 bd a3 4f 48 bd
       -0.020367093 0.0071771527 -0.056529764 -0.048904072
000310 02 45 3a bd a8 98 4a bd c1 6e 94 bc 37 d4 98 3d
       -0.045475967 -0.04946199 -0.018119218 0.07462352
000320 6e 20 d3 3d 09 f1 e6 3d d5 00 73 3d 4a d3 2b bd
       0.1030892 0.112764426 0.059326965 -0.041949548
000330 b9 d7 28 be 6c 60 b9 bc c6 70 a4 3d 4b c7 c8 3c
       -0.16488542 -0.022628985 0.08029322 0.024509093
000340 fa b2 bf 3d 77 89 d3 3d 18 87 0c 3d d9 ed 0a be
       0.09360309 0.10328954 0.034308523 -0.13567294
000350 de 8d 21 be 5f 45 3a be 29 fa 2a bd d2 a8 b4 3d
       -0.15776774 -0.18190525 -0.041742478 0.088212624
000360 9a 72 e5 3d 25 72 08 3e 3f 71 5f 3d 01 9a eb 3a
       0.11203499 0.13324793 0.05455136 0.0017974974
000370 8c 96 a1 bd 61 e5 b7 bd de b8 30 bd 9c b5 7f 3d
       -0.07890043 -0.089792974 -0.043145053 0.062429056
000380 d1 63 14 3e e4 60 0e 3d 38 58 8a bd b3 ec dc bd
       0.14491202 0.03476037 -0.06755108 -0.10787334
000390 5b 16 10 be 05 e3 24 be 29 e8 57 bd b0 54 82 3d
       -0.14071028 -0.16102226 -0.05271164 0.06363809
0003a0 08 12 46 3d 9c 60 fd 3c c1 34 d7 3d 28 3b b5 3d
       0.04835704 0.030929856 0.10508109 0.08849174
0003b0 00 a5 07 3e 2e 3a 30 3e d2 96 4a bc 63 26 e0 bb
       0.13246536 0.17209694 -0.01236506 -0.0068405136
0003c0 eb 07 f5 bd 44 16 90 bd f6 c7 12 be 88 f2 71 be
       -0.11964401 -0.07035497 -0.14334092 -0.23627675
0003d0 0e 4b f3 bd f8 15 1d bc a1 13 a4 3d 04 a5 c0 3d
       -0.1187955 -0.009587757 0.080115564 0.09406474
0003e0 0b f5 66 3e f7 7a 21 3e 18 4f 95 3d 96 cd a5 3d
       0.22554414 0.15769564 0.072904766 0.08095853
0003f0 22 b8 02 bd 43 6b 03 be cb e2 ad bd c3 30 de bd
       -0.031913884 -0.12833886 -0.08490523 -0.10849144

feature_compression.depthwise_conv.bias f4 [16]
000000 81 28 53 b6 b2 7c 31 b6 e5 ee 98 b7 91 ac 87 b7
       -3.1465026e-06 -2.6447638e-06 -1.8231056e-05 -1.6173612e-05
000010 e4 d2 05 b6 56 49 52 36 9e ab b5 b6 09 21 2e 38
       -1.99413e-06 3.1335126e-06 -5.414199e-06 4.15156e-05
000020 1b 20 f5 b6 f1 15 be 37 c9 bf 80 36 f6 fd 3d b8
       -7.3053066e-06 2.2659982e-05 3.837024e-06 -4.529763e-05
000030 61 af cb b7 f2 4b 88 b6 01 cd 38 36 bc 69 8a b7
       -2.4281153e-05 -4.061957e-06 2.7537465e-06 -1.6500118e-05

feature_compression.pointwise_conv.weight f4 [16, 16, 1, 1]
000000 3f 87 b6 3c ab 68 79 be ad e5 53 bd fa b0 f0 bd
       0.022281287 -0.24356334 -0.051732708 -0.117525056
000010 ec 6d 61 3d 9e 84 d7 bd 16 9d 2a bc 03 74 48 bd
       0.05503647 -0.105233416 -0.010413429 -0.048938762
000020 9d 65 b3 3d e7 08 a3 3d 55 3a 7a be c5 89 da bb
       0.087596156 0.07960682 -0.24436314 -0.0066692554
000030 2a 5b ea bd 1a 1e 1d 3d fc 71 1c bd 67 d2 29 bd
       -0.114431694 0.038358785 -0.03819464 -0.04146042
000040 3a 21 22 3d 90 03 7b 3d 99 5d 46 be 27 03 92 3c
       0.03958247 0.061282694 -0.19371642 0.017823769
000050 92 79 00 3e ed 10 2e be 60 f0 d0 3d 03 ed 33 3e
       0.12546375 -0.16998644 0.10202098 0.17570882
000060 81 5d 2c 3e be 61 12 3d f7 a2 9d bc b9 e9 94 3d
       0.16832544 0.035737745 -0.019242747 0.072711416
000070 02 7f ec bd 57 d6 02 3e 54 bd a0 3d 75 4d e4 3a
       -0.11547662 0.12777077 0.078486115 0.0017418104
000080 68 90 cb 3b 89 01 a4 bd 08 3e 77 3d cd 97 ab bd
       0.006212283 -0.08008105 0.060361892 -0.08378563
000090 3e 48 62 3d 55 f8 ed bd 59 9c ae 3c 73 ae bb 3b
       0.055244677 -0.11619631 0.021314787 0.005727583
0000a0 68 96 3e bd 17 6c e2 bc 4c 42 64 3e 64 de d7 3d
       -0.046530157 -0.027639432 0.22290915 0.105404645
0000b0 40 19 13 3e 97 93 52 bc 45 50 84 3e ad 97 6c bc
       0.14365101 -0.012852571 0.2584249 -0.014440459
0000c0 44 04 a1 3d ca 9c 81 bc 47 12 8f bd d6 d8 e8 bd
       0.07862142 -0.015821833 -0.06985908 -0.11369483
0000d0 34 49 34 be bc 43 f2 bd d7 ff df 3c 9f 98 2d 3e
       -0.1760605 -0.118293256 0.027343674 0.16952752
0000e0 6c 8a 25 bc 9b 27 d6 bd 4d e0 b0 bc fe 36 27 3e
       -0.010103803 -0.10456773 -0.02159133 0.16329572
0000f0 22 05 93 b6 b2 cf 16 3d ee 8c d1 3c f8 a3 1a 3e
       -4.381539e-06 0.036819167 0.025579896 0.15101612
000100 df f0 b9 3d 3d c5 85 3d 2d b1 3e 3e 5b 4d c0 bd
       0.09079146 0.06531761 0.18622275 -0.093897544
000110 f1 01 8b bd 44 63 df 3d 3f 1c 7c bd a6 81 79 3e
       -0.0678748 0.10907605 -0.061550375 0.24365863
000120 9e a9 a5 bc 79 79 c1 3c d2 ef 51 bd 0a 64 d2 bb
       -0.020222481 0.023617493 -0.0512541 -0.006420617
000130 2f 53 d9 bd b9 c4 27 3d 0e 70 29 3e d4 a0 e6 bd
       -0.10611569 0.040959094 0.16546652 -0.11261144
000140 d2 a3 26 bd 7e 3c 1c bd 72 26 16 3c 51 4f 0f be
       -0.040683575 -0.038143627 0.0091644395 -0.139951
000150 7b 87 e3 3c a7 06 e2 bd e0 f8 cb 3c 4c 23 b2 bd
       0.027774563 -0.11036425 0.024898946 -0.086981386
000160 bf 01 a3 3c b4 68 15 bd 33 c0 5e 3e 1b 0b 16 3e
       0.019898294 -0.036476806 0.21753006 0.14652674
000170 ce 2d a6 3d 95 bd 9b bd 3b 88 71 3e d6 f0 7b bd
       0.08114205 -0.07604519 0.23587124 -0.061508976
000180 29 3b 8a 3d b7 f8 5f 3c bb 72 11 3d e1 19 1a be
       0.06749565 0.013670138 0.035509806 -0.15048935
000190 87 b1 d5 bd 60 ff 8a 3d 6b a0 04 3b e5 d7 ff 3d
       -0.10434251 0.0678699 0.0020237218 0.124923505
0001a0 ec b5 05 be 8c 06 21 bd b3 6b 3a bc 1f d0 fd 3b
       -0.13057679 -0.039312884 -0.011378217 0.0077457572
0001b0 b0 d5 48 be 3f f7 66 bd 38 88 ef bd 23 fb ed 3c
       -0.19612765 -0.056388136 -0.116959035 0.029050415
0001c0 0d 5f 31 bc 00 5f c6 bc d2 f5 43 3d 40 1b e2 3c
       -0.0108258845 -0.024215221 0.047841854 0.027600884
0001d0 4b 90 51 3c 61 f4 01 bd e5 d3 a3 3d eb cc a7 bd
       0.01279075 -0.0317272 0.079994 -0.08193382
0001e0 70 73 02 3d d1 44 9a 3d 0e 38 ef 3d 02 34 e9 bb
       0.03184837 0.07532657 0.116806135 -0.0071167955
0001f0 66 e2 84 bd c9 a8 17 3e 7b d8 38 3e af 8f 6a 3e
       -0.064884946 0.1481048 0.18051331 0.22906373
000200 03 d2 a7 3d 81 29 b9 bc 73 01 0d be 3e d4 05 be
       0.081943534 -0.022602798 -0.13770084 -0.13069245
000210 71 d4 f5 bd 04 4a 95 bd f7 10 9a 3d 92 bb 15 3e
       -0.120034106 -0.07289508 0.07522767 0.14622334
000220 8c 3f ca bc 2d 77 a4 bd 05 8e cf bc 10 ef 24 3e
       -0.024688505 -0.080305435 -0.025336275 0.1610682
000230 82 9d 29 3d 04 c1 97 3b 06 84 3f bd 4e 56 e3 3d
       0.041409977 0.0046311636 -0.046756767 0.11100446
000240 71 96 f9 3d 0d 58 3d 3e 6c 81 0c 3e 3e dd 58 be
       0.121868975 0.1849062 0.13721246 -0.21178147
000250 ca 6d 71 bc 05 d3 11 3e 0f 9f e5 bd fb e0 1f 3e
       -0.014735648 0.14240654 -0.11211979 0.15613167
000260 70 47 6e bd 5a 04 8f 3c 36 ef 1f bb 0a 63 01 3e
       -0.058173597 0.01745813 -0.0024404055 0.12635437
000270 d4 5d c9 bb 32 14 96 3d f2 a2 b4 bc d6 68 97 bc
       -0.0061452184 0.07328071 -0.022050355 -0.018482607
000280 60 66 7e 3d bf 65 0c 3e 85 56 11 3e 9a cf 8b 3c
       0.06210935 0.13710688 0.14193161 0.017066766
000290 90 bc 2f be 0b 14 9d bd b0 a4 1a bd 01 81 c8 bd
       -0.17161775 -0.076698385 -0.037754714 -0.097902305
0002a0 41 25 ea bd c6 36 5d 3d 2b 3d 1b bc 06 79 ba 3d
       -0.11432887 0.054007314 -0.009475033 0.09105115
0002b0 ee 91 c0 3d 91 c0 6e 3e d6 a3 a2 3d 9a e7 5d 3d
       0.09402834 0.23315646 0.079414055 0.05417595
0002c0 c7 a2 cc 3b 9d cb 6c 3c fb ae af 3d 24 0d 91 3b
       0.0062449905 0.014452842 0.08578297 0.0044266153
0002d0 73 6b 63 3e 5f c2 9c 3d 6f 5b a3 bd a1 7f 58 3d
       0.22208957 0.07654261 -0.07976424 0.05285609
0002e0 96 c0 3b be 13 26 80 be fc 3e d4 bd 4a bc a9 3c
       -0.18335184 -0.25029048 -0.10363576 0.020719666
0002f0 bc 05 9b 3d 61 bf 68 3d 13 0c bc 3d ec 04 fb bc
       0.07569453 0.05682314 0.091819905 -0.030641995
000300 67 22 44 3e d9 72 85 3d ad e3 ee bd 36 02 3c 3e
       0.19153748 0.06516046 -0.116645195 0.18360218
000310 fb 0b fe bc 0b d6 a7 3d 4b fa 52 be db d4 01 bd
       -0.031011572 0.08195122 -0.20603292 -0.031697135
000320 fd 53 94 3d 47 57 bd 3d d9 84 81 3d 6b 51 a6 bd
       0.07242582 0.092451625 0.06324167 -0.08120998
000330 c7 5b b4 3c 2e 5d 33 3e 8a db 39 3b f5 c4 6c bd
       0.02201642 0.17516014 0.0028359615 -0.05780502
000340 3b 5e 05 3d 40 7a 88 bc 59 ed a7 bd e9 08 df bd
       0.03256057 -0.016659856 -0.08199567 -0.10890371
000350 21 df 2c be 02 e1 07 be 4d 94 8a 3b 71 df 36 3e
       -0.16881992 -0.13269427 0.0042291046 0.17858674
000360 f4 0f fd bc 52 07 31 be 78 8f ee 3b c6 55 0e 3e
       -0.030891396 -0.17287949 0.0072802864 0.13899907
000370 61 8d a3 3d 56 dd b1 3d 0e ba 9a 3d 39 ab dc 3d
       0.0798595 0.086847946 0.07555018 0.10774846
000380 4d c7 15 be 48 6d e0 3d e8 de f8 bd 79 59 4a be
       -0.14626808 0.10958344 -0.12151891 -0.19760694
000390 57 de cc bb 07 ec a4 bd a7 91 3e 3e 02 82 ab 3d
       -0.006252091 -0.08052831 0.1861025 0.083744064
0003a0 d6 80 84 3d c2 2c 39 3e 04 2a 13 3c 3d c0 90 3c
       0.06469886 0.1808348 0.008982185 0.017669791
0003b0 f9 31 1c be 39 ee a4 bd 8c 57 b2 bd 40 c5 06 3d
       -0.15253438 -0.0805325 -0.087081045 0.032902956
0003c0 5e 62 df 3d 07 14 8b bb ad 11 ac 3d a6 7a ae 3d
       0.10907434 -0.004244331 0.08401809 0.08519487
0003d0 d5 0b 27 3e b8 97 be bd 03 03 3c be c6 3b 15 3e
       0.16313107 -0.09306282 -0.18360524 0.14573583
0003e0 35 d8 0c be f5 2e 16 be 34 c7 81 bd 88 2c 4f 3d
       -0.13754351 -0.1466635 -0.06336823 0.050579578
0003f0 31 d7 be 3d 3b 77 9b 3d de e1 0d be 06 75 ae bc
       0.09318388 0.07591101 -0.13855693 -0.021296035

feature_compression.pointwise_conv.bias f4 [16]
000000 3a ae 1f 36 ad 65 19 b7 62 9c 92 b7 a9 f5 9c b6
       2.379426e-06 -9.143184e-06 -1.7477378e-05 -4.677761e-06
000010 95 f9 b4 b7 71 90 1a b8 87 89 b0 38 34 06 80 37
       -2.1573893e-05 -3.6850983e-05 8.4179504e-05 1.5261678e-05
000020 e8 ab a1 37 7d c1 86 b8 0a 37 09 37 3a 32 3a b8
       1.9272746e-05 -6.425658e-05 8.178651e-06 -4.4392633e-05
000030 12 91 0b b8 3f d3 c9 b7 eb a2 33 38 22 b0 91 b8
       -3.327529e-05 -2.4059436e-05 4.2828655e-05 -6.946946e-05

feature_compression.senet.fc.0.weight f4 [8, 16]
000000 11 0a 7b 36 c7 e5 bb 36 fa b3 2e b6 65 54 94 37
       3.7407774e-06 5.599784e-06 -2.603278e-06 1.7682274e-05
000010 67 4a 40 b5 32 6b 83 36 84 45 e2 37 6b 88 86 37
       -7.1633843e-07 3.9165834e-06 2.697367e-05 1.603757e-05
000020 c9 5c ce 36 f9 df 27 37 14 3b c1 b7 c7 63 43 37
       6.15008e-06 1.0006123e-05 -2.3034903e-05 1.1646137e-05
000030 ad f0 0d 37 d0 cf bc 35 88 32 fc 37 cb 67 b5 36
       8.460292e-06 1.4067573e-06 3.0064271e-05 5.4063034e-06
000040 cb 0a 00 00 8d 08 00 00 d1 00 00 00 99 05 00 00
       3.872e-42 3.067e-42 2.93e-43 2.008e-42
000050 34 09 00 80 3d 08 00 00 ae 06 00 00 d9 05 00 00
       -3.301e-42 2.955e-42 2.396e-42 2.098e-42
000060 b7 05 00 00 65 0e 00 00 48 09 00 80 cb 00 00 80
       2.05e-42 5.164e-42 -3.33e-42 -2.84e-43
000070 40 11 00 80 81 04 00 00 3e 0f 00 00 90 05 00 80
       -6.188e-42 1.616e-42 5.468e-42 -1.995e-42
000080 65 06 00 80 08 02 00 00 bc 0f 00 80 1a 0b 00 80
       -2.294e-42 7.29e-43 -5.644e-42 -3.982e-42
000090 93 08 00 00 0f 01 00 00 3c 1e 00 80 a9 0f 00 00
       3.076e-42 3.8e-43 -1.0846e-41 5.618e-42
0000a0 c1 04 00 80 c0 08 00 00 fd 05 00 80 2d 11 00 80
       -1.705e-42 3.139e-42 -2.148e-42 -6.162e-42
0000b0 3e 0c 00 80 4b 0a 00 80 da 01 00 00 ef 01 00 80
       -4.392e-42 -3.692e-42 6.64e-43 -6.94e-43
0000c0 94 0b 00 80 e4 01 00 80 cd 09 00 80 ce 03 00 80
       -4.153e-42 -6.78e-43 -3.516e-42 -1.365e-42
0000d0 3c 01 00 80 35 0b 00 00 a9 04 00 80 cb 06 00 00
       -4.43e-43 4.02e-42 -1.672e-42 2.437e-42
0000e0 33 03 00 80 12 08 00 00 88 0c 00 00 09 00 00 00
       -1.148e-42 2.895e-42 4.495e-42 1.3e-44
0000f0 8f 0a 00 00 d7 05 00 00 94 00 00 00 96 06 00 80
       3.788e-42 2.095e-42 2.07e-43 -2.363e-42
000100 c8 0b 00 80 6c 05 00 00 9b 02 00 80 65 06 00 00
       -4.226e-42 1.945e-42 -9.35e-43 2.294e-42
000110 10 11 00 80 64 00 00 00 6b 08 00 80 a1 0c 00 80
       -6.121e-42 1.4e-43 -3.02e-42 -4.53e-42
000120 0d 07 00 80 b8 0c 00 80 de 07 00 00 c7 0b 00 80
       -2.53e-42 -4.563e-42 2.822e-42 -4.225e-42
000130 b8 0d 00 00 38 07 00 80 37 09 00 00 ab 0b 00 80
       4.921e-42 -2.59e-42 3.306e-42 -4.186e-42
000140 1e 0e 00 80 77 05 00 80 65 0c 00 80 57 06 00 00
       -5.064e-42 -1.96e-42 -4.446e-42 2.274e-42
000150 9c 0a 00 00 50 08 00 00 ac 01 00 80 b5 0c 00 80
       3.806e-42 2.982e-42 -6e-43 -4.558e-42
000160 b0 1c 00 80 2b 02 00 80 0f 01 00 80 9c 05 00 80
       -1.0291e-41 -7.78e-43 -3.8e-43 -2.012e-42
000170 16 11 00 80 32 02 00 80 04 11 00 80 15 0e 00 80
       -6.129e-42 -7.88e-43 -6.104e-42 -5.052e-42
000180 53 da 71 05 ea 85 4c 07 9f e7 ee 87 3d ef 0c 09
       1.13718654e-35 1.5386608e-34 -3.5946395e-34 1.6964376e-33
000190 14 61 3a 08 5f 75 52 07 1f e8 44 87 96 33 cd 87
       5.6086454e-34 1.5833136e-34 -1.4813615e-34 -3.0875291e-34
0001a0 17 dc af 88 bf f8 ad 87 3a 1d 8a 88 1a 26 5e 86
       -1.0584172e-33 -2.6176347e-34 -8.312444e-34 -4.1781552e-35
0001b0 1d 85 83 87 e1 80 f2 88 a6 72 7c 86 40 af b6 87
       -1.9788926e-34 -1.45951445e-33 -4.7480163e-35 -2.748732e-34
0001c0 63 01 00 80 da 06 00 00 ca 0a 00 00 69 0b 00 00
       -4.97e-43 2.458e-42 3.87e-42 4.093e-42
0001d0 39 03 00 00 3e 1d 00 80 2c 01 00 00 b8 17 00 00
       1.156e-42 -1.049e-41 4.2e-43 8.509e-42
0001e0 de 0f 00 00 53 19 00 00 8d 04 00 80 dc 30 00 00
       5.692e-42 9.085e-42 -1.633e-42 1.7527e-41
0001f0 eb 0f 00 00 9f 03 00 00 3d 05 00 80 c8 02 00 80
       5.71e-42 1.299e-42 -1.879e-42 -9.98e-43

feature_compression.senet.fc.2.weight f4 [16, 8]
000000 b7 2b 18 37 e2 10 00 80 f3 06 00 80 68 10 00 80
       9.070084e-06 -6.056e-42 -2.493e-42 -5.885e-42
000010 21 0d 00 00 d1 02 00 00 20 38 a1 88 b1 0b 00 00
       4.71e-42 1.01e-42 -9.70303e-34 4.194e-42
000020 c4 85 8b 37 67 04 00 00 e8 13 00 80 b2 04 00 80
       1.663238e-05 1.579e-42 -7.141e-42 -1.684e-42
000030 87 09 00 00 68 06 00 80 32 c6 b6 88 c3 47 00 80
       3.418e-42 -2.298e-42 -1.1000322e-33 -2.5743e-41
000040 54 41 13 b6 45 00 00 80 af 08 00 00 f3 0c 00 80
       -2.1942733e-06 -9.7e-44 3.115e-42 -4.645e-42
000050 9d 0d 00 00 af 07 00 80 54 70 d7 07 5e 07 00 00
       4.884e-42 -2.756e-42 3.2415625e-34 2.643e-42
000060 04 2a 0b b7 a1 01 00 00 63 04 00 00 26 02 00 00
       -8.294828e-06 5.84e-43 1.574e-42 7.71e-43
000070 e5 07 00 80 9d 0f 00 00 05 3d 9e 08 c9 32 00 80
       -2.832e-42 5.601e-42 9.523625e-34 -1.8218e-41
000080 62 99 87 38 34 0e 00 00 21 15 00 00 30 03 00 00
       6.4658714e-05 5.095e-42 7.58e-42 1.143e-42
000090 66 0c 00 80 49 0b 00 80 18 31 c2 08 89 15 00 80
       -4.448e-42 -4.048e-42 1.1687492e-33 -7.725e-42
0000a0 19 33 50 b5 ca 06 00 00 62 0c 00 80 ce 0d 00 80
       -7.7560395e-07 2.435e-42 -4.442e-42 -4.952e-42
0000b0 b7 03 00 80 3f 0a 00 00 21 03 0d 09 b9 02 00 00
       -1.333e-42 3.676e-42 1.6973729e-33 9.77e-43
0000c0 0e 5d 14 34 99 05 00 80 c0 05 00 80 f2 12 00 80
       1.3817427e-07 -2.008e-42 -2.063e-42 -6.796e-42
0000d0 91 03 00 80 0d 10 00 80 97 6b 91 08 0c 6e 00 00
       -1.28e-42 -5.758e-42 8.752164e-34 3.9477e-41
0000e0 f6 8f 9c b6 11 0e 00 00 4f 0b 00 00 0f 09 00 80
       -4.6659216e-06 5.046e-42 4.057e-42 -3.25e-42
0000f0 c5 08 00 00 24 0d 00 80 24 4e 3a 08 5e 31 00 80
       3.146e-42 -4.714e-42 5.6064193e-34 -1.771e-41
000100 07 dc 0e b7 d4 0e 00 80 8d 06 00 80 0c 0c 00 00
       -8.515089e-06 -5.32e-42 -2.35e-42 4.322e-42
000110 7a 0b 00 00 f4 10 00 00 2f e4 c6 07 f7 3d 00 80
       4.117e-42 6.082e-42 2.9925843e-34 -2.2229e-41
000120 8e 27 31 36 7c 07 00 80 83 04 00 80 3d 0b 00 80
       2.639808e-06 -2.685e-42 -1.618e-42 -4.032e-42
000130 8c 03 00 80 59 06 00 00 33 7c fa 07 95 0c 00 00
       -1.272e-42 2.277e-42 3.7688817e-34 4.514e-42
000140 77 e4 d0 b7 49 0f 00 80 25 0d 00 00 01 04 00 80
       -2.490192e-05 -5.483e-42 4.715e-42 -1.436e-42
000150 67 0c 00 80 cc 0b 00 80 ec 47 ae 87 28 01 00 00
       -4.449e-42 -4.232e-42 -2.6222882e-34 4.15e-43
000160 1a 09 4c b5 1f 08 00 80 c4 04 00 80 12 09 00 80
       -7.6009167e-07 -2.913e-42 -1.71e-42 -3.254e-42
000170 29 05 00 00 e2 0d 00 80 75 60 59 87 0d 1b 00 00
       1.851e-42 -4.98e-42 -1.6353612e-34 9.704e-42
000180 7c db b6 38 0e 0e 00 80 33 04 00 80 69 0b 00 00
       8.7193184e-05 -5.042e-42 -1.506e-42 4.093e-42
000190 20 09 00 80 27 11 00 80 c1 43 10 07 13 05 00 00
       -3.273e-42 -6.153e-42 1.0853267e-34 1.82e-42
0001a0 6f a0 e9 b8 05 0e 00 80 80 01 00 80 b5 09 00 80
       -0.00011140189 -5.029e-42 -5.38e-43 -3.482e-42
0001b0 81 08 00 00 d2 04 00 00 8d f3 b4 09 d0 6a 00 00
       3.05e-42 1.729e-42 4.3562458e-33 3.8317e-41
0001c0 e8 72 4c b7 aa 0f 00 00 98 06 00 80 2e 0b 00 80
       -1.2186101e-05 5.619e-42 -2.365e-42 -4.01e-42
0001d0 3a 14 00 00 e7 06 00 80 8b eb 04 88 77 10 00 00
       7.256e-42 -2.476e-42 -3.9999185e-34 5.906e-42
0001e0 ee 20 cb b6 18 04 00 00 85 04 00 00 72 0a 00 80
       -6.053705e-06 1.469e-42 1.621e-42 -3.747e-42
0001f0 50 02 00 00 ee 04 00 80 f6 e6 d3 07 d9 0d 00 00
       8.3e-43 -1.768e-42 3.1883498e-34 4.968e-42

feature_compression.bn.weight f4 [16]
000000 e1 e3 64 3f 16 1a 82 3f 96 3e 85 3f 33 b8 87 3f
       0.89410216 1.0164211 1.0409725 1.0603088
000010 1c 5f 6e 3f ae 94 82 3f dd b8 89 3f 81 5a 52 3f
       0.93113875 1.0201623 1.0759541 0.8216935
000020 83 07 85 3f bc ad 85 3f 6e 8b 83 3f 5d 1f 60 3f
       1.0392917 1.0443645 1.0276926 0.87547857
000030 fb 1e 68 3f 81 5f 8c 3f e6 79 5a 3f 71 60 6f 3f
       0.9067227 1.0966645 0.8534225 0.9350653

feature_compression.bn.bias f4 [16]
000000 7c 18 08 be b7 24 4b be 24 f6 64 be b7 c3 62 be
       -0.1329059 -0.19838224 -0.2235952 -0.22144972
000010 bb 90 17 be 44 d0 4d be 74 cb 62 be 84 6e 1c be
       -0.14801304 -0.20098978 -0.22147924 -0.15276533
000020 da 8b 78 be 9b a4 5e be 8e 42 5f be 58 d2 14 be
       -0.24272099 -0.2174248 -0.21802732 -0.14533365
000030 c3 56 f7 bd 2d 31 73 be 5a 3e f5 bd 2a fa 34 be
       -0.12077095 -0.23749228 -0.11974783 -0.17673555

feature_compression.bn.running_mean f4 [16]
000000 a3 aa 1e bb be 89 2e bb cd 01 2f 3a 4b b5 3a 3b
       -0.0024210594 -0.0026632394 0.00066759886 0.0028489407
000010 12 76 82 ba 16 90 04 bb da b6 1b 3b 29 94 a5 3b
       -0.0009953401 -0.0020227483 0.002376011 0.0050530625
000020 09 df fe 3a 94 e7 0e 39 81 28 8d 3b dd 27 63 3a
       0.0019445132 0.00013628445 0.004307807 0.0008665303
000030 40 94 f1 b8 e0 3a 16 3b dd 4c c4 ba b4 1c 97 3a
       -0.00011519389 0.0022923276 -0.001497652 0.001152894
